actor.pth (torch_old, 206552 bytes, 12 tensors)

fc1.weight f4 [256, 33]
00000000: 81e7 28bd 1ea7 a53d c839 9cbd d78c b8bd
00000010: 2a9c e23c 6978 3c3c a03b 09bd 729e de3c
00000020: 3384 dfbc ed49 1d3e a5f5 653d 6c81 583d
00000030: d28c 1c3e fb06 603d 6a11 a63b 7c6d 9a3d
00000040: f7bd debb 1386 70bd 9472 953b 9284 c83c
00000050: 7266 22be ce6e 7abd ff6c 893d 4bc1 2a3d
00000060: 1ad6 673d c7ee a93d 00f1 02be ff7b 29bd
00000070: 2284 0b3e 2047 57bb 1d38 363d 747a 5abd
00000080: 8861 5e3e e4bd ccbc d207 023e c167 353c
00000090: d4c1 973d 4628 f4bc 6bbe 06b8 f7ce 0c3c
000000a0: 89fc 5dbd 77bc d2bc f469 d83c f66d ddbc
000000b0: 104f ce3c d242 253d 1dba 49bc e180 c7bd
000000c0: 69ea bb3d 5e84 b2bc bddb 80bd 1a49 0ebd
000000d0: 2ad1 f2bc a6ce abb8 b640 91bb 6445 6a3c
000000e0: 5cfa 70bd 2de1 55bc 973a d2bc e3de febd
000000f0: 61b2 27bb 4a74 80bd 4657 6d3d c224 fcba
00000100: a880 92bc e8c9 2d3f 2793 a83d 0a81 933d
00000110: 0cf4 203d 42d2 87bc 0349 cdbc 1dfc 64bd
00000120: 8360 2ebd 9a0f f4bc 0420 373e a010 ebbb
00000130: 6d9d 82bd b624 9dbb 5e95 00be 469e b4bd
00000140: 4bc9 2c3e 0e73 073e 0843 3e3d 9168 543c
00000150: ce87 89bc 0799 023d 3130 fdbc 876d 5a3e
00000160: f37d 883d 2a32 aabd fdf6 ec3d 5db2 24bb
00000170: 2772 543c 5b38 d9bc 80e2 833b 7af0 47bd
00000180: f111 03bd 7cb0 013d a294 91be b514 ccbd
00000190: c12f e93c 1216 b83d 15ca 96bb 70f7 07bd
000001a0: d156 cb3b b8b1 af3c 3aa9 293b c6f2 9c3b
000001b0: c8bb adbd 7139 73be fb6a ad3d 2923 06bd
000001c0: 1968 b53d fb59 0b3e 4b7f 90bd 4b28 3fbc
000001d0: d66f 8dbc 5f81 dd3c 63a0 36bb 9f05 c1bc
000001e0: 8b50 49ba 6ee5 96bd d301 c9bd 6547 243e
000001f0: aedc e23c e711 4f3d 982a 173d 48a6 e23c
00000200: 0848 5a3c 0ca3 bb3c 64cb dfbc ad10 083d
00000210: c05c 183d 00d3 413e dd0a 103d e03a 9bbc
00000220: e975 07bd 20b0 a8bc 361d 8dbd 9047 383e
00000230: 8eca 02be c868 fabc 80b9 13be 5067 f43d
00000240: f3ac 06be 78c4 8a3d b4d5 ebb9 aeda e0bc
00000250: 994e 98bd c941 f9bc 977b 7c3b 6925 e2bb
00000260: 9f24 01be c258 503d fa35 85bd 97e5 ed3c
00000270: 7dad 7ebd 2560 08be 4155 d9bb 586c 39bd
00000280: 1b70 9d3b 0862 21bd 6aa1 8d3c 7ad1 563d
00000290: f8fd 92be 91b7 3abd a6b7 003e 65bb 81bd
000002a0: 6d49 033c 604c c8bc c0e9 d7bc b02d 8bbc
000002b0: 650a da3c 708a 003d e018 0b3d 048d f33c
000002c0: 1363 b23c e091 f3bc 3b61 803d 902d 79bd
000002d0: 27ae c9bb af9a b83c 47e5 863a b2cc febc
000002e0: aef4 3c3c eeb3 ab3c 7f07 82bc 9f74 a9bb
000002f0: 06f7 083d e35d fabb c699 e53b 68ac b1bd
00000300: 8304 7ebd 825f a73c c410 323d 1b24 553d
00000310: 128f 4dbd 3eb9 453f 5057 2fbc 13c3 963d
00000320: 2ffe 313e e7cc 073d b063 983b 860f 5fbc
00000330: 36f8 0a3d 97d3 0cbd 5c10 873e 80a1 a6bb
00000340: 10cd 3fbb 4139 d43d 6cb1 f43d 7b8d 713d
00000350: 6e05 033b dfcb 93bd 82e8 3b3d 8336 50bc
00000360: f7e5 033d 2a1d aabd 80c9 fdbc fb1f 42bb
00000370: 8e03 2dbd 276b 5ebd bae7 c83c 1327 1d3c
00000380: aefa 073e 0f27 2bbd b2c7 3ebe f86e 923c
00000390: 9f55 66bd b42c f93c f664 1ebd 6c53 933d
000003a0: 0b6d 02be c353 b9bd b9c0 cbbb f5f2 393c
000003b0: 8cc4 c8bd 10aa 193d 05f7 a63d 873c a7bd
000003c0: 3462 04be e5fc c73d b7f7 d53d b610 1ebc
000003d0: 015d 6dbd 8b05 e13d 7ccb 2a3d a52e 853d
000003e0: 2f01 813d 5151 15bd db0b a93d 22cf 2dbe
000003f0: 4163 2cbd fe5b 2abe 77f8 59bd b93c 983b
-0.041236404 0.08088516 -0.076282084 -0.09011238 0.027662355 0.011503317 -0.03350413 0.027175162
-0.027284717 0.15360232 0.056142468 0.0528578 0.15288094 0.054694157 0.005067994 0.07540414
-0.006797548 -0.058721613 0.004560778 0.024477277 -0.15859392 -0.061140828 0.067102425 0.041688245
0.056600668 0.08297496 -0.12787247 -0.041378018 0.13624623 -0.003284879 0.044487108 -0.053339437
0.21716893 -0.02499289 0.12698296 0.0110721 0.07410017 -0.02980436 -3.212543e-05 0.008594266
-0.054195914 -0.025724633 0.02641771 -0.027029973 0.025184184 0.040346928 -0.012312439 -0.097413786
0.091755696 -0.021791633 -0.06291912 -0.034737684 -0.029640753 -8.192407e-05 -0.004432763 0.014298771
-0.05883251 -0.013054174 -0.025662703 -0.12444856 -0.00255885 -0.062721804 0.05794456 -0.0019237029
-0.017883614 0.6788621 0.08231192 0.072023466 0.03929524 -0.01657975 -0.025059229 -0.055904496
-0.04257251 -0.029792596 0.17883307 -0.0071736127 -0.06377683 -0.004795636 -0.12556979 -0.08819251
0.16873662 0.13227484 0.046450645 0.012964384 -0.01678839 0.03188422 -0.030906769 0.21330844
0.06664648 -0.08310349 0.11570547 -0.0025130727 0.012966669 -0.02651613 0.0040248036 -0.04881332
-0.031999532 0.03166245 -0.2843371 -0.09964887 0.028465154 0.089885846 -0.004601727 -0.03319496
0.0062054177 0.021447048 0.002588822 0.004789683 -0.08483082 -0.23752381 0.084676705 -0.032748375
0.08857746 0.13608544 -0.07055529 -0.011667321 -0.017265242 0.027039228 -0.0027866594 -0.02356225
-0.00076795433 -0.07367979 -0.09814801 0.1604286 0.027693119 0.050554182 0.036905855 0.02766718
0.013322838 0.022904895 -0.027318664 0.03321903 0.03719783 0.18928146 0.03516661 -0.018948972
-0.033071432 -0.020591795 -0.06890337 0.17996049 -0.12772581 -0.030567542 -0.14426231 0.11933768
-0.13151912 0.06775755 -0.00044981914 -0.027448025 -0.07436866 -0.030426877 0.0038525814 -0.0069014323
-0.12611626 0.050865896 -0.06504436 0.029040141 -0.06217717 -0.13317926 -0.0066324775 -0.04526934
0.004804624 -0.03940013 0.017288882 0.052445866 -0.28709388 -0.04558522 0.12570056 -0.06334571
0.008013112 -0.024450481 -0.026356578 -0.016989559 0.026616285 0.031382024 0.03395927 0.029730327
0.021775758 -0.029732645 0.06268545 -0.060834467 -0.006154794 0.022534696 0.0010291719 -0.031103466
0.011532946 0.02095982 -0.015872715 -0.005171373 0.033438705 -0.0076405867 0.0070068566 -0.08675462
-0.06201602 0.020431284 0.04347302 0.052036386 -0.05018527 0.7723578 -0.010701969 0.07361426
0.1738212 0.033154394 0.0046505556 -0.013614541 0.03392812 -0.034381475 0.2637967 -0.0050851703
-0.0029266514 0.10362483 0.11947903 0.058972817 0.001999225 -0.0721662 0.045876034 -0.012708309
0.032201733 -0.08306344 -0.030979872 -0.0029621113 -0.04223972 -0.054301407 0.024524558 0.009591836
0.1327922 -0.041785296 -0.18630865 0.01787518 -0.056234 0.030416824 -0.038670503 0.07193646
-0.12736909 -0.090491794 -0.0062180427 0.011349429 -0.09803113 0.0375157 0.08152584 -0.081658415
-0.12928087 0.09765033 0.104476385 -0.009647539 -0.057950024 0.10987385 0.041697964 0.06503037
0.06299054 -0.036454502 0.082542144 -0.16973546 -0.042086843 -0.16636655 -0.05321547 0.0046459106

fc1.bias f4 [256]
00000000: a915 a1bd 517c 03be d116 323e 065c 05bd
00000010: c8bd 0e3d 089a 9abc 7f14 d53d b5d3 0a3c
00000020: d70b 6fbd c2b5 233e cb0f 47bd 61ee 2ebe
00000030: 19f9 ba3d 5d35 e1bc 2aab 393c 7f88 38bd
00000040: 19e3 86bc 28e7 2bba c865 f3bd 1578 383c
00000050: b9fb 3a3d 903e 293e 1add f83d b9f8 6c3d
00000060: 12db bcbd 6177 233d cdc9 21be 96ca 0e3e
00000070: ba6f 753d 72d8 1dbe 133d 043e 98b9 e63c
00000080: 009c c93d 12a2 193e 6743 c8bc f794 673d
00000090: 2934 083e e280 d3bc 1023 04be 6ec6 bcbd
000000a0: 2a20 2d3b cc0f 583d 7484 bbbd 6e8e a6bd
000000b0: 4515 2cbe 61d1 5dbd 0446 17bd 8226 c23d
000000c0: 0d00 84bc 02d6 e53d 750e 4bbd ff4b f3bc
000000d0: c678 1cbe d5cc 1f3e 4dea 14bd 67d9 db3c
000000e0: 5c10 1b3e c178 383d b6ba e1bc 27e6 0ebe
000000f0: 8c12 16bc 56ad 093e e31e b63c 104e d33d
00000100: 71a4 2a3b ab58 13be 4e06 cabd 56ad e7bd
00000110: 6eb4 dd3d 2c29 f9bd 2922 ff3d 1f00 5dbc
00000120: 38b3 673d 76c4 253e 15bc 7e3d 677d fabd
00000130: ab30 243e 2622 d2bd 505a 6fbd f8ba 3dbb
00000140: a429 1bbc 530e 793d f3e9 893d 066c f73d
00000150: a0ca bfba 7ee6 183e ef4e 0dbe 1a72 0d3e
00000160: 7c00 97bd 01f6 2cbe 28b2 b0bd 30a2 ec39
00000170: 7a96 a13d b16f 033e 5bea fc3c a98a c53d
00000180: 472c 273e 7db5 fabd 9682 a4bd 0eeb 0ebe
00000190: 7cee d9bd a864 b0bd be36 54bd 63cd d6bb
000001a0: df6c 30be 013d 00be 69b2 8ebc 0c95 153e
000001b0: 2b99 e23d 4acd 24be d18f a0bb 3a44 18bd
000001c0: ca3a 29be 14cb eebd c1e9 f5bc c63a 8abd
000001d0: 98fa 053e 5b25 853d dbf7 8ebd 2b0d 7e3d
000001e0: 5301 0c3c 71a9 043e 1ee8 ad3c a0b9 a9bd
000001f0: 7c9a 9bba a5e0 64bd d96d 15be f106 e63d
00000200: 347f 6ebd f8fa 0b3e cfba e33d 0ef7 d5bd
00000210: 2f46 b4bd 7ced dabc 6a21 b23d 3c80 a53d
00000220: 270c 3bbd c89b 693c 117f 94bc 2f23 74bd
00000230: b024 08be 51c9 e43c 2fb1 d9bd ebd8 3dbc
00000240: 22f4 12be 17fd f0bd 9f04 933d 62bf d13c
00000250: 1703 3c3c c7bb 563d 295e 19be 268f 9d3d
00000260: 4008 61bd 783a 9a3c 6d15 1fbe 14f8 213e
00000270: 055c 03be 1692 123e 106c 20bc c2e5 3b3d
00000280: 0ed1 0a3e 0741 0a3e 5213 0c3d a9ee c1bd
00000290: c671 f0bd 6af7 0d3e d5bd 02be a68d 18be
000002a0: d4fa 033e 0eeb 273e ad5b adbb 88b0 1f3e
000002b0: 0934 c83d 4e5a e2bd 1ede 6dbd 4842 973d
000002c0: b874 0c3c 9b13 d7bd 7f7e 2f3e 9550 31be
000002d0: d8bd dfbc 7af4 273e 5a9c b3bd 0cb9 31be
000002e0: 264b 4bbc c5a0 c0bc 8ec9 21be db1a e23d
000002f0: d4c0 fd3d 02ec 133e a513 013d 94c8 873d
00000300: c045 bebd 8208 a53d 54eb a43d b258 a6bb
00000310: 21d7 633d 587e 393d 8b4d 26be 00cb 2dbe
00000320: 46ad b83d bd60 8a3c b577 81bb 714c 943d
00000330: 106f 053e cf72 dabd 18c4 8fbd e4f0 2dbd
00000340: 8f95 34bd a155 603c 3bdb b6bd bd08 a0bd
00000350: 277e 123e 1315 07bd 22d6 babd 6fad c13c
00000360: dfe2 233e 3198 33bd cd03 043e e7dc 0b3c
00000370: 11ed 5e3c c8b6 c53d 395f d13d 39a1 80bd
00000380: 68b9 863d 93d1 103e 51e0 033e b39d debc
00000390: 0be6 80bd 1148 d23a 1f26 71bd a5aa 093c
000003a0: 4426 bdbd 620c 3a3d 1741 8b3c 73ac 89bd
000003b0: dcf8 fe3d 2e9b a43d 73fe 873d 46cc f8bd
000003c0: ff70 f6bd 74ba bdbd d8b3 903d 36e6 963d
000003d0: 5a3c bbbd 46ce 83bc 8e25 e93d 7514 50bd
000003e0: 5103 213d fdb2 0c3e 3168 2cbe 9f9c 13be
000003f0: ae82 19be 5b5b 263e 379b e23d 24c2 5cbd
-0.078654595 -0.12840392 0.17391516 -0.032558464 0.03484896 -0.018872276 0.104043 0.008473326
-0.0583609 0.15987304 -0.048599046 -0.17083122 0.09129543 -0.027491266 0.011332313 -0.045052048
-0.01646571 -0.0006557577 -0.118846476 0.011259099 0.045650218 0.16527772 0.12151547 0.057854388
-0.09221472 0.03990877 -0.15799637 0.13944468 0.059921004 -0.15414599 0.12913923 0.02816467
0.09844208 0.15003231 -0.024446202 0.05653855 0.13301148 -0.025818292 -0.12904 -0.09217535
0.0026416876 0.05274944 -0.09156123 -0.08132635 -0.16804989 -0.054154757 -0.036932006 0.09480001
-0.016113305 0.112224594 -0.049574334 -0.029699324 -0.15280446 0.15605481 -0.03635626 0.026837064
0.1514296 0.045037035 -0.027554851 -0.13954984 -0.009159695 0.13445029 0.022231525 0.103176236
0.0026037956 -0.14389293 -0.09864484 -0.11312358 0.1082543 -0.12166056 0.124576874 -0.013488798
0.0565674 0.16188225 0.062191088 -0.1223095 0.1603419 -0.102604195 -0.058435738 -0.0028950553
-0.009470377 0.060804676 0.067340754 0.12081151 -0.001463253 0.14931676 -0.13799642 0.13813058
-0.07373139 -0.16890718 -0.086277306 0.00045134267 0.07890029 0.12835576 0.030873468 0.09645588
0.16325484 -0.122416474 -0.0803272 -0.13956854 -0.106411904 -0.08612949 -0.05181002 -0.0065552457
-0.17229031 -0.12523271 -0.017419057 0.14607638 0.11064371 -0.16093937 -0.0048999568 -0.03717444
-0.16526332 -0.11659828 -0.03001869 -0.067494914 0.13083875 0.065012656 -0.069808684 0.062024277
0.008545238 0.12955262 0.021228846 -0.08287358 -0.0011871601 -0.0558783 -0.14592685 0.11231793
-0.05822678 0.13669956 0.11119615 -0.104475126 -0.08802449 -0.02672457 0.086977795 0.080810994
-0.045665886 0.014258333 -0.018126996 -0.059603866 -0.13295245 0.027928026 -0.10629498 -0.011587362
-0.14350942 -0.11767023 0.07178616 0.025603954 0.011475346 0.052425172 -0.14977325 0.07693319
-0.05493951 0.018826708 -0.15535517 0.1581729 -0.12828071 0.1431354 -0.009791389 0.04587341
0.1355631 0.13501368 0.034198113 -0.09469349 -0.117404506 0.13863912 -0.12767728 -0.14897785
0.12888652 0.1639826 -0.0052904696 0.15594685 0.0977555 -0.110523805 -0.058073156 0.07385689
0.00857275 -0.10501786 0.17138098 -0.17315896 -0.027312204 0.16401854 -0.08770056 -0.17355746
-0.0124080535 -0.02351416 -0.15799543 0.110402785 0.12390295 0.14445499 0.031512875 0.06630054
-0.092906475 0.08058263 0.08052698 -0.0050764913 0.055625085 0.045286506 -0.16240518 -0.1697197
0.09017424 0.016891832 -0.003951038 0.072411425 0.13030648 -0.10666429 -0.07019824 -0.04246606
-0.044087943 0.0136922905 -0.08928534 -0.07814167 0.14305936 -0.032979082 -0.09122874 0.02364227
0.16004513 -0.043846313 0.12892075 0.008536554 0.013606326 0.096540034 0.102232404 -0.06280751
0.06578332 0.14142446 0.12878539 -0.027174806 -0.06293877 0.0016043206 -0.058874246 0.008402501
-0.09235814 0.045421965 0.01699881 -0.06722345 0.1244981 0.08037411 0.06640329 -0.12148337
-0.12033271 -0.09264079 0.070655525 0.07368128 -0.091423705 -0.01608957 0.11384116 -0.05080076
0.039309803 0.13740154 -0.16836621 -0.14415215 -0.14991257 0.16245787 0.11064761 -0.053896084

bn1.weight f4 [256]
00000000: f9cd 923f 4432 963f 3fb4 883f a885 833f
00000010: 2b9e 843f c60e b73f 8f29 843f 7ae5 903f
00000020: 9301 793f 22d3 643f dcaa 9a3f 8163 a03f
00000030: 7b4f a13f 47bf 8a3f e230 803f 5979 843f
00000040: 8511 8f3f 2c66 8c3f 1622 9c3f 2e8a 953f
00000050: c206 7e3f 4e0d 983f 127e 823f d0bf 943f
00000060: 3c11 da3f 512b 863f 502a 913f d96b 933f
00000070: f50a 7a3f 00be a53f 8dad 863f e94a 953f
00000080: 211d 8c3f 6f3e b83f e979 8b3f e93e 943f
00000090: b05a 913f 277e a13f 1fa4 903f 4458 9a3f
000000a0: 57b2 833f 3e14 953f 4393 7a3f e443 8b3f
000000b0: 3a00 8e3f 1176 823f fdf2 9d3f 6730 9b3f
000000c0: 2261 943f 94e0 953f b06e 873f 3ffb 853f
000000d0: 873f 7d3f b000 8b3f 1707 8b3f c9ec 963f
000000e0: 7b0e 8b3f 1b18 a13f b0bc 633f d2ea 933f
000000f0: 6e60 b23f 36fc 883f 116c 913f f843 6f3f
00000100: 78b6 893f 44e3 863f 3e93 8f3f c5a9 9b3f
00000110: 9eea 8c3f a4ce 863f 883b 873f 1a29 8b3f
00000120: b06f 813f 987b c33f 5e17 843f f441 af3f
00000130: e496 7d3f c9a5 a23f a6e3 8a3f bc5f 9c3f
00000140: 5f7e a43f 403b a73f 2c5c a13f 1782 853f
00000150: 478d 913f 432f 8a3f 42ef 903f 3f93 8e3f
00000160: 0f5e 873f 31dd a33f 6b57 983f 503d 8e3f
00000170: c606 9a3f 0119 983f 3ac8 983f 449e 883f
00000180: a917 893f f6a6 703f 4b1e 7d3f 9e9c 8d3f
00000190: 489d 7f3f 5136 943f bec9 ac3f cd30 833f
000001a0: 3cff a43f b2bc 953f 170f 8b3f d379 983f
000001b0: 8b64 b83f 5821 9a3f 2ee2 8f3f 6e2d 8d3f
000001c0: 07e5 8f3f 847a 813f ae33 a03f d410 9c3f
000001d0: 080f 983f 08a0 a03f 1bb8 9b3f a6e6 a43f
000001e0: cbe0 913f 5f5a 983f f71f 833f cd04 a53f
000001f0: eb9c 8a3f cf63 8c3f e16a 833f c89d 8d3f
00000200: bf07 943f 256f 8d3f 580b 8d3f 85d8 ab3f
00000210: 65e3 973f 3bf4 943f 3a27 833f f900 8a3f
00000220: 9255 893f d7a9 853f 8b97 943f 0c74 983f
00000230: 54be 9a3f 4f37 993f 52ec b73f 89cc 873f
00000240: 4f24 8b3f c0bc 923f b066 913f c5ed 843f
00000250: 953b 8e3f 9e15 803f 4c85 853f e2af 843f
00000260: d3dc 863f c629 843f 8241 843f cd84 913f
00000270: d841 8c3f 8673 843f 08b9 8c3f 3fb6 783f
00000280: ee19 843f ca66 973f c911 963f 5dd9 8c3f
00000290: e2c1 9d3f ef79 823f ab42 9d3f 46ba 933f
000002a0: 8200 8d3f c0ad 923f e86d b43f b858 923f
000002b0: b218 a73f ef04 863f f0ef 993f 079a 8e3f
000002c0: fa60 7a3f 09d2 a13f 30da 9f3f 7959 773f
000002d0: f4c4 983f 48f5 8c3f 1efe 973f 8b81 913f
000002e0: a602 853f 2eba 9c3f 0ef9 893f 821a 8f3f
000002f0: df41 9f3f 1d71 873f d532 943f 0f58 963f
00000300: 3bc5 893f 2356 883f c6cc 8a3f cc45 853f
00000310: 2580 8e3f 4cbe 903f a564 a93f 2918 933f
00000320: 66ab 873f 8081 893f f815 9c3f b078 753f
00000330: 15ce 873f ee9f a73f 3c43 963f 37c4 9d3f
00000340: 266d 853f e3c5 a43f 3595 bd3f 028a 9c3f
00000350: f782 873f 33a5 903f 1e42 943f 3320 923f
00000360: ba45 7c3f 675b 9b3f 03db 943f 647e a03f
00000370: f5e8 933f 6be4 803f 3b74 8e3f 6d1f 8f3f
00000380: 5fb4 8b3f 7bfa 8d3f b915 883f 4734 813f
00000390: e851 8e3f 40c2 8a3f b98f 8c3f 4524 b03f
000003a0: 68ed 9b3f b8a0 813f 2ff8 8d3f bcfa 8b3f
000003b0: 1661 833f a46b 933f 74b4 9a3f 41f1 833f
000003c0: 3bae 993f 7b35 923f 82d4 8a3f 2188 8d3f
000003d0: 869e 963f 79fe 6e3f b235 913f f9fd 843f
000003e0: 35bc a63f 2a9f a03f 7fc0 863f 5ac7 943f
000003f0: f32e 9e3f d5cf 973f 03d5 8d3f c745 983f
1.1469108 1.173409 1.0680007 1.0275164 1.0360769 1.4301383 1.0325183 1.1320031
0.9726803 0.89384663 1.2083392 1.2530366 1.260238 1.0839623 1.0014918 1.0349532
1.1177222 1.096868 1.2197902 1.1682794 0.9922906 1.187906 1.0194724 1.1621037
1.703651 1.0481969 1.1341038 1.1517287 0.9767297 1.2948608 1.0521713 1.1663486
1.094639 1.4394053 1.0896579 1.1581699 1.1355801 1.2616624 1.1300086 1.2058187
1.02888 1.1646802 0.97880954 1.0880094 1.1093819 1.0192281 1.2339779 1.2124146
1.1592143 1.1709161 1.0580654 1.0467299 0.9892506 1.0859585 1.0861539 1.1791011
1.0863794 1.2585481 0.8895979 1.1556036 1.3935678 1.0701969 1.1361104 0.9346309
1.075881 1.0538106 1.121681 1.2161185 1.10091 1.0531812 1.0565042 1.0871918
1.0112209 1.5272093 1.0319631 1.3692002 0.99058366 1.2706844 1.0850723 1.2216716
1.2851065 1.3064957 1.2606254 1.0430325 1.137124 1.0795673 1.1323016 1.1138686
1.057558 1.2801877 1.1901678 1.1112461 1.2033317 1.188263 1.1936104 1.0673299
1.0710346 0.9400476 0.9887435 1.1063421 0.9984937 1.1579076 1.3499067 1.0249268
1.2890391 1.169821 1.086398 1.1912178 1.4405683 1.2041426 1.12409 1.1029489
1.1241769 1.0115514 1.2515771 1.2192636 1.1879587 1.2548838 1.216556 1.2882888
1.1396726 1.1902579 1.024413 1.289209 1.0829138 1.0967959 1.0266992 1.1063776
1.1564864 1.1049544 1.1019087 1.3425452 1.186627 1.1637033 1.0246346 1.0781547
1.0729239 1.0442456 1.1608747 1.1910415 1.2089334 1.1970004 1.4368994 1.0609294
1.0870456 1.1463852 1.1359463 1.0385062 1.1111933 1.0006597 1.0431304 1.0366175
1.053614 1.0325248 1.0332491 1.1368653 1.0957594 1.0347755 1.0993967 0.97153085
1.0320413 1.1828244 1.1724178 1.1003834 1.2324793 1.0193461 1.228597 1.1541221
1.101578 1.1459274 1.4096041 1.1433325 1.3054411 1.0470256 1.2026348 1.1140755
0.97804224 1.2642223 1.248846 0.966209 1.1935105 1.1012354 1.1874425 1.1367658
1.0391433 1.2244318 1.077913 1.1179965 1.2441977 1.0581394 1.1578013 1.1745623
1.0763315 1.0651287 1.0843742 1.0411925 1.1132857 1.1308074 1.3233839 1.1491748
1.0599182 1.0742645 1.2194204 0.9588728 1.0609766 1.3095682 1.1739268 1.2325505
1.0423934 1.287289 1.4811159 1.2229617 1.0586842 1.1300415 1.1582677 1.1416076
0.98543894 1.2137269 1.1629337 1.2538571 1.1555468 1.0069708 1.1129221 1.1181465
1.091442 1.1092066 1.0631629 1.0094079 1.1118746 1.084053 1.0981361 1.3761069
1.2181826 1.0127172 1.1091365 1.0935893 1.0264003 1.1517224 1.208632 1.0308
1.2006296 1.1422571 1.0846102 1.1057168 1.1767128 0.93357044 1.1344512 1.0390006
1.3026186 1.2548573 1.0527495 1.1623337 1.2358078 1.18603 1.1080631 1.1896294

bn1.bias f4 [256]
00000000: ad35 2cbe 8d4a 29bf 7ad0 b8be cdd5 39bf
00000010: a77a 97be be7c 56be 9b81 b9be fd94 b4bc
00000020: b4c0 f5bd cac1 163c 0426 41bf f210 ff3d
00000030: e1f7 6cbe 8b44 93bd 310d b73e 274c 7f3b
00000040: 85db 8bbe 0af6 b9be c4c3 93be 1b06 9bbd
00000050: 7f47 18be 92f9 92be 4807 c83e 957a dcbe
00000060: 7e9c 12bf e97e 97be 1e60 8bbd 1a05 fdbd
00000070: a9d0 233e 3465 91be da6a 6c3d c59c 8cbe
00000080: df19 f1bc dca3 10bf 242d 6e3e effa b6be
00000090: 875a 85be bffb 6dbd 1b13 49be ed83 a0be
000000a0: 0db4 27be 5ff1 2ebe 248e c8be c1e9 73be
000000b0: 515e d5be 5e7f 7fbe 49ec dc3d 38ae 0cbe
000000c0: d9f9 22be dc5e c8be b739 efbd b45e 9cbd
000000d0: c246 a7bc 1b6f 843e d50e b2be 74bc b3be
000000e0: ff62 dfbe 5d12 8fbe 9a37 b1be 31d3 c9be
000000f0: 407e 03bb bf71 bdbe a8bb b8bd 870b c43e
00000100: 6616 4f3d d858 08bf 6e02 9cbe 397e 063e
00000110: ed64 f5bd db51 683d 7893 92bd 78a3 89bd
00000120: 6df8 4a3d 316f 36bf cac3 29bf 992c 90ba
00000130: cda9 8ebd 41b1 a8be b39d aebd c825 4e3d
00000140: 7df6 5bbe 0774 eb3d 4f66 243e c454 14be
00000150: b888 4abe c607 59be 7dbb 79be faeb 1dbe
00000160: be54 85be b7a2 f3be 98e5 003e 937b 97bd
00000170: 198e b8bc 816f 6cbe 1b40 70be f684 5abe
00000180: 0ed1 c0bd ce2a 103e cab6 a4be 1327 eabd
00000190: 3ac8 1bbf e9aa 77be 9120 b4be 2817 87be
000001a0: 9401 b0be a0e1 78be 73e9 d0be f82c 84be
000001b0: d6bf f2bd bf80 393e 0d31 7ebe b61f 5bbe
000001c0: 7563 f3bc d908 383e c81c 23be e625 15bf
000001d0: e98d b8be 5167 e2be 645e 92bd 268b 84be
000001e0: 37b3 92be 1c3d 163e fee1 0b3d 1dc5 2a3e
000001f0: bfa1 15be 8d12 44be 5216 a13e 827e cabe
00000200: 84da 3fbf d2ee dcbe 58e9 4fbe 5169 adbe
00000210: 57d7 d7be 9667 e03d deff 69be 10cc 34be
00000220: b199 dabe 0cc1 2bbc f18e 50bd 7594 10be
00000230: 99db 67be 4dbc 6fbe 8901 a3be 2518 70be
00000240: 4d79 89be 9e45 d2bd 48ca abbb 4a4c a8be
00000250: 07e8 00be a1d2 1dbe 2345 913d 6217 01bd
00000260: 7ac2 0b3e 3197 4cbe 175f 9bbe 2d4a aabb
00000270: fe61 d23b bee0 efbd 6c81 9cbe d593 723e
00000280: 3b6e 943c 7d5a 65be 9a73 373d 93cb c8be
00000290: 2103 a9be ebed 78be 1402 d7be ad91 44be
000002a0: 7fe7 eebe 760c b2bd 7aea 30be c667 8fbe
000002b0: 6066 dcbd 67cd b8be 2378 90be db35 02bf
000002c0: de9d 5dbe 34f1 82be faab 04be 4e27 3f3e
000002d0: 3fd7 6bbe fd32 a7be b260 7cbd 56c4 40be
000002e0: 3116 8bbe f8c8 4ebe 007d dabd 2441 45be
000002f0: 8167 5cbe 7dd7 57be 4d7d b9be 27c4 43bd
00000300: 2854 6dbd 2e11 cabe 1ec6 b1be 1a81 7bbe
00000310: 08f8 05be ea6a e5be 2ad2 c1be 7ed5 44be
00000320: ea84 0bbf e824 9abe a864 77be 1b81 0bbe
00000330: 1f32 85be 79c1 0abe ea0c afbd 9900 aabd
00000340: 6929 0fbe 6214 e4be 777a dcbe fd7c 86be
00000350: 3bc5 51be f3c7 02be 3b99 67be d9fc d63d
00000360: 5976 febe 5191 f83d 8289 69be 4c98 95be
00000370: e75d 5e3d f808 65be 5d4c 88be 0bd2 71be
00000380: 71e2 10bf 3202 b5be 6e0b bbbd 9074 d8be
00000390: 47a0 e9bd df47 6cbe 603d 0cbf a9ca 73be
000003a0: 83df 40be 62ae a3be 8196 93be 0536 9bbe
000003b0: 1f27 8ebe afdf a5be a3c6 60be 3c30 7d3e
000003c0: d1d7 cebd 1b1b d93d ca9d 25be 6528 a2bd
000003d0: c52d 8dbe 7672 393d d643 8d3c 5dfc 42be
000003e0: 41de 07bd 40b8 3bbe 83b5 68bd faf9 1fbe
000003f0: 5f91 9ebe ceab 6ebe 6cbe 53be c6dc 23be
-0.1681735 -0.6612938 -0.36096555 -0.7259186 -0.29585764 -0.20946023 -0.36231694 -0.0220437
-0.11999646 0.009201476 -0.7544863 0.12454404 -0.23141433 -0.07190808 0.35752252 0.0038955302
-0.27315918 -0.36320525 -0.28860295 -0.07569524 -0.14871024 -0.28706032 0.39068055 -0.43062273
-0.5727004 -0.29589012 -0.06805442 -0.12354489 0.15997566 -0.28397524 0.05771909 -0.27463356
-0.029431282 -0.5650003 0.23259407 -0.35738322 -0.2604563 -0.058101412 -0.19636194 -0.3135065
-0.16377278 -0.17084263 -0.39170945 -0.23819639 -0.4167352 -0.2495093 0.10787255 -0.13738334
-0.15915622 -0.39134872 -0.1168093 -0.07635251 -0.020419482 0.25866017 -0.3477694 -0.35104716
-0.43630216 -0.27943698 -0.34612733 -0.3941894 -0.0020064265 -0.37000844 -0.090201676 0.38290045
0.05055847 -0.53260565 -0.30470604 0.13134088 -0.11982141 0.05671869 -0.07157034 -0.06720632
0.049553324 -0.71263415 -0.66314375 -0.0010999619 -0.06965981 -0.32947734 -0.085261725 0.050329
-0.21480747 0.1149674 0.16054653 -0.1448546 -0.19778717 -0.21194372 -0.24387927 -0.15422049
-0.26041216 -0.4758508 0.12587583 -0.07396617 -0.022528695 -0.2308941 -0.23461954 -0.21339783
-0.09414874 0.14078829 -0.32170707 -0.11433234 -0.60852396 -0.24186291 -0.35181096 -0.26384854
-0.34376204 -0.24304819 -0.40803108 -0.25815558 -0.11852996 0.18115519 -0.24823399 -0.21398816
-0.02971051 0.17972125 -0.15928948 -0.58260953 -0.3604577 -0.4421945 -0.0714691 -0.25887412
-0.28652355 0.14671749 0.03415107 0.16676755 -0.14612482 -0.19147702 0.31462342 -0.39549643
-0.74942803 -0.43150955 -0.20303857 -0.33869413 -0.4215648 0.109572574 -0.22851512 -0.17655969
-0.42695382 -0.010483038 -0.05091757 -0.14119132 -0.22642364 -0.23411675 -0.3183711 -0.2344671
-0.26850358 -0.10267185 -0.0052426197 -0.32870704 -0.12588511 -0.1541238 0.07093265 -0.03151644
0.13648406 -0.1997955 -0.30345985 -0.0051968307 0.006420373 -0.11712788 -0.3056749 0.23689206
0.018118968 -0.223978 0.04478798 -0.39217815 -0.330102 -0.24309509 -0.41993773 -0.19196196
-0.46660993 -0.08693783 -0.17276946 -0.2800886 -0.10761714 -0.3609421 -0.28216657 -0.50863427
-0.21642253 -0.25574648 -0.12956229 0.18667337 -0.23031329 -0.32656088 -0.061615653 -0.18824896
-0.27165368 -0.20193851 -0.10668373 -0.1926313 -0.21523859 -0.21078296 -0.3622841 -0.047794487
-0.057941586 -0.39466232 -0.34721464 -0.24560967 -0.13082898 -0.4480813 -0.37855655 -0.19222066
-0.54499686 -0.30106282 -0.24159491 -0.13623469 -0.26014802 -0.13550366 -0.08547385 -0.08300895
-0.1398064 -0.445468 -0.43062183 -0.26267233 -0.20485394 -0.12771587 -0.22617047 0.104974456
-0.49699667 0.12137092 -0.22806361 -0.29217756 0.05428877 -0.22366703 -0.2662076 -0.23615281
-0.5659552 -0.35353237 -0.091330394 -0.4227643 -0.114075236 -0.23074292 -0.5478115 -0.23807777
-0.18835263 -0.3196898 -0.28825763 -0.3031465 -0.27764222 -0.3239722 -0.21950774 0.24725431
-0.100997575 0.10600873 -0.16173473 -0.07917861 -0.27573982 0.045275174 0.01724426 -0.19041581
-0.033170942 -0.18332005 -0.056813728 -0.15622702 -0.30970284 -0.23307726 -0.20678109 -0.16002187

bn1.running_mean f4 [256]
00000000: 2bb3 01bd 250a 77be d03b 20bf 5676 f4be
00000010: 9260 07be fddf 653e 9e01 043d 947a 18bf
00000020: 254b 42bd 524b d53c c672 e2be 94c8 8bbe
00000030: 6aed eb3e ce72 e03e 4dbb 1f3f ddbd 8c3b
00000040: 6c8e 86bd 01c8 8abe ddb3 78bf cbad 8abe
00000050: 596a cf3e 8ff6 013e 219d a03e f6ec 083c
00000060: 669d 27be bfe0 003f 495b 8bbe d885 c93d
00000070: 4041 a93d c4ef 5abd 3ccb 8dbc 5cbf cfbe
00000080: 2500 0cbf b71b 75bd ace6 af3e 97dd a3be
00000090: f4cd a4be 022e 113f b332 93bf ec34 ff3e
000000a0: cbdc 113f b9a2 173f 09c4 85be ec30 c03e
000000b0: 482d b53e bc32 df3e 9206 a23c 1363 863d
000000c0: 7ef0 b4be e348 f8be 683d 49bf c73b af3d
000000d0: d351 7ebe 60a4 67bd 4e7a 34bd c692 fabc
000000e0: 1599 9bbd c1ff 4f3e cb0b ebbe 5048 b43e
000000f0: 1939 433f dc92 83be 23c6 533f 258d fc3f
00000100: 5d72 823e 32c9 1dbf f1d5 a03e aa00 62bf
00000110: 709e ca3e 3012 ad3d d588 af3f e36a f23e
00000120: 644d e3be 0d90 fc3e bf12 34bf f3ec 51be
00000130: 745a 0e3e 0858 c33b fbf8 8e3f d887 923e
00000140: b354 8a3e 9ed4 c43c 4ac0 89be 5a99 803e
00000150: 033b 01bf 1f36 3c3f 0ed5 febe 5103 e3be
00000160: f5b7 afbe c159 1a3e f4d3 b4bf 6849 aebd
00000170: 4708 3f3f 75d8 433e aff5 0b3f 9aca 4dbd
00000180: f4c5 593e 8552 debe 510e a3bd cd5f 46be
00000190: acd8 913e e478 54bf cf7c debe 59fd 113f
000001a0: d00e f5be bce1 9a3d 02cd d1be e1f2 a83e
000001b0: 37cc a0be e203 21bf e682 893f eec8 0ebe
000001c0: d1e7 963d 2f70 7dbe 6771 d93e 5273 a2bd
000001d0: 0715 91ba 33b1 6fbe ad0a 6cbe b2c9 2c3e
000001e0: ed3c 27bf 8804 053f 6ec6 2c3e bc0d 0a3e
000001f0: 63e7 e5be fb59 3c3f 4d07 1f3f b574 103e
00000200: 3730 3abe 284f fbbe e990 643f e1a2 c7be
00000210: 3f1d 703e 5edd 453e 269c 09bf d88b 003e
00000220: 6294 0a3d be18 86be 389d 903e dc09 a93e
00000230: 403c 1cbf d3bd b0bd 2c14 a6bd 7e11 21be
00000240: bcf7 38bf 7654 dcbd 9549 cb3e 79bd af3e
00000250: 0abd 0abe faca c5bc 703f 48bd a43d c63e
00000260: 8662 013f ce32 1f3e da2d a63d 1a6b 883f
00000270: d77f 163f b5e7 d53e ae4e 21bf 9a4d 633e
00000280: 0fc0 49bf 28de 143f 2b0b aa3e 8f1f 0dbe
00000290: 415f cbbc 9d71 0d3f 068c 2dbf ff9a 373e
000002a0: dd59 013d d6f7 94be 7072 9cbe ec19 64bd
000002b0: fad6 663e 6ccc abbe 465d 0ebf 9cc1 3c3f
000002c0: 7a06 87bd 65f7 16bf f427 773f 5efb 6b3e
000002d0: db9c c33e 04b3 f2be 7c4e 0c3e 37e7 8cbf
000002e0: f704 133e 5ec9 9a3e af33 48bf 3123 c53e
000002f0: 615e 3f3f 6f30 24bf 747a dbbe 9784 b33d
00000300: 211e f63e 19ba 2cbf 99ec 413e 2de7 e43e
00000310: fe11 48bf 27c5 4abc 4175 27bf 7a8f c8be
00000320: eb45 6dbe f378 7dbf 1508 ee3d 2fba 88bf
00000330: 71e1 18be 6866 b1be 12b5 1e3f f525 27bf
00000340: 7944 23bd 245a 85bd cfa1 013d a3a2 103c
00000350: c3e1 91be abdd 9fbc 922c 0ebf da0f 7bbd
00000360: 28ac 1cbf 9848 4f3d b9b4 95be 5b38 2d3f
00000370: 0169 4f3f 39a2 5dbf 1add 803f 0b4e 01bf
00000380: a17f a43d c8c0 d13d 5f44 a9be f59e 91bf
00000390: de80 44be f4a5 01bf c73c d2be e2e8 103e
000003a0: eb12 073c b349 c73c 388b 9bbe 18c6 233f
000003b0: 83ae 48bf 8bed e0be 12c1 f53e 4a62 973f
000003c0: 6495 a83d bb79 54bd 1bf4 283e 78d7 203e
000003d0: 3384 913e 702a 1cbd 69c4 72be aa79 cc3d
000003e0: 6ce0 993e 7d5b e23e 30f9 8f3d fb51 9fbd
000003f0: 6308 19bf bce4 803f 1ab0 8b3e eac3 b4be
-0.03166501 -0.24124964 -0.62591267 -0.47746533 -0.13220432 0.22448726 0.032228105 -0.5956204
-0.047434945 0.026036892 -0.4422819 -0.27301466 0.4607957 0.4383759 0.62395173 0.0042950944
-0.065701336 -0.27105716 -0.9714945 -0.2708572 0.40510824 0.12691711 0.3136988 0.008357277
-0.16368636 0.50342935 -0.27218083 0.09839982 0.082643986 -0.053451315 -0.017308824 -0.40575683
-0.5468772 -0.059840884 0.34355676 -0.32004997 -0.3218838 0.5671083 -1.1499847 0.49845064
0.5697753 0.5923267 -0.26126125 0.37537324 0.3538611 0.43593395 0.019778524 0.06561866
-0.3533973 -0.48493108 -0.78609324 0.085563235 -0.24835901 -0.056553245 -0.04406195 -0.030587565
-0.075975575 0.20312406 -0.45907435 0.3521142 0.76259 -0.25697982 0.8272421 1.9730574
0.25477877 -0.61635125 0.31413224 -0.88282263 0.39574003 0.084507346 1.3713633 0.47347173
-0.44394982 0.49328652 -0.70341104 -0.20500545 0.13901693 0.005961422 1.1169733 0.28619266
0.27017745 0.024027165 -0.26904517 0.25116998 -0.5048067 0.7352008 -0.49771923 -0.44338468
-0.34320036 0.15073301 -1.4127183 -0.08510095 0.74622005 0.1912554 0.5467176 -0.050242044
0.2126692 -0.43422332 -0.07961715 -0.19372483 0.2848562 -0.82996964 -0.43454596 0.570272
-0.47862864 0.07562587 -0.4097672 0.32997802 -0.31405804 -0.6289655 1.0743072 -0.13943836
0.07368434 -0.24749826 0.42469332 -0.07932152 -0.0011068889 -0.2340744 -0.23050947 0.16873816
-0.6532734 0.5196004 0.1687257 0.13481802 -0.44903097 0.735748 0.62120515 0.1410702
-0.18182455 -0.4908383 0.89283615 -0.38991454 0.23448656 0.19322726 -0.5375389 0.12553346
0.033832915 -0.26190752 0.28244948 0.33015335 -0.61029434 -0.08629956 -0.08109316 -0.15729329
-0.7225301 -0.10758297 0.39704576 0.34324244 -0.13548675 -0.024144638 -0.048888624 0.38718903
0.5054096 0.15546724 0.08114214 1.0657685 0.5878882 0.4177834 -0.6301068 0.22197571
-0.78808683 0.58151484 0.33211645 -0.1378157 -0.024825694 0.55251485 -0.67791784 0.1793022
0.03157984 -0.29095334 -0.3055606 -0.055688784 0.22542945 -0.335544 -0.55611074 0.73732924
-0.06593032 -0.58971244 0.9654534 0.23045108 0.3820561 -0.47402203 0.13701814 -1.1008061
0.14357363 0.30231756 -0.7820386 0.3850341 0.74753386 -0.64136404 -0.42866862 0.08765524
0.48069862 -0.6747146 0.18937911 0.44707623 -0.78152454 -0.012376106 -0.6541329 -0.39171964
-0.23171203 -0.9901268 0.11622635 -1.0681819 -0.14929749 -0.34648442 0.6199504 -0.6529229
-0.039860222 -0.065113336 0.031648453 0.008827838 -0.28492555 -0.01951488 -0.5553676 -0.061294414
-0.6120019 0.05060634 -0.29239443 0.67664117 0.810196 -0.8657566 1.0067475 -0.5050971
0.08032156 0.10241848 -0.33059976 -1.1376635 -0.19189784 -0.5064385 -0.41061994 0.14151338
0.0082442565 0.024327135 -0.30379653 0.6397414 -0.78391284 -0.4393123 0.47998863 1.182687
0.08231619 -0.051873904 0.16499369 0.15707195 0.28421172 -0.03812641 -0.23707737 0.09984143
0.30054033 0.44210425 0.070299506 -0.077793084 -0.5977842 1.0069804 0.27282792 -0.3530572

bn1.running_var f4 [256]
00000000: fbba 1940 26f4 673f bbc0 a93f c3e1 fd3f
00000010: 057e d83f b5f7 ff3e d9da 1240 bfe3 693f
00000020: c1f2 bc3f 20bf fc3f e1b5 853e cfd8 3840
00000030: 89a3 d93f 5245 c13f e1cc 5c40 1f6e b43f
00000040: e0e6 843f d9d0 e23f 46b1 b13f 2b48 d93f
00000050: 5c9b e53f 6fbe f33f a1ee 1c40 f9f5 513f
00000060: e84d 053f e489 0f40 18c0 3b3f 2997 903f
00000070: 4a07 923f dac1 c43f cb5c 343f ab7d f23f
00000080: 6216 713f bd02 1e3f 36fa 7b40 93a6 233f
00000090: 43d9 be3f 311c 1f40 b879 3e40 fb68 a83f
000000a0: aebd b83f 30a3 863f 0413 d83f fd83 5a3f
000000b0: b3d8 d13f 43cb 953f d5e5 3c3f fff3 003f
000000c0: 25fc ab3f 8bb6 2740 c825 973f 91fc b53f
000000d0: 33a0 9a3f a6af b23f 1429 bc3f fb36 663f
000000e0: b6a1 623f 9060 f33f 4049 ba3f 4a7c 2840
000000f0: 2aec 893f 4351 b23f 75f2 8b3f 46ef 0d40
00000100: 1c82 2740 d8c2 0840 41de 0d40 1e16 3340
00000110: 7486 2640 f978 7a3f 6f5c a43f ddbb be3f
00000120: a8f9 a23f c90d 5b3f 45b2 0d40 8d34 da3e
00000130: 5bc5 3040 ee38 763f 2bfd 4240 f31c bb3f
00000140: a880 b33f 3acb 0840 11c3 d53e 8264 673f
00000150: 8f2f 4b40 6165 f53f a0b9 663f 68b6 ac3f
00000160: b186 863f 88a7 a13f 3fbc ef3f 6990 c73e
00000170: 5a1c 7d3f fca9 b13f c30f 0340 eea4 e03f
00000180: 9804 b53f b0a1 c13f 77a6 823f a06a 423f
00000190: 7cb0 bc3f c37f 0b40 60d0 573f a12f 0540
000001a0: 926c 103f 259b b43f bcf5 923f 1da7 c43f
000001b0: 3786 4a3f da49 893f d05a 2140 2255 823f
000001c0: 6bd6 643f a5ed c43f 172c 0940 3b60 de3e
000001d0: 91c0 de3f 84ab e53e 3c02 1640 19c6 033f
000001e0: 0678 fb3e 7e58 2e3f 245a 823f a9b9 613f
000001f0: 3799 f43f e58a 883f c36d 4640 10f7 973f
00000200: 93da 0b3f cec5 f13f cd80 693f 35e3 d13e
00000210: f678 0140 bde2 d63f 646a 7e3f 7d8b 4b3f
00000220: e33d c63f 07e9 863f 43d2 723f 581d c33f
00000230: 96d4 9f3f 693b 973f f5c4 123f d301 6e3f
00000240: 6259 a23f ed51 993f 4760 c33f 8573 b53f
00000250: c4e2 2c3f 3620 de3f e254 333f d885 4940
00000260: 0cc9 d63f 6ab4 0040 a1ad b63f c719 6f3f
00000270: bcd9 ef3f 4403 b63f af78 9c3f f918 dd3f
00000280: e139 883f 49dc f43e 5c24 b53f 1c6d 0c40
00000290: 8fdd b73f 4be6 c13f 4b9d 863f df8e dd3f
000002a0: 5dd3 1b3f 3438 0740 6094 603e 7c12 a63f
000002b0: f363 9a3f affa d63f 9e11 213f 3070 f33f
000002c0: 4c19 1f40 7ba8 0040 f7cd 8b3f e6c2 1740
000002d0: edb3 bd3f 1cf0 d93f 629c de3e 2427 0540
000002e0: a142 813f 1291 2840 9676 623f cf84 5e3f
000002f0: 5a3e 8d3f 825a ef3f a182 bc3f f197 a43f
00000300: d80d 8e3f f01d 1440 e5b4 b43f 75f5 713f
00000310: 3680 d13f 0941 8140 f369 993f ba73 b43f
00000320: 2c68 813f 2473 9e3f 3c5c 7a3f ca07 753f
00000330: 097e e83f 35f6 3d3f bbb7 cc3f 57e7 5c3f
00000340: 57f0 a23f 1e49 4e3f 6a3d 423f 291e b13f
00000350: e090 8b3f 98ab 333f fd6d 873f f079 673f
00000360: 37b0 923f e63f f93f 5918 913f 44d2 833f
00000370: 73d8 5b3f 902f 0e40 fef3 bf3f 7be1 c73f
00000380: b950 0740 a080 423f 8e3e 423f e389 b53f
00000390: 1670 1340 5482 913f e6f4 cf3f 7e55 a83e
000003a0: a98f 0a3f b9f4 a03f 2666 ad3f 1184 4640
000003b0: 7e04 f13f 0f85 f13f 3157 383f 61b1 1440
000003c0: 67ad 1540 2a1e 233f d13b a03f 50a5 bf3f
000003d0: dc98 8a3f 1603 1840 dd71 9f3f ee12 8c3f
000003e0: eb1c 403f b59e 0a3f 7377 f93f 3a99 b43f
000003f0: fe93 183f 0a4a cb3f c184 f63f 5a32 cb3f
2.4020374 0.90606916 1.3261942 1.9834522 1.6913458 0.49993673 2.2946074 0.9136314
1.4761583 1.9745827 0.26115325 2.888233 1.7003032 1.509928 3.4500048 1.4096106
1.0382957 1.7719985 1.3882225 1.6975149 1.7938037 1.9042491 2.4520648 0.8201595
0.52072 2.2427912 0.73339987 1.129613 1.1408474 1.5371659 0.7045409 1.8944601
0.9417478 0.6172293 3.9371467 0.6392605 1.4910053 2.4860957 2.9761791 1.3157037
1.4432886 1.0518551 1.6880803 0.8535765 1.6394256 1.1702656 0.73788196 0.5037231
1.3436323 2.6205165 1.1808405 1.4217702 1.2080139 1.3959854 1.4700036 0.89927644
0.88528 1.9013844 1.4553604 2.632586 1.0775197 1.3931049 1.0933367 2.217729
2.6173162 2.1368923 2.2166903 2.798225 2.6019564 0.9784084 1.2840708 1.4901081
1.2732439 0.8556791 2.2140057 0.42618218 2.7620456 0.9618062 3.0467021 1.461821
1.4023638 2.137404 0.41750386 0.9038774 3.1747777 1.9171563 0.9012699 1.3493166
1.0509855 1.2629251 1.8729323 0.38977364 0.98871386 1.388 2.047837 1.7550333
1.4142027 1.5127468 1.0207051 0.75943947 1.4741359 2.179673 0.8430233 2.081032
0.56415665 1.4109846 1.1481242 1.5363499 0.79111046 1.0725663 2.5211678 1.018223
0.89389676 1.5385023 2.143316 0.43432793 1.7402517 0.4485742 2.3438864 0.5147415
0.49115008 0.6810378 1.0183759 0.8817392 1.9109257 1.0667387 3.1004493 1.1872272
0.5463039 1.888849 0.9121216 0.40993658 2.0230079 1.6787945 0.9938109 0.7950972
1.5487636 1.0539864 0.94852084 1.524333 1.2486751 1.1815006 0.5733178 0.92971534
1.2683527 1.1978127 1.5263757 1.4175879 0.67533517 1.735358 0.70051396 3.1487942
1.6780105 2.0110116 1.4271737 0.9339871 1.8738322 1.4219747 1.222433 1.7273246
1.0642663 0.47824314 1.4151721 2.1941595 1.4364489 1.5148405 1.0516752 1.7309226
0.6086939 2.1128054 0.219316 1.2974391 1.2061752 1.6795253 0.62917507 1.9018612
2.485919 2.0102832 1.092223 2.3712707 1.4820534 1.70264 0.43478686 2.080514
1.0098459 2.6338544 0.884622 0.869214 1.1034653 1.8699496 1.4727365 1.2858869
1.1097975 2.3143272 1.4117705 0.9451516 1.6367252 4.039189 1.1985458 1.4097817
1.0109916 1.2378888 0.9779699 0.9571501 1.8163463 0.7420381 1.599357 0.86290497
1.2729596 0.8058032 0.7587496 1.3837329 1.0903587 0.70183706 1.0580441 0.90420437
1.1460027 1.9472625 1.1335555 1.0298543 0.8587715 2.221653 1.4996336 1.5615686
2.114302 0.75977516 0.758767 1.4182705 2.3037162 1.1367898 1.6246612 0.32877725
0.5412546 1.2574683 1.3546798 3.1018107 1.8829496 1.8868731 0.72008044 2.3233263
2.3387086 0.637179 1.2518255 1.4972324 1.0827899 2.3751884 1.2456623 1.0943277
0.75044125 0.5414842 1.9489578 1.4109261 0.5960082 1.588197 1.9259263 1.5874741

fc2.weight f4 [128, 256]
00000000: 90c8 243d 66a7 98bb 327f 9f3e 3155 8bbd
00000010: 99e9 f9bc 7f0c a2be 4f98 253e 48df 433d
00000020: f616 57be 0b68 4a3c cc3a 823d 466c 0e3e
00000030: bca4 1fbd 9c79 a6bd 225b a7bd ca75 823c
00000040: 2593 883d 6db3 1d3e 5ecd 163e a83c 1dbd
00000050: 5d6d eb3d a0ae 3a3d 5b50 52bd e1d9 48be
00000060: 8c59 73be 6a78 b63b d22c b43d d0e2 eb3d
00000070: 3fd9 973b b001 04bd f314 283e 05d7 183a
00000080: 58c1 6b3d 6795 883e ef51 2abe 7085 dd3a
00000090: b323 7fbe fa22 a43c 1fbd 10bd 691b 30bd
000000a0: f1d8 313d bea6 11be 8e33 c23b 5014 c2bc
000000b0: 78b8 9dbd 7154 82bc 08ac fb3c d045 05be
000000c0: 937e e0ba da27 e3bd 7ac1 1d3e 224f 9cbe
000000d0: 6021 64bd a7bb 48bd cbbb d1bc 5e19 bfbb
000000e0: 5444 6bbd 3b09 b7bd 60af 9d3d 441d 293c
000000f0: 1639 a4be 7858 4e3e 9eb0 133e b53d 72bd
00000100: ae34 1e3d bde6 4d3d 2edf 693e d8f2 0dbe
00000110: c75e 86bd 1468 0c3e 8b5c 333d 6624 a8bd
00000120: 4002 e03d 4338 92be 458b 0a3d 622e 21be
00000130: bd77 0fbe 79f7 093e 382b 1ebe 2b5e a13c
00000140: 9eb8 bd3d 1775 c23c 99c7 bbbd 2bc0 01be
00000150: 1294 1e3e 1489 5bbd e3fd b1bd 8c28 083d
00000160: 9ae4 453b ed9f 063e 4e89 053d 5390 013e
00000170: 693a b1bd 3855 93be e08a 03be 13bc f13c
00000180: 737f 363d 36a8 b7bd 2713 373e 70d8 bb3c
00000190: cd0a eabb c8df 90bd 8c26 99be 09d3 a23d
000001a0: e61c ea3c 9457 123d 6d73 b73d 96b2 0bbe
000001b0: 1b82 4bbe de1f 383e 06f1 52be 8717 dabd
000001c0: 478b 88be 84e9 443d c14a 253e b29b 133e
000001d0: c717 a4bc 7453 923e 9665 6a3c 3441 453c
000001e0: 18e2 893e 712b 1abe 583a 92b7 ac7c 153d
000001f0: 1572 56bd 1e48 55be 6120 62bd 68e3 e4bd
00000200: 6d48 06be 4da1 36bc bdca 26bd a389 e73d
00000210: c513 b83c fd65 d03c 1351 a23d 4d43 ebbc
00000220: bfaf a43d cb41 113e 154e 50bd 0945 c7bd
00000230: c550 17be 1d8c 173e c9b9 b43d 0aee 53bc
00000240: 0625 a6bc 317b e3bb 1739 b3bd 7f37 773d
00000250: 5389 6a3e bb35 94bd d123 c1ba c5ad bd3d
00000260: b6d4 c9be 3c19 fcbc 846d 113e 9113 59bd
00000270: 7b4c 3bbe 1e22 213e 6b64 233d b549 273e
00000280: 1b9f c6bc 54a3 edbd 622e 31bd 2f0f dfbd
00000290: 125a e93d c1fe 423d 91f4 7b3d f1c9 743d
000002a0: 1199 a63d 293e a2bd 6094 68bd 7277 05be
000002b0: 65c2 1cbe d286 e23d a317 6f3e bd21 30be
000002c0: 27b2 5d3e 2169 11bd ded8 2abc c50b 5e3d
000002d0: 16d2 99be 8168 f4bd 87ef d2be 63f5 85bc
000002e0: d126 c03c e714 ba3d e1f5 163e 4ad1 2ebe
000002f0: d443 753e 9ac1 743d 4a48 48be a1f5 1e3c
00000300: 00aa 163d 0713 e83d d771 c23d 539d 013e
00000310: b1c7 05bc eb1f 96bd 82b9 8abe afc3 ae3d
00000320: 6797 193e acdd a6bd 8a34 4cbe 9f9c f53d
00000330: 3df1 ddbd 1305 08be 46f2 9abe 481c 903e
00000340: d8b2 113e 4200 3cbd 0c50 cb3e f474 b2bc
00000350: 2b0d 473d 2fef a5bc 574e 343c 964e 803d
00000360: af1a 103e e3cb e0bc 3016 ffbc 0fdc 74be
00000370: 3daa 1d3d cfa9 f6bd d777 bfbb bcad 87bd
00000380: e525 1a3c ec19 a73c 95d0 18bd 2fd1 f93d
00000390: d594 e8bd 5cdf 79bd 1c5d d43d 8e89 0cbd
000003a0: e62b 7b3e ca8b 9dbd ef9c 373e 1af8 9a3d
000003b0: ad45 523d 4c69 2abd bed4 ce3b de7b fabd
000003c0: 74cd a0be e576 bc3d 26b3 2b3e e29c b5bc
000003d0: 1156 5b3e 22d4 983c 9239 c9bc 531a 8abd
000003e0: 2e75 053e c9cc 0d3e b8bc 7b3d 1141 303d
000003f0: 67c1 683e 187e 433e bb22 bfbe 0da2 c23d
0.040230334 -0.0046586273 0.3115173 -0.06803358 -0.030506896 -0.3165016 0.16171382 0.04782036
-0.21004853 0.012353907 0.06358871 0.1390849 -0.038975462 -0.08128664 -0.08171679 0.015925307
0.066686906 0.15400477 0.14726779 -0.038387924 0.11495469 0.04557669 -0.051346164 -0.19614364
-0.23764628 0.0055685537 0.08797611 0.115178704 0.004634052 -0.03222817 0.16414241 0.000583038
0.057557434 0.26676485 -0.16632818 0.0016900729 -0.24915962 0.02003621 -0.03533661 -0.04299489
0.043419782 -0.14223763 0.005926556 -0.023691326 -0.077012 -0.015909405 0.03072168 -0.13014913
-0.0017127566 -0.110915855 0.15405837 -0.30529124 -0.05569589 -0.049007084 -0.025602242 -0.0058318814
-0.05743821 -0.089373074 0.07699466 0.010321919 -0.32074803 0.20150936 0.14422843 -0.05914088
0.038624458 0.050268877 0.22839043 -0.13862169 -0.06561046 0.13711578 0.043789428 -0.082100675
0.10937929 -0.2855855 0.033824224 -0.1574035 -0.1401052 0.1347331 -0.15446174 0.019698223
0.092637286 0.023737473 -0.091689296 -0.12670963 0.15486172 -0.053597525 -0.08691003 0.033241794
0.0030196072 0.13146944 0.032601647 0.12652712 -0.08653719 -0.28775954 -0.12845945 0.029508626
0.04455514 -0.089676306 0.178784 0.022930354 -0.007142401 -0.07073933 -0.2991222 0.07950408
0.028578233 0.035728052 0.089575626 -0.13642344 -0.1987385 0.17980906 -0.20599756 -0.10649019
-0.2666876 0.04807426 0.16141798 0.14414862 -0.02003087 0.28579295 0.014306447 0.012039471
0.26930308 -0.15055634 -1.7431725e-05 0.03649585 -0.05235489 -0.20828292 -0.05520666 -0.11176187
-0.13113566 -0.011146856 -0.04072069 0.11305549 0.022470364 0.025439257 0.0792562 -0.028718615
0.080413334 0.14185254 -0.050855715 -0.09729964 -0.14776905 0.14799543 0.08824498 -0.012935171
-0.020281326 -0.006942176 -0.087511234 0.06035566 0.22903948 -0.07236811 -0.0014735406 0.092616595
-0.39420098 -0.030773751 0.14201933 -0.052997176 -0.18290894 0.15735671 0.039890688 0.16336711
-0.02424579 -0.11603418 -0.043257125 -0.10891568 0.11394133 0.047606234 0.061512534 0.0597629
0.08134664 -0.07922012 -0.056782126 -0.13033846 -0.1530853 0.11060871 0.2334886 -0.1720037
0.21649991 -0.03550065 -0.010427682 0.054210443 -0.30043095 -0.11933995 -0.4119837 -0.016352361
0.02345601 0.09086018 0.14742233 -0.17072025 0.23951656 0.059754945 -0.19558826 0.009702117
0.03678322 0.11331754 0.094943695 0.1265767 -0.008165286 -0.073303066 -0.27094656 0.085334174
0.14999162 -0.08147749 -0.19941917 0.11992764 -0.10837028 -0.13283186 -0.30262965 0.28146577
0.1422838 -0.045898683 0.39709508 -0.021784283 0.048596542 -0.020255653 0.011005006 0.06264989
0.14072679 -0.02744097 -0.03113851 -0.2391207 0.03849243 -0.12044107 -0.0058431434 -0.06624934
0.009408449 0.020398103 -0.037308294 0.12198102 -0.113565125 -0.061004028 0.10369322 -0.03431087
0.24528465 -0.07692678 0.17930959 0.07566853 0.05133598 -0.041604325 0.006311982 -0.12230657
-0.31406748 0.09202365 0.16767558 -0.022169534 0.2141955 0.01865584 -0.024563584 -0.06743302
0.13032982 0.1384765 0.061459273 0.043030802 0.22730027 0.1909107 -0.37331185 0.09503565

fc2.bias f4 [128]
00000000: 672b 4bbe 72c8 42be 7a1d 26be a179 113e
00000010: abee 3f3e 5ad7 d93d bd49 b83d f91a 3dbd
00000020: 83aa 0dbd f7eb 2ebe 33c8 6a3e 3460 39be
00000030: 924d c4bd f363 38be 9400 443e 5c77 d6bd
00000040: f27a dfbd d0f3 81be ac9a 8abd b781 5c3c
00000050: 0c2b 943d 5d59 84bd f46b 8e3e 372d 5bbe
00000060: 950a 91be f5d9 a2be fede 2f3e 1f9f 8ebd
00000070: c8c0 37be d375 97be 269e 993d 96ff d7bd
00000080: 6896 b53b 7672 8bbd ec30 1a3e a5a5 b5bd
00000090: 6029 a1bd fb70 a5be 8afe c2bd f994 b3bd
000000a0: 3f61 13be f690 73bd e92f d0bd 3834 7e3e
000000b0: 0e5c 093e 6207 873d fc52 113e 1a68 eebd
000000c0: 0dc1 083c c4b3 9a3d 3ddb 1bbe 7f8d d5bd
000000d0: 7554 b4be a87f cb3c 4554 04be 9f29 c83c
000000e0: 14c2 02be 24df 4c3c 0211 f8bb b20e 16bd
000000f0: 04ec bfbd d01c aabe ea0f 87bd ec19 173e
00000100: 0c59 4bbe ad53 d6bd b102 0ebe 266f 173e
00000110: bf27 44be c8cc 7abe c598 0ebe 913e b53c
00000120: 449c 323e 2234 f7bd 61d1 54bc 4a50 903b
00000130: 4f94 823e 62a3 2f3e 66b4 253e 80f5 bf3d
00000140: 16e5 14be a0fe 34be 7b0f 613e de6d 52be
00000150: 67fc febd da15 0abe c571 f83d 978b a1bd
00000160: c256 7c3d 1f23 123d a15f 4dbe 3241 96be
00000170: 2809 a5bc 31da d3bd 48b8 40be fc2e a23c
00000180: ba91 9bbd 4f4f 013d e735 98bd 7a40 d7bc
00000190: 3bc8 4cbe 68b4 49bd 654e 83be e4ae 4abe
000001a0: 318c 563e 5629 c6bd 3b08 b43d 013e 0bbd
000001b0: 30c9 7d3e 4395 54be 1de6 40be b47e 853d
000001c0: a7a7 90bd 750d be3d afc1 263d 4843 93bd
000001d0: 2003 7dbc 6d8f 3d3e 71e3 68be 8972 0f3e
000001e0: 0737 4a3e 4088 183d f283 7d3d 4f79 513d
000001f0: 9776 a6bd a4e5 4a3e 1505 05be 91f7 313c
-0.19840775 -0.19021776 -0.16222182 0.14206554 0.18743388 0.10636778 0.089984395 -0.0461683
-0.03458644 -0.17082201 0.22927932 -0.18103105 -0.09585108 -0.18006878 0.19140846 -0.10471985
-0.10912122 -0.25381327 -0.067677826 0.013458661 0.07234773 -0.06462357 0.27816737 -0.21403967
-0.28328386 -0.31806913 0.17174909 -0.06963944 -0.17944634 -0.2958208 0.075008675 -0.10546796
0.0055416115 -0.06808941 0.15057725 -0.08869485 -0.0786922 -0.3231276 -0.09521206 -0.08768649
-0.14392565 -0.059464417 -0.10165388 0.24824607 0.13414022 0.06593205 0.14191812 -0.116409495
0.008346808 0.07553819 -0.15220352 -0.10427379 -0.35220686 0.024841145 -0.12922771 0.024433909
-0.12769347 0.012504373 -0.007570387 -0.03663511 -0.09371188 -0.33225107 -0.06594832 0.14755982
-0.19858187 -0.10465179 -0.13868214 0.14788494 -0.19155787 -0.2449218 -0.13925464 0.02212456
0.17442423 -0.120704904 -0.012989373 0.0044041025 0.25503775 0.1715217 0.16182098 0.09372997
-0.14540514 -0.17675257 0.21978562 -0.20549724 -0.12450486 -0.13484898 0.12131075 -0.07887953
0.061606176 0.035678025 -0.20056011 -0.29346615 -0.020145968 -0.10344351 -0.18820298 0.019797795
-0.075961545 0.031569775 -0.07432156 -0.026275862 -0.19998257 -0.049244314 -0.25645748 -0.19793278
0.20951916 -0.09675853 0.08790632 -0.03399468 0.24783778 -0.20760064 -0.18837781 0.06518307
-0.07063227 0.092799105 0.040712055 -0.07190567 -0.01544264 0.18511744 -0.22743012 0.14008535
0.19747554 0.037239313 0.06189341 0.05114108 -0.08128088 0.19814163 -0.1299022 0.010862247
