actor.pth (torch_old, 206552 bytes, 12 tensors)

fc1.weight f4 [256, 33]
000000 f0 ed 74 3d 65 73 82 3e 8f cf ff 3d b0 11 8e 3d
       0.059797227 0.25478664 0.124907605 0.069369674
000010 b6 36 61 3d 27 06 53 bd c9 a8 d4 3d 6d e1 65 3c
       0.054983817 -0.05151954 0.10383756 0.0140307965
000020 ca 87 05 3e 00 e8 f6 bd 7e 66 76 be 88 d2 33 bd
       0.1304008 -0.12055969 -0.24062535 -0.04390195
000030 33 27 0f 3e 57 49 66 bd 6a db 9f bd 81 1d 17 3b
       0.13979797 -0.056222286 -0.07805522 0.0023058357
000040 c0 8d b1 bd d2 e7 bd 3c 0b 85 20 be ba 45 79 3d
       -0.08669615 0.02318183 -0.15675752 0.060857512
000050 23 cb 27 bd ee 89 ad 3c a1 32 64 3e 6c 95 3b 3e
       -0.04096521 0.021183934 0.22284938 0.18318719
000060 90 67 21 be 78 fc 61 3e 74 b4 47 bc f3 57 ca bb
       -0.15762162 0.22068965 -0.0121890195 -0.006175035
000070 f8 a6 b8 bc 32 64 2b 3d ab ce 3f 3d 30 08 6a bc
       -0.022540554 0.0418436 0.046827953 -0.014284179
000080 8d 35 31 be 0d 20 83 3d 69 89 c9 3d 59 4f 48 bc
       -0.17305584 0.064025976 0.09840662 -0.012225949
000090 1a ca a1 bd 4a fb ff 3d 13 7d a5 bb 35 5e 86 bd
       -0.07899876 0.124991015 -0.0050503104 -0.06560937
0000a0 a1 7e f1 3b d6 7b fc 3d b3 fd 53 3d 77 12 73 bd
       0.0073698317 0.12328307 0.05175562 -0.05934378
0000b0 6a d1 74 3c 72 7d a6 bb fe 5a 85 bd 00 21 79 bd
       0.014942506 -0.005080872 -0.06511496 -0.060822487
0000c0 ec b7 5a bc f3 b6 af 3c a9 1f 88 3c a3 48 13 3c
       -0.013349514 0.021449542 0.01661666 0.008989486
0000d0 29 40 cf bc ff 7a 89 3c 8d 31 41 3d 27 c9 25 3d
       -0.025299149 0.016782282 0.047166396 0.040475037
0000e0 a4 3d f9 bc e4 96 f6 bb 4f 56 cc 3b 7a f9 a6 bc
       -0.0304249 -0.007525312 0.0062358747 -0.020382632
0000f0 ce 0c e4 bb e3 e3 8b 3a 80 07 09 3a eb d4 61 bd
       -0.0069595343 0.0010672774 0.0005227253 -0.055134695
000100 d0 b8 6f bc d1 fc d0 3f c9 5d 0b be e7 a8 43 3e
       -0.014631465 1.6327153 -0.13609995 0.191074
000110 8b 79 6e bb 82 64 94 bd 07 0f d2 3d ef 91 a5 bd
       -0.0036388363 -0.07245733 0.102567725 -0.08084475
000120 44 27 0d bd 61 62 17 bd f9 8f 53 3e 82 e0 c9 bb
       -0.034461275 -0.036959056 0.2066039 -0.0061607966
000130 16 68 99 3a d5 a6 c2 bd 4d 86 67 3d 50 3a 97 bb
       0.0011703994 -0.09504477 0.056524564 -0.0046151057
000140 c5 50 84 be e6 76 34 3e 6f 7e af 3d 9e 1b 69 3c
       -0.25842872 0.17623481 0.08569037 0.014227776
000150 a5 cb b5 3d c7 22 ea bc f5 80 f0 bd b9 da 91 bc
       0.08876733 -0.028581036 -0.117433466 -0.01780449
000160 a1 40 96 bd 21 7f fc 3d 0c 2f 9a bd 0b 04 84 bd
       -0.07336546 0.123289354 -0.07528505 -0.06446084
000170 e2 8d 06 bd e2 77 55 3d d3 57 3a 3e e0 cf 11 bc
       -0.032850154 0.052116282 0.18197565 -0.008899659
000180 5c 77 43 bc 00 22 f5 bb ba eb 3e bf ce 8e d4 3e
       -0.011930313 -0.0074808598 -0.7457844 0.415152
000190 b0 f0 9a bd 84 ac 9d be 09 99 7e 3c 73 47 72 bc
       -0.07565439 -0.3079568 0.015539416 -0.014787543
0001a0 56 2b 00 3c 0b 65 cc bd 01 66 bb bd 6d 00 92 bc
       0.007822832 -0.0998021 -0.09150315 -0.017822469
0001b0 45 9e 18 bc 7a eb fc bc 2f 7d 01 3d 0b 8f 0d bc
       -0.009315078 -0.030874003 0.031613525 -0.008640061
0001c0 25 78 32 be 96 f8 04 bb 80 cf 80 3e f1 f8 de 3c
       -0.17428644 -0.002028977 0.2515831 0.027218314
0001d0 e4 b8 e9 bc 2e 65 0c 3d 4e 20 84 3b e6 ae 65 3d
       -0.028530546 0.03427618 0.0040321713 0.056075
0001e0 85 d2 de 3d ef 19 08 bd ee ef d9 bd 5f 31 fa 3c
       0.10879997 -0.033227857 -0.10641466 0.03054112
0001f0 6b ff 7b 3c ba 43 61 3d e9 58 3e bb 6d a8 ab bc
       0.015380721 0.05499623 -0.0029044694 -0.020954335
000200 2c c4 d1 3c a6 4b fc 3c 1e c6 0f 3d 21 ef d5 3e
       0.025606237 0.03079779 0.03510105 0.41784003
000210 73 54 f5 bd 3b b4 a2 3e 2a bf 34 be be d8 be bc
       -0.11978998 0.3177813 -0.17651048 -0.02329671
000220 53 ba 19 bc ea cc 92 3c 2d 2c bf bc 8a 54 95 3d
       -0.009382802 0.017919976 -0.023336494 0.07291515
000230 3f ca ed 3c 3d 65 3f bc 67 64 27 bd fe dc ea 3d
       0.029027103 -0.011681852 -0.040867236 0.11467932
000240 dc 1c 52 bc 1f d5 75 be c0 a8 66 bc ac b9 1b bc
       -0.012824263 -0.2400708 -0.014078319 -0.009504717
000250 54 04 4b bc fc c9 28 3d 8e 14 9b 3c 8b 73 5c bb
       -0.012391169 0.041208252 0.0189307 -0.0033638205
000260 9a 3d 01 bc 49 b0 c6 3d cd b5 81 bd b8 8e 0c be
       -0.007888222 0.097015925 -0.06333504 -0.13726318
000270 d4 38 63 bd c7 28 e4 bc 65 80 68 3e 75 9c 8a 3c
       -0.055474117 -0.027851475 0.22705229 0.016920308
000280 b1 50 20 3d 00 08 e3 ba 68 cd 4f bd 12 6e 30 3d
       0.039139453 -0.001732111 -0.050733 0.04307372
000290 1f af 4a be 6a 10 94 bd 0e 20 a4 be 0f 8b 90 bd
       -0.19793366 -0.07229693 -0.32055706 -0.07057773
0002a0 60 2c 67 3e 85 55 6f bc 61 52 55 3b f6 60 1c 3e
       0.22575521 -0.014607792 0.0032550322 0.15271363
0002b0 50 14 d4 bc 18 b3 32 be 55 c8 a0 3e 31 2a b5 bd
       -0.025888592 -0.17451131 0.3140284 -0.08845938
0002c0 76 97 e5 bb a8 61 eb 3d 49 d2 27 bc f0 9c 33 3e
       -0.007006581 0.11493236 -0.010243007 0.17540336
0002d0 9e bc eb 3d 8f b2 d3 3b 4a 29 88 bd 7a 60 09 3d
       0.11510585 0.006460495 -0.066485 0.033539273
0002e0 2d 18 96 bd 5f f9 49 bd d7 90 ea bb 26 a7 c9 bd
       -0.0732883 -0.049310084 -0.0071583795 -0.09846334
0002f0 bb c4 46 3d 81 e9 cb bd 74 80 b6 3d d9 e9 8f 3d
       0.04852746 -0.09956647 0.08911219 0.07027025
000300 eb a5 78 3d 52 f0 96 be e4 e4 d0 3c fd 66 af 3b
       0.060705107 -0.29480225 0.025499769 0.0053528533
000310 10 bb 1f 3d b6 f1 f1 be 4a 70 c5 bd ea d4 a8 3d
       0.038996756 -0.47254723 -0.09640558 0.08243735
000320 28 4d 21 bd 36 da 63 3c c9 de 32 bc bf 91 91 3d
       -0.039380223 0.013907006 -0.010917374 0.07107877
000330 e2 e2 7c 3d b6 ee 61 bd 3f 86 03 3e 8b 6e 07 3d
       0.06173981 -0.055159293 0.1284418 0.033064406
000340 6b 61 1c bd 15 76 57 3b db 71 73 bd f3 bc b6 3d
       -0.038178843 0.003287678 -0.059434753 0.08922758
000350 eb 50 c7 bd 33 b1 2d 3d f5 59 66 bc 26 60 ca bc
       -0.09732231 0.04240532 -0.014059533 -0.02470405
000360 ae 1a c3 bc 44 3f 51 3c 97 a6 8f 3a ec 50 05 3c
       -0.023816433 0.012771431 0.0010959682 0.008136969
000370 d2 d0 f0 3c d8 1f 0a 3d 2d 21 16 bd 22 82 c5 3d
       0.029396448 0.033721775 -0.036652733 0.096439615
000380 8b 72 3b be 39 97 bc bc 19 9a b9 3c 44 8d 6c 3d
       -0.18305413 -0.023021327 0.022656487 0.05775191
000390 73 0f 50 3d 00 a4 8f 3b 10 fb 8f bf 32 7e 7a 3e
       0.050795984 0.004383564 -1.1248493 0.24462202
0003a0 72 99 77 bc 1b 1c 00 be 9a ac 70 3c a7 d0 63 3e
       -0.015112268 -0.12510721 0.014689589 0.22247563
0003b0 34 e6 6b 3d 66 a0 22 3e 30 2c c1 3d 79 91 36 bd
       0.057592586 0.158815 0.09432256 -0.044572327
0003c0 fc 78 f6 ba 76 08 56 3d 17 81 49 3c 24 1e 3c bd
       -0.0018804367 0.052254163 0.012298844 -0.04592718
0003d0 f8 ba 10 be 28 14 28 3e e6 13 c1 bd 47 2d 10 3d
       -0.14133823 0.16413939 -0.094276235 0.03519943
0003e0 e1 9c 89 3d 53 f2 d1 bc f1 1c c8 bc e2 f6 75 bc
       0.067193754 -0.025628245 -0.024427863 -0.015012475
0003f0 00 e6 81 3c d4 f3 fd bd 81 4f ec bd e0 90 8e 3d
       0.015856743 -0.12400022 -0.11538602 0.069612265

fc1.bias f4 [256]
000000 17 a1 09 3e 69 45 2a be 80 ed 50 bd ec d9 85 3d
       0.13440357 -0.1662804 -0.051007748 0.06535706
000010 ae f7 ed 3d d9 78 bc 3d ba 7c c8 bd 62 19 4f 3d
       0.11619507 0.09202737 -0.09789415 0.050561316
000020 91 63 19 3e 1b 3b 67 bd b8 66 3d bd 88 e6 b0 bc
       0.14979388 -0.05645285 -0.04624054 -0.0215943
000030 37 f3 1c bd 8b ed 1a 3e 0e a3 83 bc 10 a5 21 be
       -0.038317885 0.15129678 -0.016068961 -0.15785623
000040 e1 1c c0 3c 21 30 c5 bc d3 91 ce 3d 77 65 1f 3e
       0.02345127 -0.024070801 0.100864075 0.1556605
000050 3b 63 db bd 90 31 8b bd 7a 0d 94 bc 43 97 05 3e
       -0.10712286 -0.06796563 -0.018072832 0.13045983
000060 fc f9 2f be 4f ba eb 3d e1 be 1f 3e 4f e9 18 3d
       -0.17185205 0.11510145 0.15600158 0.037331875
000070 32 e6 bb bd 22 e2 2e 3d 44 37 e3 bd 37 e6 dc 3b
       -0.09174766 0.042696126 -0.110945255 0.006741311
000080 e4 9a 1a 3e 56 5b 0e be 3a d0 1d 3e aa 6c ac 3d
       0.15098149 -0.1390203 0.15411463 0.084191635
000090 8d 02 db 3d 05 9c 02 be b0 7a 46 bd bd 11 05 3e
       0.10693846 -0.12754829 -0.048456848 0.12995048
0000a0 df 20 05 be 42 ca 18 3e ef 3b 54 bd 6e c1 27 be
       -0.1300082 0.14920905 -0.05181497 -0.16382381
0000b0 37 c6 05 3e 7d 2b 15 3d 34 88 6d 3c a1 fb 50 39
       0.13063894 0.036418427 0.014497805 0.00019930165
0000c0 7b a6 b5 bd 1e f8 66 bd 30 24 0f 3d 77 d4 db 3c
       -0.08869644 -0.056388967 0.03494662 0.02683471
0000d0 36 cf 49 3d d8 39 5a 3d 6b ec d9 3d 8e 1f e6 3d
       0.049269877 0.05327782 0.10640796 0.11236487
0000e0 6d 51 c0 3d 34 38 e1 3c 9c c1 cc bd 13 52 15 3e
       0.09390531 0.02749262 -0.099978656 0.1458209
0000f0 50 f5 41 3d 95 e1 c0 bd cc cf 14 be 74 71 89 bd
       0.04735309 -0.09418026 -0.14532393 -0.067110926
000100 36 12 31 3e 0c 06 f4 3d d2 5f b1 bc ea 0b ea bd
       0.17292103 0.11915216 -0.021652136 -0.11428054
000110 f3 d9 fc 3b ea 97 29 bd 78 82 86 3d d5 5e 20 be
       0.0077164113 -0.041404642 0.06567854 -0.15661176
000120 2a 5f 82 3d 92 d7 b6 3d 83 24 1c 3e bb ec 1b 3e
       0.06365807 0.089278355 0.15248303 0.15227024
000130 17 57 86 bd 37 3b 51 bd 87 d0 2e 3e e4 c1 d8 3d
       -0.0655958 -0.051081862 0.17071734 0.10583857
000140 ed ab 95 bc 74 b2 1a bd ee 90 b5 bd d1 59 93 bd
       -0.018270457 -0.037767842 -0.08865534 -0.071948655
000150 8f 15 9c 3d c9 e1 6c 3c c2 6d 40 3d d6 04 6a 3c
       0.076212995 0.014458128 0.046979673 0.01428338
000160 0d 55 2a 3e 66 b9 27 3d d3 77 2e be 52 ff 98 3d
       0.16634007 0.040948294 -0.17037897 0.074705735
000170 0c f2 cd 3d b2 3f da bd 30 a1 98 3d bc d3 5a 3d
       0.100559324 -0.1065668 0.07452619 0.053424582
000180 47 d8 9b bc aa 4d 25 be 12 7a 76 bd 6d 6e 94 3d
       -0.019024028 -0.16142908 -0.06017501 0.072476245
000190 5a 48 17 3e 0d 70 9f 3d d5 c1 aa bd 0d 03 d3 bd
       0.14773694 0.07785044 -0.08337752 -0.10303316
0001a0 62 08 cc bd 52 ba f9 3d dc f9 94 bd 2f 8b 01 be
       -0.099625364 0.12193741 -0.072742194 -0.1265075
0001b0 c4 18 dc bd e4 1a 33 3d e7 a1 a2 3c 8e 39 1e 3e
       -0.10746911 0.043726817 0.019852592 0.15451643
0001c0 a0 df ad 3b 8f 9f e5 bc dc 39 a8 bd 5a 46 d6 bd
       0.005306199 -0.028030185 -0.08214161 -0.10462637
0001d0 9a f1 b5 bd b1 46 fb 3d 7a 92 c6 bc fa 00 b6 bd
       -0.088839725 0.12269343 -0.024239767 -0.08886905
0001e0 3c 1b f8 bc e1 a8 03 be 23 3c f1 bd 93 1b b5 bd
       -0.030286424 -0.12857391 -0.11779048 -0.0884315
0001f0 59 ee a0 3c 85 dd ad bd c0 b0 03 be 01 74 b8 3c
       0.019644903 -0.08489517 -0.12860394 0.022516252
000200 88 4f e8 3c eb c6 8d 3d fe bd 0b bc 88 41 87 bd
       0.028358236 0.06922706 -0.008529184 -0.06604296
000210 ec 77 cf 3d 68 5d 32 bc fc 59 fb 3d 16 01 c9 bd
       0.10130295 -0.010886528 0.122730225 -0.0981466
000220 e5 3a bc 3c 3d 80 1b 3e 44 dd b4 bc 43 7c 98 bd
       0.022977302 0.15185638 -0.022078164 -0.07445576
000230 a5 3b d9 3c fa 16 d3 bd ab 3c 67 3d e7 9e cb bd
       0.026517699 -0.10307117 0.05645434 -0.099424176
000240 76 ae 26 3e 73 63 20 3e ae 09 91 3c a7 f1 ab 3d
       0.16277489 0.15662937 0.017704811 0.08395701
000250 99 ec 4b bd ee 86 1c 3d 50 18 2c be 1c 28 5a ba
       -0.049786184 0.038214616 -0.1680615 -0.0008322017
000260 cc 64 19 3d 23 29 9f 3d 6a 2f e7 3d cc 12 7c bc
       0.037449643 0.07771518 0.112883404 -0.015385341
000270 ee fb 1c be f3 c7 f1 bc da 4e 7b 3c ee f6 d0 3d
       -0.15330479 -0.029514289 0.015338624 0.10203348
000280 94 0d 1d be 90 cf 0b 3e a2 ee 06 3e 08 85 a7 3d
       -0.15337211 0.13653398 0.13176969 0.081796706
000290 61 ff 2c be 14 42 38 bc f1 07 78 3d ee d8 cc bd
       -0.16894294 -0.011246223 0.06055445 -0.100023136
0002a0 05 1c 96 3d 6c d1 80 bd fc 3e 00 be c6 ce a7 3c
       0.07329563 -0.06289944 -0.12524027 0.02048434
0002b0 4c 6f b4 3c 42 c3 4c 3d 47 c9 97 bd b8 b4 f0 3d
       0.022025727 0.0499909 -0.074114375 0.11753219
0002c0 c1 fe 35 bd 42 40 29 3e 58 76 cf bd b3 69 b2 bc
       -0.044432405 0.16528419 -0.10129994 -0.021778917
0002d0 8c 6b 6a 3d 62 ba e1 3d 28 e8 13 3e 1b 09 45 3d
       0.05723147 0.11021878 0.1444403 0.048104387
0002e0 e1 b4 d5 bd a8 58 a1 3d df 18 7b bd 22 df 23 3e
       -0.104348905 0.07878238 -0.061303016 0.16003087
0002f0 d2 c7 14 bd 74 fe 0b bd 94 6d e3 bc f9 d0 00 3e
       -0.036323376 -0.034178212 -0.027762212 0.12579717
000300 bb bb 93 bd 4c 58 99 bd f7 c6 2a be 6f ad f9 bd
       -0.07213541 -0.074875444 -0.16677462 -0.12191283
000310 50 c7 05 3e d5 cc 1e be 0c 85 a5 bd fd 6b f1 3b
       0.13064313 -0.15507825 -0.08082017 0.0073676095
000320 3f db b7 bd e3 07 73 bc 1e cc 03 3e 13 88 db 3d
       -0.08977365 -0.014833423 0.12870833 0.107193135
000330 15 90 0a 3d d8 2e 12 bb 89 21 f5 bd b9 b9 8b 3d
       0.033828814 -0.0022305753 -0.11969287 0.06822533
000340 15 42 9c 3d ca c3 7e bd cd 6e ba bd 9c de 8a 39
       0.07629792 -0.062198438 -0.09103165 0.00026487268
000350 aa 20 0d 3e b5 fa f3 bd 00 8e aa 3d 86 5f e2 bd
       0.13781992 -0.11913053 0.083278656 -0.11053376
000360 91 e5 1d bd 8c dd 2a be 25 e3 21 3e 0a 92 bf 3d
       -0.03854901 -0.16686076 0.15809305 0.093540266
000370 45 59 86 bc e2 97 12 be b5 ae 08 be 83 9d 4e bd
       -0.016399989 -0.14315751 -0.13347895 -0.050443184
000380 fd f6 14 3d f8 b7 04 3e b3 97 a5 3d e9 bd 23 3e
       0.03636836 0.12960804 0.08085575 0.15990414
000390 5b 9e a2 3b 4a 0e 2b 3e 1c 5d a0 3d fa 19 1d 3e
       0.004962725 0.1670467 0.07830259 0.1534194
0003a0 37 9c 2f be b5 4b 70 3c ed ef 8e 3d 91 c6 a6 3c
       -0.17149435 0.014666487 0.06979356 0.020358356
0003b0 8b 4a 27 3e 86 bb 5f 3d b6 10 31 3e 6f 51 30 be
       0.1633703 0.054622196 0.17291531 -0.17218564
0003c0 d3 e3 28 3d b1 6f ef bd 41 71 65 3d c2 37 2f be
       0.041232895 -0.11691225 0.05601621 -0.17111114
0003d0 37 ad 00 be 61 3e 29 3e 47 50 7f 3c dd 9b 0e 3e
       -0.12566076 0.16527702 0.015583104 0.13926645
0003e0 c3 65 2a be b7 d8 11 3d 57 57 47 bd 19 59 59 bd
       -0.16640382 0.035607066 -0.04866728 -0.053063486
0003f0 c3 e2 af 3d 25 ac c1 bd 8c cb f1 bd e9 6d 83 ba
       0.08588173 -0.09456662 -0.118064016 -0.0010027263

bn1.weight f4 [256]
000000 18 5c 6f 3f 88 fd a4 3f 47 48 9e 3f d8 8f 80 3f
       0.934999 1.2889872 1.2365807 1.0043898
000010 dd 73 92 3f 13 4e 68 3f 84 c8 b8 3f 5b 27 96 3f
       1.1441609 0.9074413 1.4436193 1.173076
000020 5d df 8b 3f f1 8f 85 3f 85 41 70 3f 6c 22 87 3f
       1.092754 1.0434552 0.93849975 1.055738
000030 6b 66 56 3f 89 8f 83 3f 38 c1 b4 3f cf 19 77 3f
       0.8375003 1.0278178 1.4121466 0.96523756
000040 40 74 8b 3f a4 21 86 3f 48 82 82 3f 52 dd 9a 3f
       1.0894852 1.0479016 1.0196009 1.2098792
000050 53 bd 4e 3f e4 e3 80 3f f6 71 95 3f c7 e1 bb 3f
       0.80757636 1.0069547 1.1675403 1.4678277
000060 1c f7 a6 3f 52 28 91 3f 5b 85 a4 3f 33 23 96 3f
       1.3044162 1.134043 1.2853197 1.1729492
000070 90 40 90 3f f3 5f 60 3f ed 87 98 3f 65 1d 84 3f
       1.1269703 0.87646407 1.1916481 1.032147
000080 79 4f 6d 3f 5f 03 84 3f 92 a9 87 3f 1b 89 a3 3f
       0.9269939 1.0313529 1.0598624 1.2776216
000090 2b 02 94 3f 4c 85 7a 3f 9f 6d 73 3f 70 17 90 3f
       1.1563162 0.97859645 0.95089144 1.1257153
0000a0 8a 34 8c 3f e3 e2 83 3f 84 de 96 3f b6 04 8a 3f
       1.0953534 1.0303615 1.1786656 1.0782688
0000b0 fa df 91 3f 98 3b 9a 3f c0 d7 8e 3f 4f a2 8b 3f
       1.1396477 1.2049437 1.1159592 1.0908908
0000c0 e3 77 95 3f 47 3e 7b 3f 6e ac 8e 3f a7 a3 8a 3f
       1.1677212 0.981419 1.1146371 1.0831193
0000d0 b6 98 86 3f c7 0f 90 3f 92 c9 bd 3f 2a 57 85 3f
       1.0515354 1.1254815 1.4827139 1.0417225
0000e0 57 63 99 3f 24 03 84 3f 4e 79 99 3f dc b9 8b 3f
       1.1983441 1.0313458 1.1990144 1.0916095
0000f0 bd 80 8a 3f 93 57 72 3f 1f e7 57 3f f7 0d bd 3f
       1.0820538 0.9466488 0.8433704 1.4769887
000100 0b af ae 3f 69 dd 80 3f ca d8 84 3f 6c 50 7b 3f
       1.3647169 1.0067569 1.0378659 0.9816959
000110 7a 81 90 3f ca 7c 8c 3f 63 47 8f 3f 7f ff 92 3f
       1.1289513 1.0975583 1.119366 1.1484221
000120 ac eb 7d 3f 87 c7 d1 3f a8 5a 91 3f f1 75 8b 3f
       0.9918773 1.6389016 1.1355791 1.0895368
000130 72 bc 87 3f 07 a8 87 3f 04 76 da 3f b3 c1 85 3f
       1.0604384 1.0598153 1.7067266 1.0449737
000140 67 12 5a 3f bd 8a 7f 3f 02 67 7f 3f 3b 7a 95 3f
       0.8518433 0.9982107 0.9976655 1.1677927
000150 bd 9f 7e 3f 92 75 9b 3f e6 6a a6 3f cb 4b bd 3f
       0.9946249 1.2145255 1.3001373 1.4788755
000160 9c 3e 05 40 c2 20 7f 3f e8 96 85 3f f9 f9 87 3f
       2.0819464 0.9965936 1.0436678 1.0623161
000170 d1 2e 7f 3f 36 3b 86 3f 3a 9d 87 3f eb 3c 81 3f
       0.9968081 1.048682 1.0594857 1.0096716
000180 13 5d 95 3f 76 60 7a 3f e4 c7 99 3f d9 71 75 3f
       1.1669029 0.9780344 1.2014127 0.9587684
000190 4d e9 85 3f 3d 33 89 3f 30 6c 97 3f 5e df 96 3f
       1.0461823 1.0718762 1.1829891 1.1786916
0001a0 c1 7e 76 3f 0f 95 75 3f 2c c9 56 3f dc c7 8c 3f
       0.9628716 0.9593057 0.83900714 1.0998492
0001b0 73 26 ab 3f 09 e6 85 3f f7 1b 7a 3f 55 9f 8d 3f
       1.3371109 1.0460826 0.9769892 1.1064249
0001c0 b1 8e a9 3f ac 65 9d 3f 5e 89 69 3f c0 01 95 3f
       1.3246671 1.2296653 0.9122523 1.1641159
0001d0 97 06 90 3f 79 c0 84 3f ae 65 9b 3f 9b 85 85 3f
       1.1252011 1.0371238 1.2140405 1.0431398
0001e0 30 27 8a 3f 6e c8 80 3f 8c d2 6a 3f 69 a6 88 3f
       1.0793209 1.0061166 0.9172752 1.0675784
0001f0 f2 9c 9c 3f 52 58 74 3f 8f e8 71 3f e1 74 93 3f
       1.2235396 0.95447266 0.9449548 1.1520044
000200 a9 0c 60 3f e7 2f b2 3f 6b b8 96 3f 28 94 79 3f
       0.8751932 1.3920869 1.177503 0.97491693
000210 02 fb a2 3f 4c 99 78 3f 9f db 88 3f 06 11 4a 3f
       1.2732852 0.9710891 1.0692023 0.78932226
000220 1d e4 96 3f 9a 70 83 3f 1c 0b 78 3f 61 d4 86 3f
       1.1788365 1.0268738 0.9689195 1.0533563
000230 0d 45 60 3f 74 b8 63 3f c6 ce 5e 3f f9 12 61 3f
       0.87605363 0.8895333 0.8703426 0.87919575
000240 3c cb 92 3f f0 64 ac 3f b8 29 72 3f ca f3 a1 3f
       1.1468272 1.3468304 0.9459491 1.2652524
000250 d8 93 81 3f 32 7c 8d 3f 1b 75 8a 3f 55 53 8b 3f
       1.0123243 1.1053526 1.0816988 1.0884806
000260 a8 c4 4f 3f b7 6a 4f 3f 30 d1 a8 3f 09 5b 84 3f
       0.8115945 0.8102221 1.3188839 1.0340282
000270 2e ae 83 3f 5e d0 8f 3f a6 54 91 3f 2a c2 6a 3f
       1.028753 1.1235464 1.1353958 0.9170252
000280 f7 87 66 3f e6 38 5c 3f 8f 7d 60 3f e3 a3 90 3f
       0.90051216 0.8602432 0.8769159 1.1300014
000290 15 fc a0 3f 26 8c b4 3f 61 43 80 3f 75 ae 8a 3f
       1.2576929 1.410527 1.0020562 1.083449
0002a0 17 00 b4 3f ef c3 98 3f 81 02 84 3f 31 31 e9 3f
       1.4062527 1.1934794 1.0313264 1.8218137
0002b0 f5 e0 90 3f 22 4b 9b 3f be 69 dd 3f 96 17 8a 3f
       1.1318651 1.2132304 1.7297895 1.0788448
0002c0 7f 8c 92 3f 88 99 6b 3f a3 4f 58 3f 65 3c 75 3f
       1.1449126 0.92031145 0.84496516 0.9579528
0002d0 57 c6 79 3f f1 4d 93 3f 08 9e bd 3f f4 f2 77 3f
       0.9756827 1.1508161 1.4813852 0.9685509
0002e0 91 ef 9b 3f 15 70 92 3f 01 72 78 3f 3c fe 4e 3f
       1.2182485 1.1440455 0.97048956 0.8085668
0002f0 79 53 65 3f 90 59 7f 3f 50 51 91 3f 87 5c b7 3f
       0.89580494 0.99746037 1.135294 1.4325112
000300 ad e5 77 3f bd 8f 9c 3f bd 98 89 3f 59 3f 99 3f
       0.9683483 1.2231365 1.0749737 1.1972457
000310 2f fa a2 3f aa 7f 5f 3f 7d b3 97 3f e3 21 2e 3f
       1.27326 0.87304175 1.185165 0.6802046
000320 c1 61 8c 3f ca eb a5 3f 7b 77 b2 3f e8 47 78 3f
       1.0967332 1.2962582 1.3942713 0.9698472
000330 10 8b 81 3f 4a 0c 6f 3f b4 7a 99 3f 40 f9 8e 3f
       1.0120564 0.93378127 1.1990571 1.1169815
000340 d1 a0 86 3f c2 93 57 3f e0 1f 78 3f a2 90 93 3f
       1.0517827 0.84209836 0.9692364 1.1528513
000350 5e fe 8d 3f 11 56 88 3f d8 6f 85 3f 00 8d db 3f
       1.1093252 1.0651265 1.0424757 1.7152405
000360 9b 38 8d 3f ea 1f 4a 3f 73 95 88 3f 35 6e 68 3f
       1.10329 0.78954947 1.0670608 0.9079316
000370 2d fc 80 3f 55 cc a9 3f 16 c0 af 3f 56 fb b4 3f
       1.0076958 1.3265482 1.3730495 1.4139202
000380 d6 01 80 3f 8d 17 88 3f a3 df 77 3f 36 90 84 3f
       1.000056 1.0632187 0.9682562 1.035651
000390 09 4a a7 3f 84 fd 7e 3f ee ae 85 3f 6a a0 91 3f
       1.3069469 0.99605584 1.0444009 1.137708
0003a0 07 a2 9b 3f 65 5d 88 3f 58 92 75 3f a6 10 87 3f
       1.2158822 1.0653502 0.9592643 1.0551956
0003b0 5e b3 80 3f 13 73 84 3f 66 fe 8e 3f c3 70 82 3f
       1.0054739 1.0347618 1.1171386 1.0190662
0003c0 73 1b 94 3f 59 45 93 3f fa e5 53 3f 8e 7b 98 3f
       1.1570877 1.1505538 0.8277279 1.1912706
0003d0 85 01 71 3f de ca 75 3f ce c4 7c 3f 43 bd 9d 3f
       0.94142944 0.96012676 0.987378 1.2323383
0003e0 5d 5e 9b 3f 69 ee 84 3f 3d c1 b1 3f 6d c9 80 3f
       1.2138172 1.0385257 1.3887097 1.006147
0003f0 33 6a 84 3f 3a b8 82 3f 6c 63 a0 3f bd d5 8c 3f
       1.034491 1.0212471 1.2530341 1.1002728

bn1.bias f4 [256]
000000 15 f2 19 bf 21 1e 10 bf 36 72 b8 be d1 45 22 be
       -0.6013501 -0.56295973 -0.36024636 -0.15846945
000010 c0 1a 3c bf e5 7e 98 3e 87 81 1d bf 6a 41 51 be
       -0.7347832 0.29784313 -0.6152577 -0.2043511
000020 61 24 00 bf 6e ac 26 bf 98 cb 6c be 23 87 0e bf
       -0.5005551 -0.65106857 -0.2312454 -0.5567495
000030 b7 0b 8e 3d 77 af f7 be 51 8d 48 bf 3f 26 aa 3e
       0.06935828 -0.48376057 -0.7834063 0.33232304
000040 8a 52 b9 be 21 22 49 bf e8 91 04 bf df f3 c8 bc
       -0.36195785 -0.785677 -0.51785135 -0.02453035
000050 14 93 24 bc ed c9 f8 be 82 d6 9e be e7 5c 89 be
       -0.010044832 -0.48591557 -0.3102303 -0.2682869
000060 38 a9 21 bf a6 3f 29 bf 0f fa 1b be 48 7b c7 be
       -0.6314883 -0.66112745 -0.15232109 -0.38961244
000070 20 83 18 bf a6 de 76 3e 90 a6 08 bf 2b 7c 6b be
       -0.5957508 0.24108371 -0.53379154 -0.22996585
000080 7c 35 1e bf c1 77 34 bf f8 39 ac be 3c 83 d4 be
       -0.6180036 -0.7049523 -0.33637977 -0.41506374
000090 8c 83 83 be 0d 59 b7 3e 0c 43 b4 bd 63 6a 8a be
       -0.256863 0.35810128 -0.08801851 -0.27034292
0000a0 fb 7d 1e bf 8e b8 e2 be 91 07 9f be fb 0c a2 be
       -0.6191098 -0.4428143 -0.3106046 -0.31650528
0000b0 67 66 15 bf 8f 45 41 3e 96 17 e6 be 20 f4 c3 be
       -0.5835938 0.18874191 -0.4493987 -0.3827219
0000c0 f8 0e b2 be 33 32 46 be be 30 d6 be 57 e5 c2 be
       -0.34777045 -0.19355087 -0.41834062 -0.38065597
0000d0 7d 1b 3c be 02 68 03 bf 76 86 96 be 0c 78 97 bd
       -0.18369861 -0.5133058 -0.2939946 -0.07395944
0000e0 87 87 7d be ef 8a ee be f6 ba bf be b4 a9 05 bf
       -0.24758731 -0.46590373 -0.37447327 -0.5221207
0000f0 27 f7 82 be e7 2f 01 be 75 1d 39 be 95 07 00 bf
       -0.25579187 -0.1261593 -0.18077643 -0.5001157
000100 30 1d 03 bf ba d4 9d 3c 96 1c c7 be 89 c4 82 be
       -0.5121641 0.019266475 -0.38888997 -0.2554057
000110 f6 a9 d3 be fc b7 02 3d 38 33 39 bf 82 a3 7e bd
       -0.41340607 0.031913742 -0.7234378 -0.062167652
000120 a2 38 96 be 03 6b b1 3c 3f 85 9e be e5 ec d2 be
       -0.29340082 0.021657472 -0.30961034 -0.4119636
000130 4c 84 4d 3e ee 7c af be 8b a0 14 3e 58 22 25 be
       0.20069999 -0.34275 0.14514367 -0.16126382
000140 a4 7f 2d bf 46 ee d3 3c 8f 95 8d be 5c 85 17 be
       -0.6777289 0.025870454 -0.27653167 -0.14796966
000150 60 41 98 be 19 5b 41 bf 16 04 b3 be fe 03 85 be
       -0.29737377 -0.7552963 -0.34964055 -0.25979608
000160 2e 11 07 3f e6 52 92 be 8f 9b e9 be 01 50 1d bc
       0.5276059 -0.2857887 -0.45626494 -0.009601594
000170 ac 7a f0 be 07 da ba be a8 f9 ec be b9 71 a8 be
       -0.4696859 -0.36494467 -0.46284223 -0.32899264
000180 0e 11 c4 be 47 a6 c2 be 4d b7 11 bf 3e 4f a5 be
       -0.38294262 -0.38017485 -0.5692032 -0.3228702
000190 62 c1 d7 bd 20 45 95 be 9e af 9d be e2 bf 84 be
       -0.10534932 -0.291543 -0.30798048 -0.25927645
0001a0 8b 79 07 bf 38 61 ec be 17 f9 9a 3d 53 dd 99 be
       -0.52919835 -0.46167922 0.07567041 -0.3005167
0001b0 15 38 db be 97 c2 52 be ba 56 60 be 8e 49 42 be
       -0.42816225 -0.20582043 -0.21908084 -0.18973371
0001c0 77 7f 79 be 66 cf bb 3e e3 e0 92 be 89 11 01 bf
       -0.2436503 0.3668167 -0.286872 -0.5041738
0001d0 05 14 30 bf 5d 3c c1 be e7 5a cf be ea 21 c5 be
       -0.6878055 -0.37741366 -0.4049904 -0.38502437
0001e0 2b 27 07 be 4c bc 04 bf 22 be 0d bf a6 72 1c bf
       -0.13198535 -0.5184982 -0.55368245 -0.6111244
0001f0 04 7d 41 bf df 38 df be 12 da b3 be 90 4d 3d be
       -0.75581384 -0.43598077 -0.35127312 -0.18486619
000200 38 bd be bd 9d 83 36 bf d6 62 cf be ee e1 35 be
       -0.09313434 -0.71294576 -0.40505093 -0.17761967
000210 3d c5 0d be d1 b4 1c be b5 0a 9c be a5 b1 1e 3e
       -0.13844772 -0.15303351 -0.3047692 0.15497454
000220 08 65 a9 3d a9 8c 0a bf 8c 58 eb be da 85 6d 3e
       0.08271223 -0.5412088 -0.45965993 0.23195592
000230 88 cd d9 be 7b 33 b7 3c de 88 17 be 4b 46 3f be
       -0.4253962 0.022363415 -0.14798304 -0.18679158
000240 01 05 de bd fe fb 48 3c a1 4f 8f be 41 19 1b bf
       -0.10840798 0.012267111 -0.2799044 -0.6058541
000250 bc 4b 13 bf a8 04 1b bf eb 4f 3d be a2 ff f7 3c
       -0.57537436 -0.6055398 -0.18487518 0.030273262
000260 4f c6 ef be 0b 8b aa 3e 96 9c 98 be 1e c2 3d bf
       -0.46830985 0.33309206 -0.29806966 -0.74124324
000270 8f e4 29 be 3b ce 2e bf cf d1 d7 be ca ca e1 be
       -0.16591094 -0.6828343 -0.4215226 -0.44100028
000280 e6 88 e3 be 77 cb 4f 3e 03 69 23 bf fc bc 5d bf
       -0.44440383 0.2029246 -0.6383211 -0.8661649
000290 33 c8 23 bf 52 54 e0 be 97 df 11 bf 96 45 13 bf
       -0.63977355 -0.4381433 -0.56981796 -0.57528055
0002a0 f0 9b 07 bf 75 9c 6f 3e 6a 40 2b bf 0d cc 09 be
       -0.52972317 0.23399527 -0.66895163 -0.13456745
0002b0 e9 cf 24 bd df e8 d9 be 85 0d de be 3a 2c 42 bf
       -0.04023734 -0.4256048 -0.4336969 -0.75848734
0002c0 f8 34 39 bf d5 a5 c1 be a8 30 2d bf d0 9f a6 bd
       -0.7234645 -0.37821832 -0.6765237 -0.081359506
0002d0 b5 e1 48 bf ee 46 b8 be 15 ab bc be 0a eb 06 be
       -0.784694 -0.35991615 -0.36849275 -0.13175598
0002e0 ef f1 68 be 87 2e 47 bf 46 a4 0a bf e9 68 5e bb
       -0.2274854 -0.7780537 -0.5415691 -0.0033937043
0002f0 05 66 59 be ec 7f f0 be d3 86 2b be fa 55 ee ba
       -0.21230324 -0.46972597 -0.1675065 -0.0018183582
000300 5b 7c 2c bf db bb c9 be de 27 37 bf 79 d3 66 3d
       -0.6737725 -0.39401135 -0.7154521 0.05635402
000310 a3 83 b6 be 16 ce 02 be 50 54 03 be 07 90 90 3d
       -0.35647306 -0.12773928 -0.12825131 0.07058721
000320 48 40 10 bf 0b 29 05 bf 5d 6a 59 bf 35 b0 10 be
       -0.56348085 -0.5201575 -0.8492792 -0.14129718
000330 77 24 13 bf cd 19 e7 be 4c 06 34 be 06 1a 1d bf
       -0.57477516 -0.45136872 -0.17580527 -0.61367834
000340 c8 4f b2 be 9a 1b 4e be b3 6f 86 be c1 6e c4 be
       -0.34826493 -0.20127717 -0.26257095 -0.3836575
000350 3a 85 d4 bc 70 5f 01 bf 95 19 e8 3d 59 97 2a bf
       -0.025942434 -0.5053625 0.113330044 -0.6663719
000360 77 91 6b be 87 5c b7 bc 4b 71 4c be d4 68 16 bf
       -0.23004709 -0.022382988 -0.19965093 -0.58753705
000370 bd f1 35 bf 20 a6 f7 bd 23 b9 1f be bf 0e 0a bf
       -0.7107199 -0.12092233 -0.15597968 -0.5392875
000380 22 e2 3a be 99 5d c3 be 1d 2a cc 3e 21 75 57 bf
       -0.18250325 -0.38157347 0.3987588 -0.841631
000390 98 7d 1f bf 73 f2 94 be 2e 3c e2 be 59 90 8d be
       -0.62301016 -0.29091224 -0.44186538 -0.2764919
0003a0 59 88 73 be 98 43 b8 be 7f 49 f7 bd 32 d9 56 3c
       -0.23782481 -0.3598907 -0.12074565 0.013113307
0003b0 07 7a 26 3e ff a7 78 3d 3d ac 3d be 54 3a 92 3e
       0.16257487 0.06070709 -0.18522735 0.28560126
0003c0 18 78 5a be 69 b0 7f be f1 79 c9 3e 80 19 04 bf
       -0.21334875 -0.24969639 0.39350846 -0.5160141
0003d0 eb cc 11 3f 70 3a 50 be fa 7b 4c be 7d e1 31 be
       0.56953305 -0.20334792 -0.19969168 -0.17371173
0003e0 d9 9c 8e be a8 51 8c be c2 42 2c 3c 5c 04 33 bf
       -0.2785404 -0.2740605 0.010513963 -0.69928527
0003f0 d2 33 ae be f4 a8 90 be 36 3c 4c bc c5 1b 22 bf
       -0.3402391 -0.282539 -0.012465527 -0.6332362

bn1.running_mean f4 [256]
000000 fa 10 b6 3c 77 12 51 be d9 72 30 be 0d 70 ef 3e
       0.022224892 -0.204172 -0.17231311 0.46765175
000010 b4 60 89 bf d7 cd 56 bd 91 b8 2a 3e 5e 91 91 be
       -1.0732636 -0.052442398 0.16671969 -0.2843122
000020 85 82 9b 3c 0a 66 6a be 19 8a 68 bf 4d 4f 24 3e
       0.018983135 -0.22890487 -0.9083572 0.16045876
000030 0b a9 6a bf 4e 9e f6 bd a6 3d 1b be b5 21 25 bd
       -0.9166419 -0.12041913 -0.15160236 -0.04031535
000040 b7 0d 02 3e 8c b8 90 be 44 06 32 be 3a 9b ff 3e
       0.12700544 -0.28265798 -0.17385203 0.49923116
000050 18 32 e7 be 62 03 23 3f 53 e0 29 3f a2 8e dd 3e
       -0.45155406 0.63677037 0.66357917 0.43272883
000060 ba b2 1e be 06 cf 4a be 8a 3f 26 3f 8d d2 bd 3d
       -0.15497866 -0.19805536 0.649407 0.09268675
000070 a9 69 1e bf 96 50 76 3e a0 aa bc be 39 71 de 3d
       -0.61879975 0.24054179 -0.36848927 0.10861439
000080 b4 aa 02 bf 9e ba 26 bf e8 9b 95 3f 27 62 2f be
       -0.5104172 -0.65128505 1.1688204 -0.17127286
000090 39 00 e7 be e3 b2 71 3e bc 88 6f 3f 54 20 37 3d
       -0.45117357 0.23603396 0.93568015 0.044708565
0000a0 f9 0e 79 3f 32 82 ee be 25 3e 6d 3f 2d ef 61 3e
       0.9728847 -0.46583706 0.9267295 0.22063895
0000b0 ae 82 ff 3c 69 dd 67 3c 4a 33 86 bd d7 fe 9e bd
       0.031190243 0.014151909 -0.06552751 -0.077634506
0000c0 3a 4d be 3f 21 4c 44 bf 55 dc fc be 40 2e e1 bd
       1.4867318 -0.76678663 -0.4938685 -0.109951496
0000d0 a1 fd 2d 3f 53 4c e8 3e 7e 6a 85 be fc 49 17 3f
       0.6796513 0.4537073 -0.2605781 0.59097266
0000e0 c6 d1 8e 3e 48 1a 4e bf 95 43 a5 3d a9 91 86 be
       0.2789442 -0.8050885 0.08069531 -0.26283005
0000f0 98 8a c6 3d a4 28 06 3f c9 a2 4f 3e c4 ef dc 3e
       0.096944034 0.5240576 0.20276941 0.43151677
000100 eb 0e cb bd 56 2f f1 3d 3d 18 9f be 50 8b 24 bf
       -0.09914955 0.11776607 -0.3107318 -0.64275074
000110 16 a6 a2 3d 82 24 be be 64 9a 26 3d b7 c2 70 bf
       0.07941835 -0.37137228 0.040674582 -0.9404711
000120 0b 4b 52 3f e2 8a 07 bd 83 94 02 3f 4e 74 40 3f
       0.82145756 -0.033091433 0.5100786 0.75177467
000130 e7 8b ae bd f1 4d 3e be 63 61 2e be 64 a0 e1 3c
       -0.08522778 -0.1858442 -0.17029338 0.0275423
000140 cc a2 21 bf 8e 6c 41 3e 44 a8 62 be 93 4e 9a 3d
       -0.63139033 0.18889067 -0.221345 0.07534518
000150 4c ca d4 3e fb 46 62 3c 12 6c 72 3d 43 ac 9d 3e
       0.4156059 0.013810868 0.059185095 0.30795488
000160 4a c9 55 ba 08 63 40 3f 47 85 03 3f df a1 f2 bd
       -0.00081552996 0.7515111 0.5137524 -0.11847281
000170 22 0d 52 3e 6a 28 6e bf 98 9a 1d bf 63 e3 85 3e
       0.20512822 -0.93030417 -0.61564016 0.26150045
000180 2b cb f3 3e 23 ca 59 3e b6 54 25 3f 9a 17 9d be
       0.47615942 0.21268515 0.64582384 -0.3068207
000190 5e 3d 9f 3e 33 81 42 3f 94 93 71 be 1a 6f 55 bd
       0.31101507 0.7597839 -0.23591453 -0.052107908
0001a0 35 45 b5 3c b6 05 48 3f e8 d6 4f be 8c 91 07 bf
       0.022127727 0.78133714 -0.20296824 -0.5295646
0001b0 a6 55 dc 3d 01 32 0d bf 96 70 82 be 9b f7 59 3f
       0.10758524 -0.55154425 -0.2547652 0.8514344
0001c0 64 44 86 3c 8e 2c 36 be 7f cd 5b 3e 0b 71 0d 3f
       0.016390033 -0.17790434 0.2146511 0.55250615
0001d0 aa 85 d8 3e 29 a4 54 bf d1 e5 be bc 16 1f d9 bd
       0.42289478 -0.8306299 -0.023302944 -0.10601632
0001e0 3f 5c 20 bf 15 64 4e bf 08 0f 40 bf 0a 35 92 3d
       -0.62640756 -0.80621463 -0.75022936 0.07139023
0001f0 21 a0 8f be bf 96 86 3f e1 70 c6 3f 34 21 5d be
       -0.28051856 1.0514754 1.5503198 -0.21594697
000200 34 7b 39 3e b0 f6 e5 be 41 b4 27 bf 1c bb 0e be
       0.18113405 -0.4491477 -0.6550942 -0.13938564
000210 bc 53 e6 3e 8b 70 3a 3e df 49 8a 3c be 87 6f 3f
       0.4498576 0.18206994 0.016880928 0.935665
000220 f5 5d 93 be 9e 9b 22 3f af 94 e2 be 32 ed 0d 3e
       -0.2878262 0.63518703 -0.44254062 0.13860014
000230 1e ae 1b bf 45 d9 2e bd 17 fa 51 be e2 85 e4 be
       -0.60812557 -0.042687673 -0.20505558 -0.44633394
000240 0d 53 e2 3e c7 e8 5c 3d 99 12 10 bf 4c 09 41 3f
       0.44203988 0.05393293 -0.5627838 0.7540481
000250 27 40 90 bf cb 09 1b bf 8e ac d6 be 25 45 06 bf
       -1.1269578 -0.6056182 -0.41928524 -0.52449256
000260 a2 f1 0a bf 49 a8 92 bd c9 b6 d6 3d 6f 59 69 3f
       -0.5427495 -0.07161004 0.10484082 0.9115209
000270 41 d4 c5 be 1c 34 cb bd 8d 41 f5 3d 37 5e 28 3e
       -0.386385 -0.099220484 0.119753934 0.1644219
000280 c6 04 17 bf aa d1 76 3f 44 18 5d 3e f6 51 c3 3d
       -0.5899166 0.9641367 0.21591288 0.09537117
000290 53 e7 00 bf 18 c4 1d 3d c1 55 a5 bf e4 bc 34 bf
       -0.5035297 0.038517088 -1.2916795 -0.70600724
0002a0 73 29 ee 3d 7a 68 31 3e 4c bd 45 3e f5 e0 93 3e
       0.116289996 0.17325011 0.19310492 0.28882566
0002b0 f6 ce 8b 3e 5f 65 86 3d a2 79 a4 bd eb ad 90 be
       0.27306336 0.06562304 -0.08031012 -0.2825769
0002c0 44 a4 9f 3c 62 89 84 3e 82 bf 33 3f 61 9c f9 3e
       0.019487508 0.25886065 0.7021409 0.4875212
0002d0 0b f7 45 be 3f 56 88 3f a5 23 09 3e 33 81 f2 3c
       -0.1933252 1.065132 0.13392504 0.029602623
0002e0 e8 ed 06 3e 24 68 98 bf 06 b8 c0 3e 37 2c 71 3f
       0.13176692 -1.1906781 0.376404 0.9420809
0002f0 5e 9c 16 3e 06 01 6a 3e bd ba 15 bf 46 75 f9 3e
       0.14708087 0.22851953 -0.58488065 0.48722285
000300 dc 9b 84 bf c3 70 1f bf 5c d2 82 bf b9 1a d0 3e
       -1.0360065 -0.62281436 -1.0220447 0.40645388
000310 c7 69 06 3f 21 a2 83 3e d9 0c ac 3d 1e a9 8b 3f
       0.52505153 0.25709632 0.08400888 1.0910985
000320 41 c4 43 bf 29 7a 1c 3f 74 d9 f3 bd 43 bd 8a bf
       -0.76471335 0.611239 -0.1190671 -1.0839008
000330 4e 85 84 bd 08 91 3c bf 11 15 3d bc 1b 82 2f 3b
       -0.06470738 -0.736588 -0.011540667 0.002678043
000340 e4 3e ae 3d 64 26 44 3f 30 ac f1 be 83 c6 5a be
       0.08508089 0.7662108 -0.4720168 -0.21364789
000350 d0 83 1c 3f d4 8b 7c 3e 5d f3 92 3e 6d 83 ca be
       0.6113863 0.24662715 0.28701296 -0.39553395
000360 91 9a 3e 3e d3 68 05 bf 14 8f 3d bd 0b 7b 44 3f
       0.1861365 -0.52113074 -0.046279028 0.7675025
000370 0c 32 d8 be 28 fa c5 3d 38 0c 86 be 5b 4a 05 3f
       -0.42225683 0.09666854 -0.26181197 0.5206658
000380 7d ce 53 3e d7 9a 66 3e 5d d7 5d be 59 9d 09 bf
       0.20684238 0.22520004 -0.21664186 -0.5375572
000390 15 69 42 3e 2f ce 3c 3f bb a3 0f bf 8e e4 77 3f
       0.18985398 0.7375211 -0.5610921 0.9683312
0003a0 92 d4 df 3e 41 ea 07 bf b1 7f 84 3f 1c f3 83 be
       0.43716866 -0.5309182 1.0351468 -0.25771415
0003b0 27 f2 0b 3f 18 d4 c0 3e fe e0 62 3f 30 90 2d bf
       0.5466637 0.37661815 0.8862456 -0.6779814
0003c0 e4 75 4a bf 77 15 a8 be 1b fc 21 3e 69 bb d9 bd
       -0.79086137 -0.32828876 0.15818827 -0.10631449
0003d0 0e 76 8e 3e 77 2f 3e 3f b1 c8 5c bd aa da ab be
       0.27824444 0.74291176 -0.05390233 -0.33565265
0003e0 44 40 85 be e6 3d 8f 3e 6d 6e d2 be 87 f7 de be
       -0.26025593 0.27976912 -0.41099873 -0.43548223
0003f0 48 b5 b6 bd 1a 34 8f 3f bd dc 19 be 82 20 f5 bd
       -0.089212954 1.1187775 -0.15025611 -0.11969091

bn1.running_var f4 [256]
000000 fc b4 0d 40 33 fb 84 3f 8c 76 a6 40 3f 60 1b 3f
       2.2141714 1.038916 5.201971 0.60693735
000010 0b 13 3f 3f e2 c4 fc 3f 91 cb b2 3f 6a e3 ef 3f
       0.7463843 1.9747584 1.3968374 1.8741276
000020 79 4a 41 3f b4 e1 35 40 4b 14 04 40 17 0a 96 3f
       0.7550426 2.8419008 2.0637386 1.1721829
000030 46 64 74 40 bb 92 1d 40 b2 75 e5 3f 88 63 17 41
       3.8186202 2.4620807 1.7926543 9.4618
000040 6e 6c 0d 3f dc ce 92 3f 6d de 8f 40 87 14 27 40
       0.55243576 1.1469378 4.4959016 2.610628
000050 90 f2 98 3f e7 26 e8 3f d3 55 e3 3f ee cd 2a 3f
       1.1949024 1.8136872 1.7760566 0.66720474
000060 eb 90 ce 3f b0 28 8d 3f 98 a0 b8 3f 29 87 53 3f
       1.6137975 1.1028042 1.4424009 0.82628113
000070 52 50 2a 40 0c 83 c5 3f 65 7e 81 40 b8 1c 21 40
       2.6611524 1.5430617 4.046679 2.5173779
000080 af f6 aa 3f 66 85 92 40 5f a4 a3 3f 7a 01 68 3f
       1.3356532 4.578784 1.2784537 0.90627253
000090 11 58 d0 3f 52 ad 5f 40 ba c4 8d 3f 57 3b 14 40
       1.6276876 3.4949536 1.1075661 2.3161218
0000a0 a4 70 7b 40 a5 a9 0a 40 db cf a0 40 76 13 03 40
       3.92875 2.1666043 5.025373 2.0480628
0000b0 56 3c ff 3f e0 9e 43 40 11 20 98 40 c6 a1 fa 40
       1.9940288 3.056572 4.7539144 7.8322477
0000c0 ff f6 00 40 2c d9 f3 3f 0b 03 46 3f 95 91 ef 3f
       2.0150754 1.9050651 0.77348393 1.8716303
0000d0 c7 72 8c 40 7c be f8 3f 9a fc ae 3f 79 f1 53 40
       4.389011 1.9433131 1.3670838 3.3116133
0000e0 24 36 86 40 77 10 e6 3f 7b 98 ee 3f 04 ea a6 3f
       4.194109 1.7973775 1.8640283 1.3040166
0000f0 a6 ea 4a 40 ec 82 77 3f aa b0 8a 3f 71 0e 94 3f
       3.1705718 0.96684146 1.0835164 1.1566907
000100 03 1d d5 3f f9 ab 5f 40 30 e6 b7 3f a3 1b 2c 40
       1.6649479 3.4948714 1.4367123 2.6891868
000110 37 96 56 3f d4 d2 39 40 ce 2c 16 40 d6 4a 48 40
       0.8382296 2.903493 2.3464847 3.1295676
000120 de 00 84 3f 1d 1d 45 40 72 33 c4 3f b4 e7 01 40
       1.0312765 3.079902 1.53282 2.029767
000130 86 70 d2 3f a4 b3 12 40 0a 91 ca 3f ec 1e 0f 40
       1.644059 2.2922144 1.5825512 2.2362623
000140 4b 16 10 40 e5 f6 10 40 b5 8a 6e 40 36 19 51 3f
       2.2513607 2.2650692 3.727216 0.81679094
000150 16 e0 19 40 6a e4 a4 3f 7f dd 80 3f f7 3b 98 3f
       2.4043021 1.2882206 1.0067595 1.18933
000160 64 ff 0a 40 2e 06 94 40 aa 5b 50 40 25 c5 1f 40
       2.1718378 4.6257544 3.2555947 2.4964077
000170 32 d1 20 40 42 f9 ab 3f d9 71 24 40 4f f4 d3 3f
       2.5127683 1.3435442 2.5694487 1.6558932
000180 58 34 56 40 d1 67 cb 3f cb f1 2f 40 f8 74 18 40
       3.3469448 1.5891057 2.7491329 2.3821392
000190 9a 76 ea 3f bb 0e 96 40 c2 30 c7 3e 7e be 0b 3f
       1.8317444 4.689298 0.38904387 0.54587543
0001a0 45 e0 54 40 1f b8 10 40 e0 b6 24 40 d4 97 5b 3f
       3.3261883 2.2612379 2.5736618 0.85778546
0001b0 81 ef a1 3e 58 09 39 3f ff 4a a0 3f 11 4a 93 40
       0.3162804 0.7227988 1.2522887 4.6027913
0001c0 fc e0 86 3f d9 17 c5 3f d6 32 ba 3f 5d 69 f4 3f
       1.053741 1.5397903 1.4546764 1.9094654
0001d0 44 29 94 40 1a de 91 3f f2 ce 9a 3f 0a e5 f7 3f
       4.6300373 1.1395905 1.2094405 1.9366772
0001e0 2d 87 97 3f fb 30 ca 3f 67 1f 94 3f 5e ab db 3f
       1.1838127 1.5796198 1.1572083 1.7161672
0001f0 85 b1 f0 3f ac f7 de 3f 2f 6e 89 40 50 73 4b 3f
       1.8804175 1.7419333 4.2947 0.7947283
000200 38 da d2 3f 8b 2f 18 40 8b f9 85 3f bc 26 84 40
       1.6472845 2.3779018 1.046678 4.1297283
000210 08 1d 2c 40 f9 ac 38 40 88 8c 54 40 c2 2d c2 3f
       2.689272 2.8855574 3.3210773 1.5170214
000220 58 5b 40 3f 86 ea 40 40 43 83 f4 3f 4a 1b 1c 40
       0.7513938 3.0143142 1.9102558 2.4391656
000230 a1 25 4e 40 67 dd 53 3f c8 b3 15 40 6d fc ec 3f
       3.2210467 0.8275971 2.339098 1.8514534
000240 c5 0a ed 3f ee 73 84 40 c2 d0 6d 3f ba db cc 3f
       1.8518912 4.1391516 0.92896664 1.6004555
000250 cb 05 13 40 0d 62 c6 40 e4 fc 64 3f 5a 36 14 3f
       2.2972286 6.199469 0.8944838 0.57895434
000260 8d 22 23 40 0e a5 2e 40 f2 be 9d 3f 44 41 04 40
       2.5489838 2.7288241 1.2323897 2.0664835
000270 a3 eb 87 3f e8 a8 48 40 5d be 0e 3f 40 be 92 3f
       1.0618786 3.1353092 0.5575922 1.146431
000280 33 73 36 40 4d 4a 29 40 42 68 bd 3f 51 e3 31 3f
       2.8507812 2.64516 1.4797442 0.6948748
000290 ab 41 f3 3e 0c 86 3d 40 74 8e a9 3f 5a 96 04 3f
       0.47511038 2.9613066 1.3246598 0.5179192
0002a0 0b f2 75 3f 8d 69 e5 3f 69 b7 23 40 73 15 f0 3f
       0.96072453 1.7922837 2.5580695 1.8756546
0002b0 ee ba 47 40 64 5a 9c 3f ce 8a ab 3f 90 95 92 40
       3.1207843 1.2215085 1.3401735 4.580757
0002c0 a1 15 94 3f 12 df 85 3f df f2 27 40 eb 86 8a 40
       1.1569101 1.0458701 2.6241987 4.3289695
0002d0 98 bd 87 40 b3 8d 8c 3f 8f 7b 9b 3f 55 52 07 40
       4.241894 1.0980743 1.2147082 2.1144001
0002e0 c7 07 fa 3f ed 23 65 3f 0e cf f8 3f aa eb 8e 40
       1.9533623 0.89507943 1.9438188 4.4662676
0002f0 6e fe 95 3f f2 c7 8c 3f d1 ab c4 3f 3d b4 b5 3f
       1.1718271 1.0998518 1.5364934 1.4195629
000300 e5 94 f8 3f 7c a5 45 3f e7 73 97 3f fe 99 b7 40
       1.9420439 0.77205634 1.1832246 5.737548
000310 ce 13 1b 40 68 e6 75 3f 7c 12 98 40 28 47 d5 3f
       2.4230838 0.960547 4.7522564 1.666234
000320 77 43 ca 3f 2a 9a b1 3f a4 bf 14 40 ab bf 20 40
       1.5801839 1.3875172 2.3241968 2.5116985
000330 bc 9e 8d 40 0d 9d 3a 40 c6 af ef 3f 0a e6 2f 40
       4.4256268 2.9158356 1.8725517 2.7484155
000340 88 1b 35 40 5d b4 85 40 76 d3 ce 3f 3b d5 09 3f
       2.8298054 4.178267 1.6158283 0.5384099
000350 5e 41 b7 40 6a 2a a3 3f 56 ca 23 3f 22 fb bf 3f
       5.7267294 1.2747319 0.63980615 1.4998515
000360 0c de 9a 40 d2 eb 14 40 0a 04 86 3f 2a 43 8c 3f
       4.8396053 2.3268933 1.0469983 1.0957997
000370 87 66 9e 3f 13 46 50 3f 91 e0 da 3f 52 2f f7 3f
       1.2375039 0.81356925 1.7099782 1.9311316
000380 71 c2 fb 3f 80 6a 36 3f 6e 98 c2 40 e3 4a ea 3f
       1.9668714 0.71256256 6.081107 1.8304104
000390 6c 57 85 3f 43 90 11 40 a7 d7 75 40 7a ff c5 3f
       1.0417304 2.27443 3.8412874 1.546859
0003a0 ec c7 fc 3e 1d a5 8c 3f 22 f5 92 3f 15 6c 74 3f
       0.49371278 1.0987889 1.1481059 0.9547742
0003b0 2b 9c c3 3f a9 a3 d3 3f 66 e1 98 3f 4c 8b b2 3f
       1.5282034 1.653432 1.1943786 1.394876
0003c0 74 5e a4 3f 62 cc 74 40 e4 58 e1 40 f9 bf 73 40
       1.2841325 3.8249745 7.042101 3.808592
0003d0 20 82 6f 40 b9 74 81 40 d1 15 bc 3f 11 63 1f 40
       3.7423172 4.0454984 1.4694158 2.4904215
0003e0 61 72 98 40 e6 3f dd 3f 96 fe ff 3f 63 18 2e 40
       4.7639623 1.7285125 1.9999568 2.7202384
0003f0 4b af 5f 3f 9e 60 7c 40 7d 54 c7 3f 6a c2 83 3f
       0.8737685 3.943397 1.5572659 1.0293705

fc2.weight f4 [128, 256]
000000 f2 d8 e5 bd a9 2f 8a bc 94 f9 b9 be 5f 6a cd 3b
       -0.1122302 -0.01686843 -0.36323225 0.006268784
000010 21 d5 2b bd 64 b5 e2 bd 4f d2 09 bf 15 db 9d be
       -0.041951302 -0.11069754 -0.5383653 -0.3083121
000020 d4 26 4a 3b 7b f0 7b 3d 5c 3b b4 bd 50 05 b4 3d
       0.0030845897 0.061508637 -0.088003844 0.08790076
000030 47 15 dd bc 30 fc 08 3e eb 71 9c 3d ad aa b2 3d
       -0.026987685 0.13377452 0.07638916 0.0872396
000040 04 14 86 3e 8a ce 3b bd bd 98 b4 3d 34 cb 03 bc
       0.26187146 -0.045851268 0.08818195 -0.008044053
000050 d6 3e 6f bb 67 62 01 3e 1d 8f 56 3e 79 b8 8e be
       -0.003650596 0.12635194 0.20953031 -0.27875116
000060 39 80 f3 bc 01 a5 37 3e 3c 73 95 3d b6 a7 91 bd
       -0.029724227 0.17934038 0.0729737 -0.071120664
000070 f1 44 12 3e 0a fd 25 3e 8e 77 1c bd f7 fc 18 3e
       0.14284112 0.16209808 -0.038199954 0.14940248
000080 1d d0 29 be e0 5c b6 3c 1f c9 65 3d 2c e0 79 3e
       -0.16583295 0.022261083 0.056100007 0.24401921
000090 01 c9 84 be a7 c9 67 be fb e6 c8 3d f4 5d 42 be
       -0.25934604 -0.22635518 0.09809681 -0.18981153
0000a0 0a e6 b5 3d 78 49 95 3e aa 60 3e be 80 a2 91 bc
       0.08881767 0.29157615 -0.18591562 -0.017777681
0000b0 b8 b1 28 3e ac fe 8e be ef 6d a6 bd 1a 2f 52 be
       0.16474044 -0.27928674 -0.08126437 -0.2052578
0000c0 0f 50 52 be 2a a1 96 3d 0c 4f 9a 3e 21 6d 28 3e
       -0.20538352 0.07354958 0.30138433 0.1644788
0000d0 11 9b e9 3d 83 62 0f be a2 72 d5 bd b0 4e 23 be
       0.1140653 -0.14002423 -0.10422255 -0.15947986
0000e0 36 36 66 3e e4 e9 33 3e 01 8d 2f bc fb 74 ec bd
       0.22481617 0.17569691 -0.01071477 -0.1154575
0000f0 3b 49 0c bd ac 70 12 3e 94 2e 7b be d2 10 e3 be
       -0.034249526 0.14300793 -0.24529487 -0.4434877
000100 65 b7 5b 3e a1 56 b9 3d cd 81 20 be 65 5f 62 3e
       0.21456678 0.09049726 -0.15674515 0.22106703
000110 99 ae 0c 3e 21 9f 7c 3e aa a4 8a bd bc d5 83 bd
       0.13738479 0.24670078 -0.067696884 -0.06437251
000120 05 5c 91 3d 97 ef 01 be 46 92 c2 3e c3 e9 ba 3d
       0.070976295 -0.12689053 0.38002223 0.09126618
000130 57 71 0c 3e 11 6b bd 3d 86 1e 1b 3e de de 9e 3e
       0.1371511 0.09248937 0.15148363 0.3102941
000140 eb 33 77 3e fb e3 55 3b 32 bd 73 bc db 38 09 be
       0.24140899 0.0032637108 -0.014876651 -0.13400595
000150 83 b4 24 bc 30 ba 30 3c e1 a8 00 be 92 59 51 3e
       -0.010052803 0.010786578 -0.12564422 0.20444325
000160 ed d2 3b be 9b d2 3d be 85 ae 7c bd a3 57 da 3d
       -0.1834218 -0.18537371 -0.061689872 0.10661247
000170 74 79 f1 bd d0 68 4f bd 25 e4 cf bd b9 cf 78 bc
       -0.117907435 -0.050637066 -0.10150937 -0.015186244
000180 60 a5 6e 3d ba 73 70 3e 17 98 a2 bc 4e ac 33 3d
       0.058263183 0.23481646 -0.019847913 0.043865494
000190 e6 4c 82 3e 63 df 3a bd 7f bd a7 bd d6 5c 8d 3c
       0.25449294 -0.045623194 -0.081904404 0.017256182
0001a0 b8 cb 88 3e 1b 20 ef bc 71 de d9 be 4f 14 33 3e
       0.26717925 -0.029190114 -0.42552522 0.17488216
0001b0 64 69 01 3e 21 6f 57 3d d4 a2 42 be 14 72 9f 3d
       0.1263786 0.052596215 -0.19007427 0.077854306
0001c0 7c 56 78 bd 8d 8c 19 bf c3 db 95 3d 7f 9d 0f be
       -0.060629353 -0.5998009 0.07317307 -0.14024924
0001d0 9b a5 1b 3e b2 b9 8b bd 2d cf 02 3e 12 2c f4 3c
       0.15199892 -0.06822528 0.12774344 0.02980617
0001e0 0a 2e ba bd 2f d9 6d bd 4a d7 03 3e 1d 6e b8 be
       -0.090908125 -0.05806845 0.12875095 -0.3602151
0001f0 bb 24 32 3e eb e0 64 be c5 19 6e be 30 fd d0 3d
       0.17396824 -0.22351424 -0.23252018 0.10204542
000200 fd 01 84 be c3 e7 fe 3d 8f 31 e3 3d 5f 0b 18 3b
       -0.25782767 0.12446549 0.11093437 0.0023200137
000210 6c 26 8a be c6 ff 47 3c c3 e3 6b bc 6b 22 f5 bc
       -0.2698244 0.012206977 -0.014397564 -0.029923638
000220 d9 ae f0 3c f1 2d 82 bd 4a a3 e6 bc a2 57 77 3d
       0.029380249 -0.06356419 -0.028154034 0.060386308
000230 4f ea fd 3c d5 89 78 3e 13 f7 62 be fa 74 3d 3d
       0.030995516 0.24271329 -0.22164564 0.046254136
000240 8a b9 f1 bd a2 db 14 be 8c 6b 9d 3d 3b b9 39 be
       -0.11802967 -0.14536908 0.076865286 -0.18137066
000250 9b 88 ad be 77 2f 16 be b2 23 b1 3e 17 75 0c be
       -0.33893284 -0.14666544 0.34597546 -0.13716541
000260 90 7c 61 3d a0 8e 62 be 83 8e 83 bd de 50 08 3e
       0.055050433 -0.2212472 -0.06423666 0.13312098
000270 b6 b6 fb bd a8 1e 1c 3e 46 90 8d bd 50 e5 b8 3c
       -0.12290709 0.1524607 -0.069122836 0.022570282
000280 fc 01 a4 bc 9f 7d 9d be fd d5 f1 bd 84 43 ff bd
       -0.020020477 -0.30759904 -0.11808393 -0.124640495
000290 cf 67 58 be ba 17 95 bd 82 5d 51 3e 31 2a a0 bd
       -0.2113335 -0.07279916 0.20445827 -0.07820547
0002a0 17 97 3d bc f2 91 cc bd 43 c9 c1 3e 71 e6 0d 3e
       -0.011571667 -0.09988774 0.37848863 0.13857438
0002b0 ae e5 1f bf f4 da 7c be ea 1c 00 3e 90 d3 26 3d
       -0.6245984 -0.24692899 0.1251103 0.040729105
0002c0 37 3c 35 3e 02 fd 83 be 3c 2e 8c 3d 6b 63 ef bc
       0.17698751 -0.25778967 0.06844756 -0.02922221
0002d0 42 8a ac be 6a f5 f1 3d 30 f1 8f bd 65 5f fb bd
       -0.33699232 0.11814387 -0.07028425 -0.122740544
0002e0 da 14 0a be 3e 95 17 3e 33 d6 a7 3e 17 fc 1e 3e
       -0.13484517 0.14803025 0.3278061 0.15525852
0002f0 f7 b7 d4 bd 19 06 a4 bd d0 e6 43 3e 2d 18 12 3e
       -0.10386651 -0.080089755 0.19131017 0.14267035
000300 0e 26 84 bd 47 07 e3 bc 8b c5 27 be 90 15 eb bd
       -0.06452571 -0.027713431 -0.1638395 -0.11478722
000310 08 a5 e0 3d 44 3b 38 3d 77 37 b4 bd 3b 76 0f be
       0.10968977 0.044978395 -0.087996416 -0.14009945
000320 d2 ec be 3c 57 f9 cc bd be 3a 97 be 0f 59 23 3e
       0.023306284 -0.10008495 -0.29537004 0.15951942
000330 ac f1 5c 3d 2e bd dc bd b0 65 b0 be 0a 32 85 be
       0.053941414 -0.10778271 -0.3445258 -0.2601474
000340 51 85 3e 3d f7 7c 5d bd 4a 50 11 3d fd ae f3 bd
       0.04651386 -0.054074254 0.03547696 -0.11898611
000350 8e d5 5c 3d e4 ce 6b bd b8 de b2 3e 6c dd 46 3e
       0.0539146 -0.057570353 0.34935546 0.19420403
000360 78 6b 38 be c3 52 3b ba 8e f3 17 3b 0a 75 11 be
       -0.18009746 -0.00071458163 0.0023185941 -0.14204803
000370 15 44 37 3e c9 0e e8 3d e6 ba c6 3d 60 b6 83 3d
       0.17897065 0.11330945 0.09703617 0.0643127
000380 f6 2c 8b 3d 51 2e 82 3e ea d8 97 be 74 40 25 3d
       0.06795685 0.25425962 -0.2965768 0.04034467
000390 0e 33 7e 3e ae 7f fb bd aa 40 24 3d 16 fa 87 be
       0.24824163 -0.12280212 0.04010073 -0.26557988
0003a0 bb 71 f9 bd 01 dd 0c ba 0e 15 bf be 97 b5 96 3d
       -0.121798955 -0.00053735083 -0.3732075 0.07358854
0003b0 46 4f 0e be 74 ee 12 3d bd 09 97 be 23 20 34 be
       -0.13897428 0.035871938 -0.29499617 -0.17590384
0003c0 b2 e8 03 be 5c 5d 1b be 3f 5b 96 bd 4d c8 ee 3e
       -0.12881735 -0.15172333 -0.073416226 0.46637192
0003d0 9d 4d 62 be ac 2d aa bd c2 7e ff bd fa de 8a 3e
       -0.2209992 -0.083094925 -0.12475349 0.27123243
0003e0 c3 54 0f be e0 a5 61 bd db 67 21 bd 0f 42 9c be
       -0.13997178 -0.05508983 -0.039405685 -0.3051915
0003f0 f2 5f 9e be b0 dd 9f 3e dc 54 b8 3d 3b be 15 3e
       -0.30932575 0.31223822 0.09000561 0.14623348
