actor.pth (torch_old, 206552 bytes, 12 tensors)

fc1.weight f4 [256, 33]
0	0xbd2f0422	-0.04272855
1	0x3e02a9c6	0.12760076
2	0x3d32d9d8	0.043664783
3	0xbacbb408	-0.0015541324
4	0xbcdf3871	-0.027248593
5	0xbd917130	-0.07101667
6	0xbd647c37	-0.055782523
7	0x3cd67792	0.026180062
8	0xbda228e4	-0.079179555
9	0x3baa36eb	0.005194535
10	0xbd3d0864	-0.04615058
11	0x3cb8d997	0.022564692
12	0x3dd46bf8	0.10372156
13	0x3d2d4cd5	0.0423096
14	0xbbc7cb5f	-0.006097242
15	0x3d50849f	0.050907727
16	0xbab6205c	-0.0013895142
17	0xbd2748bf	-0.04084086
18	0xbcf24952	-0.029575977
19	0xbd52bd00	-0.051449776
20	0xbccf8ded	-0.02533623
21	0x3d02ab33	0.03190155
22	0x3b6af5c1	0.0035852047
23	0xbc991149	-0.018685
24	0x3d9f4b76	0.07778065
25	0x3dcce38f	0.10004341
26	0xbd4e7a06	-0.05040934
27	0xbd297900	-0.04137516
28	0x3dd15fd7	0.10223358
29	0xbb574720	-0.003284879
30	0x3d36351e	0.04448425
31	0xbd5a7a74	-0.053339437
32	0xbd50c00b	-0.050964396
33	0xbd5e9195	-0.054338057
34	0xbad7f21c	-0.0016475352
35	0x3bcd2a44	0.006261142
36	0xbb1eeae8	-0.0024248902
37	0x3d0ea2b5	0.03482314
38	0xbdd103d3	-0.102058075
39	0x3c602c12	0.013682382
40	0xbcb6279a	-0.02223568
41	0xbc47bf8e	-0.012191666
42	0x39c7e1a3	0.0003812435
43	0xbaa32132	-0.0012445806
44	0x3a996b8f	0.0011705029
45	0x3cec1916	0.028820556
46	0x3c1ccd1a	0.009570384
47	0xbd4e83af	-0.050418552
48	0x3c050950	0.008119896
49	0xbd88b120	-0.06674409
50	0x3b822d9c	0.003972722
51	0x3da2959b	0.07938691
52	0xbcfda23e	-0.030961152
53	0x3a1ed282	0.000605859
54	0xbc01516f	-0.00789295
55	0xbaf5ab56	-0.0018743079
56	0x3bf81ea9	0.0075720144
57	0xbd027c2a	-0.031856693
58	0xbcb23867	-0.02175541
59	0xbd9e46b3	-0.077283286
60	0xbb22493a	-0.0024762885
61	0x3c6b8908	0.0143759325
62	0x3d6d5746	0.05794456
63	0xbb037c46	-0.0020063086
64	0xbc9280a8	-0.017883614
65	0x3f084e88	0.5324483
66	0x3dbac3f4	0.09119406
67	0x3d66956c	0.056294844
68	0xbd218a28	-0.039438397
69	0xbc5ea241	-0.013588489
70	0xbcda1f48	-0.026626244
71	0x3bd08a55	0.0063641467
72	0xbd5e6c9c	-0.054302797
73	0x3c12b06c	0.008953195
74	0x3d02685a	0.0318378
75	0x3d9edd49	0.077570505
76	0xbd136ed5	-0.03599437
77	0x3b2524ef	0.0025199016
78	0x3cc317a9	0.023814993
79	0xbe134c9b	-0.14384691
80	0x3c64c2ce	0.013962461
81	0x3d59d27a	0.05317924
82	0x3d3d2554	0.046178177
83	0xbd0da0a1	-0.034577016
84	0xbcac30f1	-0.02101943
85	0xbd9fd58d	-0.078044035
86	0x3c942ac1	0.018086793
87	0x3d4afe65	0.049559016
88	0xbb69660d	-0.0035613806
89	0xbdb4a6de	-0.0882089
90	0xbd8e5a83	-0.069508575
91	0x3d1ddf1d	0.038542856
92	0xbc13244e	-0.008980824
93	0xbcd89f5d	-0.026443178
94	0x3d726bc4	0.059184805
95	0xbd47f07a	-0.04881332
96	0xbd035e46	-0.032072328
97	0x3d01b07c	0.03166245
98	0xbcc79885	-0.02436472
99	0xbd678320	-0.056521535
100	0x3d9ee986	0.07759385
101	0x3c7806df	0.015138357
102	0xbde1308a	-0.10995586
103	0x3dca8ebb	0.09890505
104	0x3dbc599d	0.0919678
105	0x3d23cde2	0.039991267
106	0xbb682b92	-0.003542636
107	0x3d7e5c0e	0.06209951
108	0xbde85853	-0.113449715
109	0xbd9ca7f0	-0.07649219
110	0x3d837d9d	0.06420443
111	0x3d4ec990	0.050485194
112	0xbcad5e15	-0.021163026
113	0x3d08fc19	0.033443544
114	0x3d22051b	0.03955565
115	0xbde237ea	-0.11045821
116	0xbd857b6a	-0.0651768
117	0x3da8088d	0.08204756
118	0x3d870169	0.06592066
119	0x3ca85220	0.020546973
120	0x3d2f4e1b	0.042799097
121	0x3cb998dd	0.022655899
122	0xbd712eb4	-0.05888243
123	0x3d81015f	0.0629909
124	0x3dd3f47b	0.10349365
125	0xbdc9d7be	-0.09855603
126	0x3d171f39	0.03689501
127	0xbc1bc01c	-0.009506252
128	0x3c5a4808	0.013322838
129	0x3cbbbaa5	0.022916147
130	0xbcdfcb64	-0.027318664
131	0x3d8be3c8	0.06830555
132	0xbcfa042e	-0.030519571
133	0x3e0af416	0.13569674
134	0xbcecc940	-0.028904557
135	0x3d25b176	0.040452443
136	0xbdf2dc69	-0.11858446
137	0xbce3a8f2	-0.02779052
138	0x3d0fcb6f	0.03510612
139	0x3c3f831e	0.011688976
140	0xbbc4d8e5	-0.006007301
141	0xbd7a3ea5	-0.0610949
142	0xbd9df9bb	-0.07713648
143	0x3d331810	0.04372412
144	0xbda27e09	-0.079341955
145	0x3dc345ac	0.09534773
146	0xbbe8c769	-0.0071038497
147	0xbcc1467f	-0.023593185
148	0x3b2a1506	0.0025952472
149	0xbcd5eed1	-0.026114853
150	0x3c1bbb2c	0.0095050745
151	0x3cdce287	0.026963485
152	0xbdd9e420	-0.106392145
153	0x3da2d0c6	0.079499766
154	0xbdc30ac3	-0.09523537
155	0x3cd7c8bf	0.02634084
156	0xbcfcac83	-0.030843979
157	0xbdda8bc2	-0.10671188
158	0xbc9b89d3	-0.018986618
159	0xbd39b7b9	-0.045341227
160	0x3bd61d0f	0.006534226
161	0xbd216208	-0.03940013
162	0x3c8e3a26	0.017361712
163	0x3d56d17a	0.052445866
164	0x3ca76c2b	0.02043732
165	0xbbc65188	-0.0060521998
166	0x3d9a22df	0.075261824
167	0xbda0e004	-0.078552276
168	0xbd01e031	-0.031707946
169	0xbbfd3446	-0.0077271787
170	0xbba9f0a1	-0.005186156
171	0xbce3a870	-0.027790278
172	0x3cc4980e	0.023998287
173	0x3d87bf6b	0.06628307
174	0x3cc46fd9	0.023979114
175	0x3cdea8b9	0.027180063
176	0x3c65c024	0.014022861
177	0x3abef553	0.0014568962
178	0x3d580e68	0.052748114
179	0xbd1b3b47	-0.03789833
180	0x3c5aef65	0.01336274
181	0x394543eb	0.00018812685
182	0xbd01ec20	-0.031719327
183	0xbcb36330	-0.021897882
184	0x3d179bcd	0.037013818
185	0xbc989b3b	-0.018628707
186	0xbcc95fec	-0.024581872
187	0xbc82b0f1	-0.015953513
188	0x3b94b24e	0.004537857
189	0xbd117d14	-0.035519674
190	0x3d1f2823	0.038856637
191	0xbd7bc223	-0.06146444
192	0xbd7db691	-0.061941687
193	0xbc65ba3d	-0.014021453
194	0x3d3210c4	0.04347302
195	0x3d54d629	0.05196205
196	0xbd4d8f12	-0.05018527
197	0x3efe3082	0.49646384
198	0xbce9c88e	-0.028538015
199	0x3d79d6d0	0.060995877
200	0x3d91b57d	0.07114694
201	0x3b524f82	0.0032090847
202	0xbd172812	-0.03690345
203	0x3d80f71b	0.06297132
204	0x3c9e5c34	0.019331075
205	0x3c68c990	0.0142082125
206	0x3e39fc3f	0.1816263
207	0x3e07f981	0.13278772
208	0xbdcca115	-0.099916615
209	0x3dcc60de	0.099794134
210	0x3c56be42	0.013106884
211	0xbdc77995	-0.09739987
212	0x3d10211a	0.035187818
213	0xbcbbdad5	-0.022931496
214	0x3c33f39e	0.010983376
215	0x3b3d3e6d	0.002887632
216	0x3c66967a	0.014073962
217	0xbd920dfd	-0.07131574
218	0x3c9c822e	0.019105043
219	0x3dbdef38	0.09274143
220	0xbdb06c75	-0.086144365
221	0xbcac756d	-0.021052087
222	0xbc1fe716	-0.009759685
223	0xbd79bd2f	-0.060971435
224	0xbd0e6e13	-0.034772944
225	0xbd2b4f87	-0.04182389
226	0x3c249066	0.010044193
227	0x3c926ef8	0.01787518
228	0xbd662d27	-0.056195404
229	0x3cf92cb4	0.030416824
230	0x3dfc5a01	0.123218544
231	0xbdaf1f03	-0.08550837
232	0xbda25ec4	-0.07928231
233	0xbe0c349f	-0.13691948
234	0xbd5693bb	-0.05238698
235	0x3dc83cd4	0.09777227
236	0x3ccfa974	0.025349356
237	0xbd9c624b	-0.076359354
238	0x3ca34a7e	0.019932982
239	0xbd3319d7	-0.043725815
240	0xbce00060	-0.027343929
241	0x3dd76cf9	0.10518832
242	0x3d4a0631	0.04932231
243	0xbde991bb	-0.11404749
244	0xbd9d95b5	-0.0769457
245	0xbc05fa9e	-0.008177428
246	0xbcdb3b13	-0.026761567
247	0x3c8c71f4	0.01714418
248	0xbc16b2f2	-0.009197937
249	0x3d000889	0.03125814
250	0xbcb564b1	-0.02214274
251	0xbca6bc35	-0.020353416
252	0x3ca3e1d1	0.020005139
253	0xbdebc04f	-0.11511289
254	0xbd43e379	-0.047824357
255	0xb999d4d2	-0.00029340998

fc1.bias f4 [256]
0	0xbda11d0f	-0.078668706
1	0xbe037ff8	-0.12841785
2	0x3e3214a8	0.17390692
3	0xbd05551b	-0.032551866
4	0x3d0f130a	0.034930266
5	0xbc99bb0b	-0.018765947
6	0x3dd51efe	0.10406302
7	0x3c0aa042	0.00846106
8	0xbd6f3b7c	-0.058406338
9	0x3e23bdbf	0.15990351
10	0xbd44d3d6	-0.048053585
11	0xbe2eef24	-0.17083412
12	0x3dbafcf2	0.09130277
13	0xbce0d678	-0.027446017
14	0x3c3908ba	0.0112935845
15	0xbd38ac04	-0.045085922
16	0xbc86c280	-0.016450167
17	0xba3d80f5	-0.0007228994
18	0xbdf34c79	-0.118798204
19	0x3c3851f2	0.011250006
20	0x3d3b2354	0.04568799
21	0x3e2939de	0.16525981
22	0x3df8b6bc	0.12144229
23	0x3d6d065b	0.05786739
24	0xbdbd20d4	-0.09234777
25	0x3d23c2cc	0.039980695
26	0xbe21c52e	-0.15797874
27	0x3e0eb129	0.13934769
28	0x3d75a2ba	0.05996964
29	0xbe1dd433	-0.15412979
30	0x3e045164	0.12921673
31	0x3ce67b95	0.0281351
32	0x3dc9c0a0	0.098511934
33	0x3e19b0ae	0.15008804
34	0xbcc82cbf	-0.0244354
35	0x3d67c7cb	0.05658702
36	0x3e083e42	0.13305
37	0xbcd37a48	-0.025815144
38	0xbe0426d9	-0.12905444
39	0xbdbcde66	-0.09222107
40	0x3b2c20e9	0.0026264733
41	0x3d57df61	0.052703265
42	0xbdbb8b92	-0.0915748
43	0xbda689c6	-0.08131747
44	0xbe2c1cb7	-0.16807829
45	0xbd5dae84	-0.05412151
46	0xbd179768	-0.037009627
47	0x3dc23107	0.094820075
48	0xbc83eb26	-0.016103338
49	0x3de5c4a7	0.11219149
50	0xbd4b0986	-0.04956963
51	0xbcf3472a	-0.02969702
52	0xbe1c7c82	-0.15281871
53	0x3e1fcc00	0.15605164
54	0xbd1516bb	-0.03639863
55	0x3cdc5053	0.02689377
56	0x3e1b0315	0.15137894
57	0x3d38a0b9	0.045075152
58	0xbce1a250	-0.027543217
59	0xbe0edb65	-0.1395088
60	0xbc16f454	-0.009213526
61	0x3e09b9a8	0.13449728
62	0x3cb6dc2f	0.022321789
63	0x3dd37deb	0.10326751
64	0x3b2d9de1	0.0026491808
65	0xbe13767f	-0.14400671
66	0xbdca1884	-0.09867957
67	0xbde7ac95	-0.11312214
68	0x3dddbb9d	0.108268
69	0xbdf9146d	-0.12162099
70	0x3dff43ab	0.124640785
71	0xbc5c99b4	-0.01346438
72	0x3d67f330	0.056628406
73	0x3e25ea64	0.16202694
74	0x3d7eb3ca	0.06218318
75	0xbdfa7953	-0.12230172
76	0x3e2432d0	0.16035008
77	0xbdd25bc8	-0.10271412
78	0xbd6fa0b6	-0.058502875
79	0xbb402745	-0.0029320281
80	0xbc1a965b	-0.009435262
81	0x3d790553	0.060796093
82	0x3d89fbb8	0.06737465
83	0x3df772e9	0.12082464
84	0xbac03ee0	-0.0014667176
85	0x3e18def9	0.14928807
86	0xbe0d56df	-0.1380267
87	0x3e0d7fb9	0.13818254
88	0xbd9713ff	-0.07376861
89	0xbe2d2bae	-0.16911194
90	0xbdb0c330	-0.08630979
91	0x3a01ff35	0.0004958988
92	0x3da1bf61	0.07897831
93	0x3e037088	0.12835896
94	0x3cfc92be	0.03083169
95	0x3dc5a17c	0.09649941
96	0x3e272d32	0.16325834
97	0xbdfab6f1	-0.122419246
98	0xbda465b9	-0.080272146
99	0xbe0eef52	-0.13958481
100	0xbdd9df41	-0.106382854
101	0xbdb0776e	-0.086165294
102	0xbd5417c2	-0.05178047
103	0xbbd7c9c1	-0.0065853302
104	0xbe305b62	-0.1722236
105	0xbe003435	-0.12519915
106	0xbc8e9c90	-0.01740864
107	0x3e158762	0.14602426
108	0x3de27ba9	0.110587426
109	0xbe24e5c1	-0.16103269
110	0xbb9e852a	-0.0048376517
111	0xbd186cdf	-0.037213203
112	0xbe29246f	-0.16517805
113	0xbdeeb876	-0.11656277
114	0xbcf613f1	-0.030038806
115	0xbd8a6b8c	-0.06758794
116	0x3e05fad1	0.1308396
117	0x3d854d07	0.065088324
118	0xbd8ef4f1	-0.069803126
119	0x3d7ddcc4	0.061978117
120	0x3c0ab158	0.008465134
121	0x3e04ba20	0.12961626
122	0x3cad73b6	0.02117334
123	0xbda995bc	-0.08280513
124	0xba988dc4	-0.0011638929
125	0xbd64d89c	-0.055870637
126	0xbe1568da	-0.14590779
127	0x3de62525	0.112375535
128	0xbd6e3771	-0.05815834
129	0x3e0bf248	0.13666642
130	0x3de3fb72	0.11131944
131	0xbdd5cda6	-0.10439615
132	0xbdb459bd	-0.08806179
133	0xbcda7528	-0.026667193
134	0x3db2058c	0.08692464
135	0x3da5b9dc	0.080920905
136	0xbd3adb42	-0.045619257
137	0x3c69413f	0.014236747
138	0xbc94da98	-0.01817064
139	0xbd73c640	-0.059515238
140	0xbe083307	-0.13300715
141	0x3ce4f34d	0.027948046
142	0xbdd99a2c	-0.10625109
143	0xbc3db587	-0.011578924
144	0xbe12e09d	-0.14343496
145	0xbdf0d1a9	-0.117587395
146	0x3d92f766	0.07176094
147	0x3cd1cbc5	0.02560986
148	0x3c3b0f7e	0.011417268
149	0x3d56a3fb	0.052402478
150	0xbe195c38	-0.14976585
151	0x3d9d8013	0.07690444
152	0xbd60c1ec	-0.05487244
153	0x3c9a140e	0.018808391
154	0xbe1f1e78	-0.15538967
155	0x3e21f2d5	0.1581529
156	0xbe036313	-0.12830763
157	0x3e1299a7	0.14316426
158	0xbc1f3fb9	-0.0097197825
159	0x3d3c2501	0.045933727
160	0x3e0adb59	0.13560237
161	0x3e0a3c4e	0.13499567
162	0x3d0c5416	0.034259878
163	0xbdc1ef44	-0.094694644
164	0xbdf071d0	-0.11740458
165	0x3e0e051b	0.13869135
166	0xbe02c7be	-0.12771508
167	0xbe187a0d	-0.14890309
168	0x3e03fae0	0.1288867
169	0x3e27d578	0.16390026
170	0xbbad12f3	-0.0052818
171	0x3e1faed1	0.15594031
172	0x3dc8471d	0.09779189
173	0xbde2655c	-0.11054489
174	0xbd6e9037	-0.058243003
175	0x3d975847	0.073898844
176	0x3c0b6922	0.008508952
177	0xbdd70d13	-0.105005406
178	0x3e2f7916	0.17136034
179	0xbe3148a1	-0.17312862
180	0xbcdf5137	-0.027260406
181	0x3e27ef13	0.16399793
182	0xbdb328f0	-0.087480426
183	0xbe31cb22	-0.17362645
184	0xbc4b6556	-0.012414297
185	0xbcc0c334	-0.02353058
186	0xbe21b812	-0.15792874
187	0x3de20f31	0.11038054
188	0x3dfda488	0.123848975
189	0x3e13e34c	0.14442176
190	0x3d016ae0	0.031596065
191	0x3d87dbf2	0.06633748
192	0xbdbe57b1	-0.092940696
193	0x3da50ded	0.08059297
194	0x3da4cf66	0.080473706
195	0xbba7393b	-0.005103258
196	0x3d6400ca	0.055664815
197	0x3d39875b	0.0452951
198	0xbe2639f1	-0.1623304
199	0xbe2db330	-0.16962886
200	0x3db8a667	0.09016114
201	0x3c8a57fc	0.016887657
202	0xbb828d32	-0.003984117
203	0x3d942f40	0.07235575
204	0x3e05733e	0.13032243
205	0xbddab5f0	-0.10679233
206	0xbd8fce4a	-0.070217684
207	0xbd2e530a	-0.04255966
208	0xbd345525	-0.044026513
209	0x3c620c53	0.013796884
210	0xbdb70833	-0.08937111
211	0xbd9feef3	-0.07809248
212	0x3e128603	0.14308934
213	0xbd06f1ac	-0.03294532
214	0xbdbabf0d	-0.09118471
215	0x3cc179e8	0.0236177
216	0x3e23d132	0.1599777
217	0xbd33b281	-0.043871406
218	0x3e03d7db	0.12875311
219	0x3c0abc4a	0.008467743
220	0x3c5f60b1	0.013633893
221	0x3dc5c767	0.096571736
222	0x3dd16106	0.10223584
223	0xbd80933c	-0.06278083
224	0x3d86db2d	0.06584773
225	0x3e10c5ba	0.14137927
226	0x3e03ca63	0.12870173
227	0xbcde3e35	-0.027129272
228	0xbd80e9ce	-0.06294595
229	0x3ad8c79c	0.001653898
230	0xbd71279a	-0.058875658
231	0x3c073abb	0.0082537485
232	0xbdbd2c69	-0.09236986
233	0x3d3a1822	0.04543317
234	0x3c8b51b1	0.017006727
235	0xbd89a7c3	-0.06721451
236	0x3dff1355	0.12454859
237	0x3da48b4d	0.08034382
238	0x3d88b8e7	0.06675892
239	0xbdf8b65d	-0.12144158
240	0xbdf66f7a	-0.12032981
241	0xbdbdf2ae	-0.09274803
242	0x3d909bd5	0.070609726
243	0x3d96fda5	0.073725976
244	0xbdbb4b7b	-0.09145256
245	0xbc83fe51	-0.016112478
246	0x3de91e69	0.113827534
247	0xbd4fccd5	-0.050732452
248	0x3d216c92	0.03941018
249	0x3e0cb7cd	0.1374199
250	0xbe2c631f	-0.16834687
251	0xbe13ab69	-0.14420857
252	0xbe1976b8	-0.14986694
253	0x3e266b8b	0.16251962
254	0x3de28c8d	0.11061964
255	0xbd5c7f25	-0.053832192

bn1.weight f4 [256]
0	0x3f972dfc	1.1810908
1	0x3fa8b0f1	1.3178998
2	0x3f94e127	1.1631211
3	0x3f8f04b8	1.1173315
4	0x3f84c68b	1.037309
5	0x3fae26f3	1.3605636
6	0x3f8f52cd	1.1197144
7	0x3f866593	1.0499748
8	0x3f84f4fe	1.0387266
9	0x3f8bc357	1.0918988
10	0x3f91378a	1.1345074
11	0x3f935115	1.1509119
12	0x3f9a41c8	1.2051325
13	0x3f86dfd8	1.0537062
14	0x3f8487f8	1.0353994
15	0x3f82b29c	1.0210757
16	0x3f93c0bf	1.1543196
17	0x3f9276e8	1.1442537
18	0x3f95680a	1.1672375
19	0x3f8e341a	1.110965
20	0x3f8654f8	1.049468
21	0x3f91d149	1.1391994
22	0x3f9620c2	1.1728747
23	0x3f8fa42c	1.1221976
24	0x3fba59ce	1.4558656
25	0x3f9211b4	1.1411653
26	0x3f8e73fe	1.1129148
27	0x3f8b2abe	1.0872419
28	0x3f89eb8d	1.0775009
29	0x3f980430	1.1876278
30	0x3f899bdd	1.0750691
31	0x3f934206	1.1504524
32	0x3f90d69d	1.1315495
33	0x3fa51f6d	1.2900215
34	0x3f88e191	1.0693837
35	0x3f8a72ec	1.0816321
36	0x3f8e946a	1.1139042
37	0x3f939023	1.1528362
38	0x3f8d0772	1.1017897
39	0x3f8df5a2	1.1090586
40	0x3f8b3955	1.0876871
41	0x3f975e16	1.1825588
42	0x3f8b2454	1.0870461
43	0x3f8ce6e0	1.1007957
44	0x3f985e91	1.1903859
45	0x3f903f42	1.1269305
46	0x3f91473a	1.1349862
47	0x3f9ca521	1.2237893
48	0x3f95d36c	1.1705146
49	0x3f9b7add	1.214687
50	0x3f8e589f	1.1120795
51	0x3f8e145b	1.1099962
52	0x3f863abe	1.0486677
53	0x3f86f51a	1.0543549
54	0x3f8f04d9	1.1173354
55	0x3f9ab8d8	1.208766
56	0x3f95a3bc	1.1690593
57	0x3f8a0b52	1.0784705
58	0x3f917cf4	1.1366258
59	0x3f973304	1.1812444
60	0x3f99e30c	1.2022414
61	0x3f973120	1.1811867
62	0x3f9db0ea	1.2319615
63	0x3f82f8ce	1.0232179
64	0x3f833d42	1.0253069
65	0x3f9f859e	1.2462652
66	0x3f829449	1.0201503
67	0x3f87fe7f	1.0624541
68	0x3f86ac7e	1.052139
69	0x3f8d068f	1.1017627
70	0x3f844aa4	1.0335279
71	0x3f8c79fb	1.0974725
72	0x3f8507cb	1.0393003
73	0x3fbd3916	1.4783046
74	0x3f91193a	1.1335824
75	0x3fa046b6	1.2521579
76	0x3f8b0b24	1.0862775
77	0x3f9496bf	1.1608504
78	0x3f8f5c31	1.120001
79	0x3f960765	1.1721007
80	0x3f951093	1.1645683
81	0x3f998c00	1.199585
82	0x3f8bfff6	1.0937488
83	0x3f8a3537	1.079749
84	0x3f8c13fa	1.0943596
85	0x3f8a59a0	1.0808601
86	0x3f91df75	1.1396319
87	0x3f8fe427	1.1241502
88	0x3f91da42	1.1394732
89	0x3f9dfa44	1.2342
90	0x3f8b9097	1.09035
91	0x3f8880b2	1.0664275
92	0x3f99149e	1.1959417
93	0x3f95fcd6	1.1717784
94	0x3f973645	1.1813437
95	0x3f8faee4	1.1225247
96	0x3f9592bc	1.1685405
97	0x3f87d9a5	1.0613295
98	0x3f8dd56b	1.1080755
99	0x3f8cb232	1.0991881
100	0x3f8a5307	1.0806588
101	0x3f935f91	1.151354
102	0x3f9a4cbe	1.205467
103	0x3f8f0ba2	1.1175425
104	0x3f944e03	1.1586307
105	0x3f868109	1.0508128
106	0x3f8d7c66	1.1053588
107	0x3f91cfa3	1.1391491
108	0x3f9eccf3	1.2406296
109	0x3f8e1642	1.1100543
110	0x3f8b0313	1.0860313
111	0x3f8c2c32	1.0950987
112	0x3f8e33b2	1.1109526
113	0x3f86cab0	1.0530605
114	0x3f9ab7a1	1.2087289
115	0x3f9b8e33	1.2152771
116	0x3f9a1599	1.2037841
117	0x3f9936b4	1.1969819
118	0x3f95df4a	1.1708767
119	0x3f93abf5	1.1536852
120	0x3f8f2b5f	1.1185111
121	0x3f978a7d	1.1839138
122	0x3f92b949	1.1462795
123	0x3f9af01f	1.2104529
124	0x3f950e58	1.1645002
125	0x3f90ec45	1.1322104
126	0x3f85ad96	1.0443599
127	0x3f942a6c	1.1575446
128	0x3f9d249a	1.2276795
129	0x3fa3fe91	1.2812063
130	0x3f959ebc	1.1689067
131	0x3f9f5018	1.2446318
132	0x3f968ade	1.1761129
133	0x3f8f843e	1.1212232
134	0x3f9092e1	1.1294824
135	0x3f91a46a	1.13783
136	0x3f9669e6	1.1751068
137	0x3f8fb966	1.1228454
138	0x3f90a345	1.1299826
139	0x3f8fe7ec	1.1242652
140	0x3f8d9985	1.1062475
141	0x3f961668	1.1725588
142	0x3fab7c00	1.3397217
143	0x3f989169	1.1919376
144	0x3f91087b	1.1330713
145	0x3f8d2408	1.1026621
146	0x3f88a48e	1.0675218
147	0x3f8a3250	1.0796604
148	0x3f8e4598	1.1114988
149	0x3f830d6f	1.0238475
150	0x3f8f0d62	1.1175959
151	0x3f849677	1.0358418
152	0x3f879124	1.0591168
153	0x3f859783	1.0436863
154	0x3f97ac05	1.1849371
155	0x3f8e4ab1	1.1116544
156	0x3f8adbac	1.0848289
157	0x3f8a4efc	1.0805354
158	0x3f8a7686	1.081742
159	0x3f87160f	1.0553607
160	0x3f805d8e	1.0028551
161	0x3f95f5ea	1.1715672
162	0x3f8c5e55	1.0966288
163	0x3f8ae6b5	1.0851656
164	0x3fa64391	1.298937
165	0x3f8ff039	1.1245185
166	0x3f9f93df	1.2467002
167	0x3f90b6ee	1.1305826
168	0x3f9b400b	1.2128919
169	0x3f93f873	1.1560196
170	0x3fa4f381	1.2886811
171	0x3f8e79d1	1.1130925
172	0x3f948174	1.1602006
173	0x3f89dec0	1.0771103
174	0x3f8f6b61	1.1204644
175	0x3f98fe05	1.1952521
176	0x3f8c0add	1.0940815
177	0x3f9514e3	1.1646999
178	0x3f95e750	1.1711216
179	0x3f81faae	1.0154626
180	0x3f93e5a9	1.1554462
181	0x3f90c4ab	1.1310018
182	0x3f8d6d36	1.1048954
183	0x3f8b9329	1.0904285
184	0x3f8a35df	1.079769
185	0x3f8fe6e4	1.1242337
186	0x3f94eca5	1.1634718
187	0x3f8870c9	1.0659419
188	0x3f8fee71	1.1244642
189	0x3f8fba4a	1.1228726
190	0x3f97ee35	1.186957
191	0x3f887422	1.0660441
192	0x3f852620	1.040226
193	0x3f9656be	1.1745222
194	0x3f906df9	1.1283561
195	0x3f8f8c96	1.1214778
196	0x3f8218ae	1.0163782
197	0x3f8b672d	1.0890862
198	0x3fa6514c	1.299356
199	0x3f839172	1.0278761
200	0x3f9b0bf4	1.2113023
201	0x3f98101e	1.1879919
202	0x3f8daff6	1.1069324
203	0x3f8b642f	1.0889949
204	0x3f8b534a	1.0884793
205	0x3f902d67	1.1263856
206	0x3f9166b8	1.1359472
207	0x3f956702	1.167206
208	0x3f8e5dca	1.1122372
209	0x3fa15b1a	1.2605927
210	0x3fc4a1f5	1.5361925
211	0x3f90365c	1.1266589
212	0x3f8c4016	1.0957057
213	0x3f8f7cf4	1.1210008
214	0x3f87c56b	1.0607122
215	0x3f8b2374	1.0870194
216	0x3f9267d3	1.1437935
217	0x3f8d524b	1.1040739
218	0x3f99b42a	1.2008107
219	0x3fa146a3	1.2599682
220	0x3f8d0c6d	1.1019417
221	0x3f90fd1b	1.1327242
222	0x3f93ab6c	1.1536689
223	0x3f8ecb0f	1.1155719
224	0x3f935166	1.1509216
225	0x3f8f9399	1.1216918
226	0x3f86b520	1.0524025
227	0x3f910bd2	1.1331732
228	0x3f833395	1.0250117
229	0x3f993042	1.1967852
230	0x3f98b2eb	1.1929601
231	0x3f925447	1.143197
232	0x3f8eddfb	1.1161493
233	0x3f8def71	1.1088697
234	0x3f91930e	1.1373003
235	0x3f925b12	1.1434042
236	0x3f8c370d	1.09543
237	0x3f89d444	1.0767903
238	0x3f978ebe	1.1840436
239	0x3f857ae9	1.0428134
240	0x3f980936	1.1877811
241	0x3f95517c	1.1665492
242	0x3f958ef4	1.1684251
243	0x3f8dc074	1.1074357
244	0x3f986d50	1.190836
245	0x3f8ad9bd	1.0847698
246	0x3f8e0a78	1.1096945
247	0x3f8689fa	1.0510857
248	0x3f91b410	1.1383076
249	0x3f9fb33d	1.2476574
250	0x3f823a98	1.0174131
251	0x3f92fdd4	1.1483712
252	0x3fa05347	1.2525414
253	0x3f927df1	1.1444684
254	0x3fa448db	1.2834734
255	0x3f9a2a4b	1.2044157

bn1.bias f4 [256]
0	0xbdfe5e29	-0.124203034
1	0xbec7cae0	-0.3902197
2	0xbd966915	-0.073442616
3	0xbeb55d8f	-0.35422942
4	0xbe2aff4e	-0.16698954
5	0xbdf21e3a	-0.118221715
6	0xbe4117d3	-0.18856744
7	0x3db9678d	0.09052954
8	0xbc1fef71	-0.009761677
9	0x3dc2a120	0.095033884
10	0xbda7d7c7	-0.08195453
11	0x3dd7605d	0.10516427
12	0xbca16d19	-0.019705342
13	0xbc259821	-0.010107071
14	0x3df055c9	0.11735112
15	0x3d28f227	0.04124656
16	0xbdb94f95	-0.09048382
17	0xbd2bf9cd	-0.041986275
18	0xbe203d1c	-0.15648311
19	0x3da8d5e9	0.08243925
20	0x3c7eaffd	0.015544889
21	0xbe089f85	-0.13342102
22	0x3ddb6b30	0.10713804
23	0xbe89cfe8	-0.26916432
24	0xbe5bca6b	-0.21463935
25	0xbde236c4	-0.11045602
26	0x3d17021b	0.036867242
27	0x3c1ecb8e	0.009692086
28	0x3df5665e	0.119824156
29	0xbda284ab	-0.07935461
30	0x3d29d33e	0.041461222
31	0x3dfcc45c	0.1234214
32	0x3db4e1c5	0.088321246
33	0xbe7c720b	-0.24652879
34	0x3d83ddfb	0.06438824
35	0xbe7faaa6	-0.24967441
36	0xbc363f01	-0.01112342
37	0xbd289181	-0.04115439
38	0xbe406411	-0.18788172
39	0xbd70967d	-0.058737267
40	0xbda9da6b	-0.08293613
41	0x3d0ae992	0.033914156
42	0xbd9a7053	-0.075409554
43	0xbd16f99f	-0.03685915
44	0xbe5af10b	-0.21381013
45	0xbe2a3f2c	-0.1662566
46	0x3d246be4	0.040141955
47	0xbe484837	-0.19558798
48	0x3c4e11ef	0.012577518
49	0xbe43d5c6	-0.19124517
50	0xbd653ddb	-0.055967193
51	0xbcbf8698	-0.023379609
52	0x3cb1030c	0.021607898
53	0x3d7c155a	0.0615438
54	0xbd8f904a	-0.07009943
55	0xbdf0d4b4	-0.1175932
56	0xbdf3e1b9	-0.119082876
57	0xbdefceac	-0.117093414
58	0xbe1c7806	-0.1528016
59	0xbe189431	-0.1490028
60	0xbcd72f69	-0.026267724
61	0xbe003359	-0.12519588
62	0x3db34164	0.08752707
63	0x3e154766	0.14578018
64	0x3c3c466e	0.011491401
65	0xbd9b5c52	-0.07585968
66	0xbdafdfe5	-0.08587626
67	0x3df420fc	0.11920354
68	0xbcd76c84	-0.026296861
69	0x3cdfa7a5	0.027301619
70	0x3b92e5f0	0.004482977
71	0x3c905e91	0.017623218
72	0x3da7dd50	0.08196509
73	0xbeb67b2b	-0.35640845
74	0xbea52222	-0.32252604
75	0x3d26215d	0.04055916
76	0xbcce5701	-0.025187971
77	0xbd4f4dbd	-0.050611246
78	0xbd5b9721	-0.053610925
79	0xbd358ab8	-0.044321746
80	0xbcce4c42	-0.025182847
81	0x3ceb78fb	0.028744211
82	0x3d6c6052	0.057709046
83	0x3d94fdb3	0.07274952
84	0xbe0cc747	-0.13747893
85	0xbd78814b	-0.06067018
86	0x3d931da5	0.071833886
87	0xbb240c3b	-0.0025031704
88	0xbd8b5023	-0.06802394
89	0xbe4ec486	-0.20192155
90	0x3c291560	0.010320038
91	0xbb996ccb	-0.0046821586
92	0x3cba71d5	0.022759357
93	0xbda53917	-0.0806753
94	0x3c0715bd	0.008244929
95	0xbd32fdd7	-0.04369911
96	0x3d82be18	0.06383914
97	0x3e27686d	0.16348429
98	0xbddb83b0	-0.10718477
99	0x3d02d44e	0.03194075
100	0xbea5685b	-0.3230618
101	0xbe6dd522	-0.23225835
102	0xbdc6da64	-0.097096235
103	0xbe429d6e	-0.19005367
104	0xbdaa3674	-0.08311167
105	0xbda8e8de	-0.08247541
106	0xbdb364a2	-0.087594286
107	0xbdbb685e	-0.09150766
108	0xbcadc8b5	-0.021213869
109	0x3e019970	0.12656188
110	0xbe3cafdd	-0.18426462
111	0xbd71a56e	-0.058995657
112	0xbbb6ec53	-0.0055823713
113	0x3d24a2d7	0.04019436
114	0xbcf5cc35	-0.0300046
115	0xbdfc26ff	-0.123121254
116	0xbdbaff84	-0.09130767
117	0xbdddd804	-0.10832217
118	0xbda9d5da	-0.08292742
119	0xbcf48f19	-0.02985339
120	0xbd8fa2bc	-0.07013461
121	0x3e12adc2	0.14324096
122	0x3b449fe7	0.0030002536
123	0x3d1fefae	0.039046936
124	0xbd6d0c60	-0.05787313
125	0xbde9dd39	-0.11419148
126	0x3d8cbba4	0.06871727
127	0xbdb2104e	-0.08694516
128	0xbeded3ab	-0.43520865
129	0xbe0e5703	-0.1390038
130	0x3b945b23	0.004527466
131	0xbd982aa3	-0.07430007
132	0xbdfe8427	-0.1242755
133	0xbc641511	-0.013921038
134	0xbdc3a07c	-0.09552094
135	0xbca27294	-0.019830026
136	0xbd769595	-0.060201246
137	0x3db65448	0.08902794
138	0x3c997688	0.018733278
139	0xbd1c3290	-0.038134158
140	0x3a2fb620	0.0006702859
141	0xbd487ded	-0.048948217
142	0xbdfff700	-0.124982834
143	0xbd17c912	-0.03705699
144	0xbdce3fd0	-0.10070765
145	0x3d06b082	0.032883175
146	0xbc8cfb12	-0.017209563
147	0xbdd837a2	-0.10557486
148	0xbd8bc742	-0.06825115
149	0x3cb50bef	0.022100417
150	0xbce70dde	-0.028204855
151	0xbd821159	-0.06350965
152	0xbd0829de	-0.033243053
153	0xbdc898ab	-0.09794744
154	0xbda4a432	-0.0803913
155	0x3d424fb9	0.04743931
156	0x3d09ef9e	0.033675782
157	0xbc58fab3	-0.013243365
158	0xbdbb1b4b	-0.09136065
159	0x3e27eb1d	0.16398282
160	0xbcdcce41	-0.026953818
161	0xbd5d2916	-0.05399426
162	0xbd6da030	-0.058014095
163	0xbdbec63b	-0.09315153
164	0xbaf57472	-0.001872672
165	0x3cc194b0	0.02363047
166	0xbe104966	-0.140905
167	0xbd92f034	-0.07174721
168	0xbe29af73	-0.16570835
169	0xbd8f1546	-0.069864795
170	0xbde71003	-0.11282351
171	0xbded06c9	-0.1157356
172	0x3c8a02e5	0.016847083
173	0xbdca45b6	-0.098765776
174	0x3bf599bc	0.007495133
175	0xbe2cc404	-0.16871649
176	0xbd072949	-0.032998357
177	0xbda675f4	-0.081279665
178	0xbc06e26b	-0.008232693
179	0x3e0d9213	0.13825254
180	0xbda6a20f	-0.08136379
181	0xbdab1cf9	-0.083551355
182	0xbc848133	-0.016174888
183	0xbdee2707	-0.116285376
184	0xbd501a1d	-0.050806154
185	0xbccc30a6	-0.024925541
186	0x3a686ca9	0.0008866289
187	0x3dc63ccf	0.09679567
188	0xbd92762f	-0.07151448
189	0x3d4afad8	0.04955563
190	0xbe64cc48	-0.22343552
191	0x3d1415e3	0.036153685
192	0x3d1dcfd7	0.03852829
193	0xbe8194a4	-0.25308716
194	0xbe10d676	-0.1414431
195	0xbc47d70d	-0.012197268
196	0xbcced134	-0.02524624
197	0xbe09d71a	-0.13460961
198	0xbe4d1b35	-0.2002991
199	0xbd878a47	-0.06618171
200	0xbe403458	-0.18769968
201	0xbde528b8	-0.11189407
202	0xbd259973	-0.040429544
203	0x3dfc7530	0.12327039
204	0x3c8dc20c	0.017304443
205	0x3c32ce33	0.01091342
206	0x3d993642	0.07481052
207	0xbd817c90	-0.063225865
208	0x3c444353	0.011978942
209	0xbe2f11ec	-0.1709668
210	0xbe1766cc	-0.14785308
211	0xbe07f410	-0.13276696
212	0xbd6debc6	-0.05808618
213	0xbd4d789e	-0.050163858
214	0xbdd023fb	-0.10163113
215	0x3da72278	0.08160871
216	0xbda8c848	-0.082413256
217	0x3dc5d1a4	0.096591264
218	0xbdcace68	-0.0990265
219	0xbe421e1b	-0.18956797
220	0x3d323342	0.043505915
221	0xbd8a1322	-0.067419305
222	0xbda7a469	-0.081856556
223	0xbd6b642a	-0.05746857
224	0xbdc27707	-0.09495359
225	0xbdb210de	-0.086946234
226	0xbd83eb90	-0.06441414
227	0xbdf47cc3	-0.11937859
228	0xbcfba39c	-0.030717663
229	0xbcedbe95	-0.02902154
230	0xbe62f50c	-0.2216379
231	0xbd5478d7	-0.051873054
232	0xbd5f08f9	-0.054451916
233	0xbca39e3f	-0.019972919
234	0xbe61bee8	-0.22045481
235	0xbe30aefe	-0.17254254
236	0xbe29b645	-0.16573437
237	0x3c457688	0.012052186
238	0xbd86b118	-0.06576747
239	0x3e38e320	0.18055391
240	0xbd65d923	-0.05611528
241	0x3d2823e9	0.04104987
242	0xbd11a43f	-0.035557028
243	0x3d622af6	0.055216752
244	0xbd8a32d8	-0.06747979
245	0xbd056ad2	-0.032572575
246	0x3bed3145	0.0072385394
247	0xbd4fe526	-0.050755642
248	0xbcc91678	-0.024546847
249	0xbd2a933e	-0.041644327
250	0xbd2c2904	-0.042031303
251	0xbdbe9530	-0.09305799
252	0xbd92ba65	-0.07164458
253	0xbd411c4a	-0.04714612
254	0xbe15bee3	-0.14623599
255	0xbb07bc83	-0.0020711727

bn1.running_mean f4 [256]
0	0xbe39b875	-0.18136771
1	0xbdeaf1f2	-0.11471929
2	0xbe5a0a27	-0.21292935
3	0xbed5faf8	-0.41793036
4	0xbd40a1d5	-0.047029335
5	0x3e4007f9	0.18753041
6	0xbee87918	-0.45404887
7	0xbea3b0a8	-0.31970716
8	0x3dc8b5a4	0.0980027
9	0xbeb6a603	-0.35673532
10	0xbf1949d2	-0.59878266
11	0xbdc43ec4	-0.09582284
12	0xbcb720ee	-0.02235457
13	0x3e6214e0	0.22078276
14	0x3f0623be	0.5239829
15	0xbf03e197	-0.515161
16	0x3e3648f5	0.17801268
17	0xbdadf651	-0.08494247
18	0xbe6ec693	-0.23317938
19	0x3ab42c54	0.0013746121
20	0xbd84cc51	-0.06484283
21	0xbe347b7a	-0.17625228
22	0x3ecf4704	0.40483868
23	0xbea4d910	-0.32196856
24	0xbe188578	-0.14894664
25	0x3ea43441	0.32071117
26	0x3e408b56	0.18803152
27	0x3e43b15c	0.19110626
28	0xbf3f6b76	-0.7477335
29	0x3df90e1c	0.12160894
30	0xbc5340f2	-0.012893902
31	0xbca99e7b	-0.020705452
32	0x3eb6a2a9	0.35670975
33	0xbe9aa282	-0.3020211
34	0xbe7d729f	-0.24750756
35	0xbf746c41	-0.9547768
36	0x3f0261b6	0.50930345
37	0xbce63810	-0.028102905
38	0xbeba2cdd	-0.36362353
39	0x3ece0406	0.40237445
40	0x3d44e03e	0.048065417
41	0x3e6ee402	0.23329166
42	0xbf6fd3df	-0.93682665
43	0xbe20368f	-0.15645812
44	0xbe5de958	-0.21671045
45	0xbeb29174	-0.34876597
46	0x3d8b488a	0.06800945
47	0x3ca1b9df	0.01974195
48	0x3dfd88d4	0.123796135
49	0x3ea2b6eb	0.3178018
50	0xbe8b0d87	-0.27158758
51	0xbe3ed306	-0.18635187
52	0xbe6b5c0d	-0.22984333
53	0xbe052566	-0.13002548
54	0xbeac6c82	-0.33676535
55	0xbeab50b6	-0.33460015
56	0xbdec103f	-0.11526536
57	0x3bd49bef	0.0064883153
58	0xbf5077a9	-0.81432587
59	0xbbd0627f	-0.006359398
60	0xbd397eeb	-0.045287054
61	0xbe9a1202	-0.30091864
62	0x3e6db619	0.23213996
63	0x3f0dac78	0.5534129
64	0x3e52a70e	0.20571539
65	0xbee0eca9	-0.43930557
66	0xbdbcbe2b	-0.09215959
67	0xbe6f0ddb	-0.23345129
68	0x3da113fb	0.07865139
69	0xbe91c376	-0.28469437
70	0x3f3136b0	0.6922407
71	0x3e9050e9	0.2818673
72	0xbe45d54a	-0.19319645
73	0x3d0e05d0	0.034673512
74	0xbf4b5ab5	-0.7943528
75	0xbe010648	-0.12600052
76	0x3ccb440e	0.024812724
77	0xbe05bb61	-0.1305976
78	0x3efdf184	0.49598324
79	0xbf0a8a76	-0.54117525
80	0x3dbc3883	0.09190466
81	0xbdba82ea	-0.09107001
82	0x3e0b5944	0.13608271
83	0xbefe55dd	-0.49674883
84	0xbf042f3a	-0.5163456
85	0x3f3348af	0.7003278
86	0xbe0ee0c1	-0.13952924
87	0xbdcaf512	-0.09910025
88	0xbe005e0c	-0.12535876
89	0x3dc2648f	0.09491836
90	0xbf220f67	-0.6330475
91	0x3e95a81e	0.29229826
92	0x3ef5e70f	0.48027846
93	0x3d2f0208	0.042726547
94	0xbd8cc05a	-0.06872626
95	0xbf0a2cab	-0.5397441
96	0xbc44022f	-0.011963411
97	0xbf062f7d	-0.5241621
98	0xbe9caf1b	-0.30602345
99	0xbe7530da	-0.23944417
100	0xbca3ce7e	-0.019995924
101	0xbeca2c9e	-0.39487165
102	0x3eb988cc	0.3623718
103	0xbd71fd72	-0.059079595
104	0xbe7eaaf8	-0.24869907
105	0xbe746b31	-0.23869015
106	0xbf428cd8	-0.7599616
107	0x3f1062d0	0.56400776
108	0xbe73c542	-0.23805717
109	0xbef02198	-0.4690063
110	0x3ece7cbf	0.4032955
111	0xbecd61a4	-0.40113556
112	0xbdf98647	-0.121838145
113	0x3eb3a4b2	0.3508659
114	0x3ef0f507	0.4706194
115	0xbe9bf640	-0.3046131
116	0x3c759f54	0.0149916
117	0xbd6592c1	-0.05604816
118	0xbf0bd7d0	-0.5462618
119	0x3e4ff095	0.20306619
120	0xbe9da2f2	-0.3078838
121	0x3c7ed0f0	0.015552744
122	0x3e17920d	0.14801808
123	0xbcf11b1b	-0.02943187
124	0x3c594396	0.013260743
125	0xbd2ff8fc	-0.04296206
126	0x3ea90df4	0.33018458
127	0x3d889c2f	0.06670415
128	0xbe36eeb5	-0.17864497
129	0x3ddeda98	0.10881537
130	0x3f2a7fd0	0.66601276
131	0xbea6810f	-0.3252034
132	0xbc9ac825	-0.018894264
133	0xbe03d63d	-0.12874694
134	0xbe27c99b	-0.163855
135	0xbe143d71	-0.14476563
136	0xbdd7acde	-0.10531019
137	0x3e91b8a6	0.28461188
138	0x3f052051	0.52002436
139	0xbda65db0	-0.08123338
140	0xbea5455a	-0.32279474
141	0xbe74d161	-0.23907997
142	0xbdcfc538	-0.10145038
143	0x3e2234d5	0.15840466
144	0xbef4cfc3	-0.4781476
145	0xbdd7628b	-0.105168425
146	0x3ea6e44b	0.3259605
147	0x3cff729f	0.031182585
148	0x3d52bb6a	0.051448263
149	0x3f40fd5a	0.75386584
150	0xbe3edccd	-0.18638916
151	0x3d01c757	0.031684246
152	0x3ec5bf3d	0.38622466
153	0xbdab9987	-0.083788924
154	0xbcb01783	-0.021495586
155	0x3edd8e07	0.4327242
156	0x3e13eadd	0.14445062
157	0x3e5c056b	0.21486442
158	0xbf185081	-0.5949784
159	0x3d473b51	0.048640553
160	0xbd40e02a	-0.04708878
161	0x3dc0935e	0.09403108
162	0x3d46f16d	0.048570085
163	0xbe9362b0	-0.2878623
164	0x3e0960ad	0.13415785
165	0x3d93a9e7	0.07210141
166	0xbf14457f	-0.5791854
167	0xbf176321	-0.59135634
168	0xbe9b3a0c	-0.30317724
169	0xbec053e1	-0.37563995
170	0xbe313aed	-0.17307635
171	0x3e6dc4fc	0.23219675
172	0x3d37f2bc	0.044909224
173	0xbec6618a	-0.3874629
174	0xbec8a324	-0.39186966
175	0x3e83ed09	0.2576678
176	0xbf2d16cc	-0.6761291
177	0xbe2f8b6a	-0.17143026
178	0x3c630098	0.013855122
179	0x3cac102f	0.02100381
180	0x3f0a17eb	0.53942746
181	0x3e2609ae	0.1621463
182	0xbebe03a8	-0.37112164
183	0xbe8b8a18	-0.27253795
184	0xbb8d2c0e	-0.0043082302
185	0xbd91aca5	-0.071130075
186	0xbec96695	-0.39336076
187	0x3ea1399f	0.31489274
188	0xbe96f0b5	-0.2948052
189	0xbf0ff308	-0.5623021
190	0xbed2573f	-0.41082188
191	0x3eca0773	0.39458808
192	0x3eaf2a13	0.34211788
193	0xbca71631	-0.020396324
194	0xbed87a80	-0.4228096
195	0xbd13c0be	-0.036072485
196	0xbe3639b6	-0.17795452
197	0xbe48cc30	-0.19609141
198	0xbe869ca9	-0.26291397
199	0xbed39cd4	-0.41330588
200	0xbdc17263	-0.09445646
201	0xbe8cccfb	-0.27500138
202	0x3d4c67d8	0.04990372
203	0xbef52830	-0.47882223
204	0xbea53549	-0.32267216
205	0xbe5a5bfe	-0.21324155
206	0x3ec5e0a4	0.3864795
207	0xbebf4a37	-0.3736131
208	0x3c0a046a	0.008423904
209	0xbe27de5e	-0.1639342
210	0xbd46c4ae	-0.048527412
211	0x3d641211	0.055681292
212	0xbe561b9d	-0.20908971
213	0x3e35ed35	0.17766269
214	0x3e691afd	0.22764201
215	0xbe806e15	-0.25083986
216	0xbe57c986	-0.21072969
217	0xbe5029b6	-0.20328411
218	0xbea5755a	-0.32316095
219	0x3eacae78	0.3372686
220	0x3dd694cc	0.104775995
221	0xbeadbeba	-0.33934575
222	0xbcfc8ff1	-0.030830355
223	0xbd0a07ea	-0.033698954
224	0xbe14c871	-0.14529587
225	0x3cabd582	0.020975832
226	0x3f11d35f	0.5696315
227	0xbef774e2	-0.48331362
228	0x3dc75a6f	0.09734046
229	0x3dffeb84	0.12496093
230	0xbe18b2a1	-0.14911892
231	0x3da9745c	0.08274147
232	0x3e8f355e	0.27970403
233	0xbd5accc4	-0.053417936
234	0xbf12679a	-0.57189333
235	0xbe0de16e	-0.13855526
236	0xbecbc02c	-0.39795053
237	0xbbe15373	-0.006876403
238	0x3ed43d00	0.4145279
239	0x3e5e484b	0.21707265
240	0x3e523e30	0.20531535
241	0xbd7d941e	-0.061908834
242	0x3e8636cc	0.26213682
243	0xbe62b302	-0.22138599
244	0xbe0dd8b1	-0.13852192
245	0xbf0b4b6a	-0.5441195
246	0xbe95ed18	-0.2928245
247	0xbd9b69bc	-0.075885266
248	0xbe916e86	-0.28404635
249	0x3e018a41	0.12650396
250	0x3e879f81	0.2648888
251	0xbef02558	-0.4690349
252	0xbe8c23cb	-0.27371058
253	0x3f0ef702	0.55845654
254	0x3e98b40f	0.29824874
255	0xbe829e5e	-0.2551145

bn1.running_var f4 [256]
0	0x403cc15b	2.9493015
1	0x3f044315	0.5166486
2	0x4019f69e	2.4056773
3	0x4045f72b	3.093211
4	0x3f969f55	1.1767374
5	0x3ea1146f	0.31460902
6	0x3f437717	0.7635359
7	0x3f431626	0.7620567
8	0x3f56f8db	0.83973473
9	0x3f9eda7a	1.2410424
10	0x3f06fcb0	0.5272932
11	0x3f933c4e	1.1502779
12	0x3f6872d0	0.9080019
13	0x3fb7b0e4	1.4350858
14	0x3fdb61fb	1.7139276
15	0x3f806432	1.0030577
16	0x3f8a5062	1.0805781
17	0x3f208aac	0.62711596
18	0x3f7e4fb8	0.9934039
19	0x3f6091a5	0.87722236
20	0x3ff5acd6	1.919337
21	0x401f1657	2.4857385
22	0x3f3fd695	0.749368
23	0x3fc9ad30	1.5755978
24	0x3e6c99c6	0.23105535
25	0x404d3dcc	3.2068968
26	0x3f4e85de	0.80673015
27	0x3f29c705	0.66319305
28	0x3fc0b6e2	1.5055811
29	0x3fe134da	1.7594254
30	0x3f13c63f	0.57724375
31	0x3f94ae51	1.1615697
32	0x3f19a4fd	0.6001738
33	0x3f1bb053	0.60815924
34	0x3fe5e840	1.7961502
35	0x3fb55978	1.4167929
36	0x3f3215dc	0.69564605
37	0x3f912d0d	1.1341873
38	0x3f4d08f6	0.800918
39	0x3f64dfe8	0.89404154
40	0x3f3f4474	0.74713826
41	0x3f6774de	0.904127
42	0x3fc25db9	1.5184852
43	0x3f9b6efe	1.2143247
44	0x3f25ba68	0.6473756
45	0x3fb3c3e3	1.4044155
46	0x3e94a039	0.2902849
47	0x3f1f8dfd	0.6232603
48	0x3fb1c8e0	1.3889427
49	0x4012a427	2.291269
50	0x3f34f72e	0.70689666
51	0x40028258	2.0392056
52	0x3f14ca2a	0.5812098
53	0x3f89307e	1.0717924
54	0x3fbd3fcf	1.4785098
55	0x3f5151a6	0.8176521
56	0x3fc9a5d6	1.5753734
57	0x3fa1d364	1.2642636
58	0x3fa7fa45	1.3123251
59	0x3fd564b8	1.6671362
60	0x3f526b6c	0.8219516
61	0x3f7fe0ec	0.9995258
62	0x3eefef15	0.46862093
63	0x3ff5b075	1.9194475
64	0x3f1fe527	0.62459034
65	0x3fb72b36	1.4310062
66	0x3fc81b1e	1.5633276
67	0x3fd30540	1.6485977
68	0x3fd0a534	1.6300416
69	0x3e63cfdb	0.2224726
70	0x40047221	2.0694659
71	0x3f9a8abd	1.207359
72	0x408c0931	4.376122
73	0x3e548d5a	0.20757046
74	0x3fe876d4	1.8161263
75	0x3ee293f3	0.442535
76	0x3fc13c20	1.5096474
77	0x3ee906cc	0.45512998
78	0x3fc9d76a	1.5768864
79	0x3fe2434e	1.767679
80	0x3f724921	0.94642836
81	0x3ef25016	0.47326726
82	0x3e8edbb5	0.27901998
83	0x4000eb99	2.0143797
84	0x3fb90188	1.4453592
85	0x3fd9b3ee	1.7008035
86	0x3f319436	0.69366777
87	0x3f1f9931	0.62343127
88	0x3fac7f52	1.3476355
89	0x3fe965b5	1.8234164
90	0x3f2cffa0	0.6757755
91	0x3f53cb92	0.827325
92	0x3f507c8e	0.81440055
93	0x3ee86b64	0.45394433
94	0x3f559fc2	0.83446896
95	0x3f7e4f4b	0.9933974
96	0x3e8ac3b5	0.27102438
97	0x400b761f	2.1790845
98	0x3f6119d5	0.8793004
99	0x3f4d880a	0.80285704
100	0x3fbeadfb	1.4896845
101	0x3fdc8725	1.7228743
102	0x3ee6f1ca	0.45106345
103	0x3f25452d	0.6455868
104	0x3f1b849d	0.60749227
105	0x3fb47cda	1.4100602
106	0x3fb9e494	1.4522882
107	0x3f91167e	1.1334989
108	0x3ea4b98b	0.32172808
109	0x3efbb9db	0.49165234
110	0x3f5b8f00	0.85765076
111	0x3fbf2456	1.4932964
112	0x3f3c9667	0.73666996
113	0x3f82894e	1.0198152
114	0x3fdd2e22	1.7279704
115	0x3e9212ac	0.2852987
116	0x402fbf7b	2.746062
117	0x3e99bd06	0.30027026
118	0x3fb64f61	1.4242975
119	0x3ef183f2	0.4717098
120	0x3f62d411	0.8860484
121	0x3e89f34a	0.26943427
122	0x3fbc92c8	1.4732294
123	0x3ea7ceb2	0.32774884
124	0x3f2fd484	0.6868365
125	0x3f9d80b8	1.2304907
126	0x3ff11f3e	1.8837659
127	0x3fde5a8c	1.7371383
128	0x3f2d14bc	0.67609763
129	0x3eafeb66	0.34359282
130	0x3f38baa8	0.72159815
131	0x3f170cc5	0.5900386
132	0x3fd222ca	1.6416867
133	0x3f5247e4	0.82140946
134	0x3f9644b3	1.1739715
135	0x3f45ae18	0.7721877
136	0x3f6d76be	0.9275931
137	0x3f0216fc	0.5081632
138	0x3faaa8a6	1.3332717
139	0x3f9eaead	1.2397057
140	0x3f7139e6	0.9422897
141	0x3fbee4bc	1.4913554
142	0x3e68a788	0.22720158
143	0x3f26c725	0.6514762
144	0x3f89d591	1.07683
145	0x3f6e246a	0.93024313
146	0x3f88e238	1.0694036
147	0x3fba56f4	1.4557786
148	0x3f663978	0.8993144
149	0x40517716	3.2728934
150	0x3f21f39a	0.6326233
151	0x3fe11f55	1.7587687
152	0x3f0ad9b0	0.54238415
153	0x3f83cd23	1.0296978
154	0x3fcc1de0	1.5946617
155	0x3f811c55	1.0086771
156	0x3fb21fb5	1.3915926
157	0x3fa667a5	1.300038
158	0x3f47f07e	0.78101337
159	0x3f3ef30d	0.74589616
160	0x3f68f8cc	0.91004634
161	0x3ec1932f	0.37807605
162	0x3f5d0fe8	0.86352396
163	0x3ff47531	1.9098264
164	0x3fbba7b8	1.4660559
165	0x3f544308	0.8291478
166	0x3fb687ed	1.4260231
167	0x3f9c201b	1.2197298
168	0x3fb2e801	1.3977052
169	0x3f9ec17d	1.2402798
170	0x3fc7916c	1.5591254
171	0x400bcf16	2.1845145
172	0x3f43441c	0.762758
173	0x3f833308	1.0249949
174	0x3f8435f3	1.0328964
175	0x4025c2d5	2.5900166
176	0x3fc7991b	1.5593599
177	0x3f9aae55	1.2084452
178	0x3f89ea11	1.0774556
179	0x40188ed2	2.383717
180	0x3fb8231a	1.4385712
181	0x3f8e7a0b	1.1130995
182	0x3eea6892	0.45782906
183	0x3fed6229	1.8545581
184	0x40030ab9	2.0475295
185	0x3f449a20	0.76797676
186	0x3f163529	0.58674866
187	0x3f8d8f30	1.1059322
188	0x3f45b820	0.7723408
189	0x3fead68f	1.8346728
190	0x4045212e	3.0801501
191	0x3fa96def	1.3236674
192	0x3f078603	0.5293886
193	0x3ffffeb7	1.9999608
194	0x400e1c78	2.2204876
195	0x401adb53	2.4196365
196	0x3f9aacab	1.2083944
197	0x3fc97338	1.5738287
198	0x3f5fed92	0.8747188
199	0x3fff7fc8	1.9960871
200	0x3f973927	1.1814317
201	0x3f234c07	0.63787884
202	0x3f118f65	0.5685943
203	0x400b40d4	2.1758318
204	0x3f8bc3d4	1.0919137
205	0x3ed9d2ff	0.4254379
206	0x3f646956	0.8922323
207	0x3f079a0c	0.5296943
208	0x3f29b474	0.66290975
209	0x3f4ceb87	0.80046886
210	0x3e8b1a12	0.27168328
211	0x3f57245e	0.84039867
212	0x3f8de048	1.108407
213	0x3f0d0af4	0.5509484
214	0x3f80f2e8	1.0074129
215	0x3f61dcf5	0.8822778
216	0x3fce0c7c	1.609756
217	0x3f521474	0.8206246
218	0x3f23597a	0.63808405
219	0x3f07b923	0.5301687
220	0x3f73a422	0.9517232
221	0x3f9f2e5b	1.2436022
222	0x3fb232da	1.3921769
223	0x3f41c118	0.7568526
224	0x3f49b528	0.7879205
225	0x3f3e308d	0.7429283
226	0x3f87ea89	1.061845
227	0x3f9b30cd	1.2124268
228	0x4014bd9c	2.3240728
229	0x403f4a1c	2.9888983
230	0x400a9cf0	2.1658287
231	0x3f030f51	0.51195246
232	0x3f93813b	1.1523813
233	0x3fae9cbb	1.364158
234	0x3fba233c	1.4542003
235	0x3f8c7d7c	1.0975795
236	0x3fdad021	1.7094766
237	0x3f582a8e	0.84439933
238	0x3f28893b	0.658344
239	0x3fb679f9	1.4255973
240	0x3f408af7	0.75212044
241	0x3e7b2ebc	0.24529546
242	0x3f2dcf72	0.6789466
243	0x3fba4617	1.455264
244	0x3f682ceb	0.9069354
245	0x3ffd215c	1.9775805
246	0x3f473f7c	0.77831244
247	0x3fb6a417	1.4268826
248	0x3f05cef8	0.52268934
249	0x3e951299	0.2911575
250	0x3f9df6b7	1.2340916
251	0x3faf332d	1.3687493
252	0x3f82fefc	1.0234065
253	0x3f9f740b	1.2457289
254	0x3eff03b5	0.49807516
255	0x3f66b8d0	0.9012575

fc2.weight f4 [128, 256]
0	0xbd51a6b6	-0.05118438
1	0xbe5ee102	-0.21765521
2	0x3e724c79	0.23661985
3	0xbe49642c	-0.19667119
4	0x3d8d2fe6	0.068939015
5	0xbe6154dd	-0.22005029
6	0x3dae6755	0.08515803
7	0x3cbf6ce5	0.023367355
8	0xbd9d230f	-0.076727025
9	0x3c502774	0.012704719
10	0x3c081281	0.008305193
11	0x3df6bdb5	0.120479025
12	0xbd70d952	-0.058801003
13	0xbd838925	-0.064226426
14	0xbd94c8d8	-0.072648704
15	0xbce42c1d	-0.027853066
16	0x3e345200	0.17609406
17	0x3de711c7	0.11282688
18	0x3e4deac5	0.20109089
19	0xbdd0be4b	-0.101925455
20	0x3e133cbd	0.14378639
21	0xbd4be3a9	-0.04977766
22	0xbdd0c823	-0.10194423
23	0xbe1e8e3a	-0.15483943
24	0xbdc4f495	-0.09616963
25	0x3d2a01e9	0.041505728
26	0xbd6a406e	-0.05719035
27	0x3dfe4eb1	0.12417353
28	0x3b563df6	0.003269074
29	0xbd20a61c	-0.039220914
30	0x3c8e4d3e	0.017370816
31	0xbcfadd0a	-0.030622978
32	0x3c0f2fcc	0.008739423
33	0x3e819970	0.25312376
34	0x3c0c260f	0.008553996
35	0x3d26cf83	0.040725242
36	0xbd1c85be	-0.038213484
37	0x3d28f6f3	0.041251134
38	0xbcae46b0	-0.02127394
39	0x3e08730c	0.13325137
40	0x3d80fdec	0.06298432
41	0xbcb8ccfc	-0.022558682
42	0x3d26a66b	0.040686052
43	0x3d261994	0.040551737
44	0xbb71d479	-0.0036900325
45	0xbd3138a1	-0.043266896
46	0x3d2bd316	0.041949354
47	0x3c86de7f	0.016463516
48	0x3ddbde31	0.10735739
49	0x3c87b226	0.01656444
50	0x3e63acf7	0.2223395
51	0x3924db3e	0.00015721933
52	0xbd13260e	-0.035924964
53	0x3d522d22	0.051312573
54	0xbd597bb4	-0.053096488
55	0x3d71afb9	0.059005473
56	0x3d5c1e7f	0.05374002
57	0xbddf9255	-0.109165825
58	0x3e17ca96	0.14823374
59	0x3e3e2e14	0.18572265
60	0xbd3ee338	-0.04660341
61	0x3e52e6e3	0.20595889
62	0x3e5783e3	0.21046405
63	0x3d58aeb2	0.052900977
64	0xbceb88d5	-0.02875177
65	0x3e292be8	0.16520655
66	0x3d945c24	0.07244137
67	0xbd22e00d	-0.039764453
68	0xbd27aeb5	-0.040938098
69	0x3e0e65b0	0.13905978
70	0xbd334c36	-0.043773852
71	0x3d8c5ed9	0.06854028
72	0xbce0a3d4	-0.02742187
73	0xbe4364b8	-0.1908139
74	0xbda8ac81	-0.082360275
75	0xbdbd8b94	-0.09255138
76	0xbdb0b040	-0.08627367
77	0x3d4fc488	0.050724536
78	0xbcdcc0d2	-0.026947413
79	0xbd0821f5	-0.03323551
80	0x3d63b904	0.055596367
81	0x3dbcb00b	0.09213265
82	0xbda0c8c8	-0.07850796
83	0xbde6b256	-0.11264484
84	0x3dabb346	0.08383803
85	0x3bda66bf	0.0066650803
86	0xbdb0ad93	-0.08626857
87	0x3c8283d4	0.015932001
88	0xbc5551a0	-0.013019949
89	0x3e02be1d	0.12767835
90	0x3d8662b4	0.06561795
91	0x3e17aeb5	0.14812739
92	0x3c474f0a	0.0121648405
93	0xbd4c23d4	-0.049838856
94	0xbc86c59d	-0.016451651
95	0xbcddb984	-0.027066
96	0x3bd54e0f	0.0065095495
97	0xbdcd2b9d	-0.10018084
98	0x3e0fba9f	0.14036034
99	0x3ca0b08e	0.019615438
100	0xbaeea3df	-0.0018206796
101	0xbe1afc6f	-0.15135358
102	0xbe0816d4	-0.13289958
103	0x3db485d4	0.08814588
104	0xbd377bf6	-0.044795953
105	0x3d9f3922	0.07774569
106	0x3e4cfd7a	0.20018569
107	0xbe0f257f	-0.13979147
108	0xbcc99306	-0.024606239
109	0x3e097938	0.13425148
110	0x3bf33972	0.0074226195
111	0xbe117a51	-0.14206816
112	0xbe437537	-0.19087683
113	0xbcd4267a	-0.025897253
114	0x3e4f09e1	0.20218612
115	0x3d59083f	0.05298638
116	0xbdafa9a1	-0.08577276
117	0x3e3ae0f2	0.18249872
118	0xbba4e1fa	-0.0050318213
119	0x3dda971a	0.106733516
120	0x3d9ed4c7	0.07755428
121	0x3d99b666	0.07505493
122	0xbd8164d2	-0.06318058
123	0x3e17c64e	0.14821741
124	0x3dcdf396	0.10056226
125	0xbe25b66d	-0.16182871
126	0xbd80273e	-0.06257485
127	0xbe0fc719	-0.14040793
128	0x3dc29b31	0.09502257
129	0x3db3f582	0.08787061
130	0xbc1c1f9e	-0.0095290225
131	0xbd0241ca	-0.031801023
132	0x3d829f31	0.063780196
133	0xbc7bc4fd	-0.01536679
134	0x3e08f997	0.13376461
135	0xbd973543	-0.07383206
136	0xbc82ade4	-0.015952058
137	0x3dcbe42d	0.099556305
138	0x3db85a56	0.09001605
139	0xbd8e98b3	-0.06962719
140	0xbda65429	-0.08121521
141	0xbd6e9e29	-0.058256302
142	0x3e1762ed	0.14783831
143	0xbc9c8fe1	-0.019111576
144	0xbe267d13	-0.1625865
145	0xbc8f1f94	-0.017471112
146	0x3b3e83e6	0.0029070317
147	0x3e3d5ade	0.18491694
148	0x3e1486ca	0.14504543
149	0xbd654588	-0.055974513
150	0x3cf4a04f	0.029861597
151	0x3d822cd8	0.063562095
152	0xbe4060eb	-0.18786971
153	0xbd363bb7	-0.044490542
154	0x3ca7d46d	0.020487035
155	0x3b8c797e	0.004286944
156	0xbdb31333	-0.08743896
157	0x3e1b3be6	0.15159568
158	0xbdae8711	-0.085218556
159	0x3dbd11bc	0.09231898
160	0x3d85c53e	0.065317616
161	0x3d7a1caa	0.061062492
162	0x3c8e3554	0.017359413
163	0x3c619ee9	0.013770797
164	0xbd7f8609	-0.062383685
165	0x3df33433	0.118751906
166	0xbddc6414	-0.10761276
167	0x3e0ef415	0.13960297
168	0x3e2eca5e	0.17069384
169	0x3da50296	0.08057134
170	0xbdec9d2c	-0.11553416
171	0xbc5440d0	-0.012954906
172	0xbe2d1558	-0.16902673
173	0x3d927682	0.0715151
174	0x3e1b8190	0.15186143
175	0xbdc371aa	-0.09543164
176	0x3da74f5a	0.08169432
177	0xbd7615e2	-0.060079463
178	0x3cefd20a	0.02927496
179	0x3daef15d	0.0854213
180	0xbe70b7fe	-0.23507687
181	0x3d1e07cc	0.038581654
182	0xbdbdd393	-0.0926887
183	0x3b73dab2	0.003720921
184	0x3dbba453	0.09162202
185	0x3d2a485c	0.041572914
186	0x3e338dd4	0.17534572
187	0x3d3fff84	0.046874538
188	0xbcef5964	-0.02921743
189	0x3d5c6432	0.05380649
190	0xbdee2ec4	-0.116300136
191	0x3d2c102e	0.042007618
192	0x3b4e37b3	0.0031466305
193	0xbe32cf00	-0.17461777
194	0x3bc8131b	0.006105793
195	0x3e24ee5e	0.16106555
196	0x3d63a3f9	0.0555763
197	0x3ce3f9ed	0.027829135
198	0xbe93f9dc	-0.28901565
199	0xbcad51e8	-0.02115722
200	0x3e81a41b	0.25320515
201	0xbe00894a	-0.12552372
202	0x3db0f19a	0.08639832
203	0x3d4662fc	0.048434243
204	0xbda991be	-0.08279751
205	0x3d55d833	0.052208137
206	0xbe3c058e	-0.18361494
207	0x3e0ee286	0.139536
208	0x3dadb8c7	0.08482509
209	0xbdb46cb3	-0.08809795
210	0x3ec3dd2c	0.38254678
211	0x3c603d6e	0.013686521
212	0x3d75863b	0.059942465
213	0xbd8d7e6d	-0.069088794
214	0xbe09216e	-0.13391659
215	0xbd321a43	-0.043482076
216	0x3d421d2a	0.047391094
217	0xbbe48161	-0.006973431
218	0xbc1ff257	-0.009762368
219	0xbe0d7bca	-0.13816753
220	0xbc790da2	-0.015201004
221	0xbe0e2b97	-0.13883816
222	0x3d6ca58b	0.05777506
223	0x3d168b00	0.036753654
224	0x3cfb4261	0.0306713
225	0x3bee6ec5	0.0072763884
226	0xbc818dac	-0.015814625
227	0x3cde0e3c	0.027106397
228	0xbd15387b	-0.036430817
229	0x3d155152	0.036454506
230	0xbd529d1c	-0.051419362
231	0x3c9959c3	0.01871956
232	0x3cc096cf	0.023509411
233	0x3d0f6045	0.03500392
234	0x3d59d989	0.053185973
235	0x3da0ebeb	0.07857498
236	0xbde8aa1c	-0.11360571
237	0xbcd2c3ae	-0.025728073
238	0x3d429f17	0.047515
239	0xbd595d35	-0.053067405
240	0xbe5d7372	-0.2162607
241	0x3d9a9a21	0.07548929
242	0x3ca9434c	0.020661972
243	0xbd26c18e	-0.040711932
244	0x3e01ed58	0.12688196
245	0x3d458053	0.048218083
246	0xbc6503b9	-0.013977938
247	0x3c45d0a4	0.01207367
248	0xbc60bc0c	-0.013716709
249	0x3ddca925	0.10774449
250	0x3cdafd8e	0.026732232
251	0x3bed93b4	0.0072502736
252	0x3e511fff	0.20422362
253	0x3ea33383	0.31875238
254	0xbea880fc	-0.32910907
255	0x3e1017f4	0.14071637

fc2.bias f4 [128]
0	0xbcde3456	-0.027124565
1	0xbdf040e7	-0.11731129
2	0x3c000ddb	0.007815803
3	0x3d21b490	0.03947884
4	0x3debb029	0.11508209
5	0x3d814447	0.06311851
6	0x3d87bc26	0.06627683
7	0xbc04a16b	-0.008095126
8	0xbdb412ba	-0.08792634
9	0xbd268ac2	-0.040659674
10	0x3e13fba9	0.1445147
11	0xbdb97931	-0.090563186
12	0xbdbef81e	-0.09324668
13	0xbe0494f6	-0.12947449
14	0x3e2c3b2b	0.16819446
15	0xbdc626a1	-0.09675337
16	0xbde9bb0b	-0.11412629
17	0xbd351232	-0.044206806
18	0xbcc8faf6	-0.02453373
19	0x3cceac57	0.025228662
20	0x3d307b85	0.043086547
21	0xba3f3412	-0.0007293831
22	0x3d8ccbef	0.06874835
23	0xbde5b9fb	-0.112171136
24	0xbd1f6492	-0.03891427
25	0xbde87966	-0.1135128
26	0x3da3022e	0.079594
27	0xbd92c3e3	-0.07166269
28	0xbe078ccd	-0.13237305
29	0xbe2f3100	-0.17108536
30	0xbc75a66d	-0.014993292
31	0xbd4cdc4d	-0.050014783
32	0xbd2bfbb9	-0.04198811
33	0xbda5c454	-0.08094087
34	0x3dcc57bd	0.09977672
35	0xbd76e6a2	-0.060278542
36	0xbd14cec1	-0.03632999
37	0xbe4d7361	-0.20063545
38	0x3c9b42b8	0.018952712
39	0x3da091e9	0.0784033
40	0xbe240439	-0.16017236
41	0xbd8523e3	-0.065009855
42	0xbd985a8c	-0.074391454
43	0x3e148c12	0.14506558
44	0x3e07918a	0.13239112
45	0xbd4bd41b	-0.049762826
46	0x3c82829f	0.015931426
47	0xbd95d3da	-0.07315798
48	0x3c9c5d27	0.019087387
49	0x3b05bcd5	0.0020406742
50	0xbe112a95	-0.141764
51	0xbd02db5f	-0.03194749
52	0xbdaa3fbc	-0.083129376
53	0xbc44c36e	-0.012009485
54	0xbc667d7f	-0.014068007
55	0x3bca8d7b	0.0061814166
56	0xbd763526	-0.06010928
57	0x3cf16ca8	0.029470757
58	0xbcffaea5	-0.031211207
59	0xbd11676c	-0.03549902
60	0xbd8d9eb1	-0.069150336
61	0xbe08a0cd	-0.1334259
62	0x3dab02f8	0.083501756
63	0x3e07b26c	0.13251656
64	0x3d667942	0.056267984
65	0xbdcf55ec	-0.1012381
66	0xbd5a0868	-0.053230673
67	0x3d575f58	0.05258116
68	0xbdde0d29	-0.10842354
69	0xbda91d30	-0.0825752
70	0xbe172eac	-0.14763898
71	0x3d5e4739	0.054267142
72	0x3dae41be	0.08508633
73	0xbdb41c01	-0.08794404
74	0x3d98c442	0.07459308
75	0x3db8ffb7	0.09033149
76	0x3e0e31ec	0.13886231
77	0x3e1d30e3	0.1535068
78	0x3d836936	0.06416552
79	0x3d27ca69	0.040964518
80	0xbd56c7cc	-0.052436635
81	0xbdcf34c0	-0.10117483
82	0x3e465c29	0.19371094
83	0xbdd3d29f	-0.10342907
84	0xbdd88b2b	-0.10573419
85	0xbd1bae41	-0.03800798
86	0x3dda4885	0.10658363
87	0xbda20a5b	-0.079121314
88	0x3d1a070e	0.037604384
89	0xbc8e277f	-0.017352818
90	0xbd5801c3	-0.052736055
91	0xbd8e4749	-0.0694719
92	0xbd18dbeb	-0.037319105
93	0xbd91c4e8	-0.07117635
94	0xbda57914	-0.080797344
95	0x3cca1bac	0.024671398
96	0xbd21f83c	-0.039543375
97	0xbc35ff19	-0.011108183
98	0xbd43cd47	-0.04780319
99	0x3c6cf5ed	0.01446293
100	0xbdd69146	-0.104769275
101	0x3bee4c39	0.00727227
102	0xbd8322f0	-0.06403148
103	0xbd24c32b	-0.04022519
104	0xba832c2e	-0.0010007673
105	0xbd8ff865	-0.07029799
106	0x3e18c21a	0.14917794
107	0x3ad18547	0.0015985154
108	0x3d635460	0.05550039
109	0xbca82a52	-0.020527992
110	0xbdb7b558	-0.089701355
111	0x3d737d47	0.059445646
112	0xbc4b759a	-0.012418175
113	0x3d9ab17b	0.07553383
114	0xbcd6d2a3	-0.026223486
115	0x3d8fba81	0.07017995
116	0xbc22123c	-0.009892043
117	0x3d817a71	0.06322182
118	0xbd417a9f	-0.04723608
119	0xbceb5fea	-0.028732259
120	0x3dcfcfc7	0.10147052
121	0x3de3b4df	0.11118483
122	0x3be121e6	0.006870496
123	0xbcb49372	-0.022042964
124	0x3c325b89	0.0108860815
125	0x3dbb9c72	0.09160699
126	0x3c9e7bcb	0.019346138
127	0x3dca1168	0.09866601
