critic.pth (torch_old, 207822 bytes, 11 tensors)

fcs1.weight f4 [256, 33]
00000000: 2381 273e dcb1 9f3d 6a50 10be 9fbe 843d
00000010: bf78 71bd bc4e 1d3d f4f7 65bc b636 c8bc
00000020: 12c7 f33d 4f5e 6dbd 012d 963d d7a9 7c3a
00000030: d0fe f5bb 4f14 90be d1db 17bd bf57 1d3e
00000040: 645e 74bc 7daf 9a3d c274 3ebd 5295 b5bc
00000050: 6865 bd3b 61bb 6e3d de8e 1fbd ec35 00be
00000060: cc15 50bd ae40 aebb f3ab 423e 5407 7cbd
00000070: ec89 3bbd 5c3a 2ebd 3024 db3b ca4e 2e3d
00000080: de5c d83d e449 e93c 0590 e13d 725c 963d
00000090: a544 52be 2881 2c3e bc98 193e b7d6 29be
000000a0: 5e39 33bc e5c3 bb3e 15e8 5ebe 7c2e bf3d
000000b0: 7d2f 94bb 4e4f d4bb a222 573d 36ff aebd
000000c0: 9113 4dbd 3a1c 4fbd fa44 c5bd 0d55 96bd
000000d0: 4c26 fb3c 8c27 14bd b4cc a53d 3895 893d
000000e0: 640c df3c d060 833d a270 6e3d 4135 4b3d
000000f0: a8b3 9dbc 7913 b33e 2c6c 00bd 60eb c43c
00000100: 2842 213c de39 363f c63d 5ebc abfe 073d
00000110: 7522 74bc fce1 523d 7a3c 85bc 0383 d83d
00000120: 103d 063d 3146 363c 7415 913d f8a8 fa3a
00000130: dc77 a139 e50d 433c b460 ad3c 370e 36bc
00000140: 3c5c 143b 180f a93c 3b14 a53c 7e13 8bbc
00000150: 4e84 1a3d ac60 fd3b 9e65 0dbc 2c35 04bc
00000160: e530 553a 9ad4 8e3b 8326 11bc 3097 4d3c
00000170: 7ac1 2cbd 986d 49bd ba7d 02bc 00e6 2039
00000180: 1f7a e63c 40a1 4cbc c597 c2bf c2c5 a2bd
00000190: 426b 96bc af08 e73d ab96 7c3d 9546 a83c
000001a0: 3f7a 6d3c 970d b23e 7bba e93d d61b d1bd
000001b0: 584a 903e 70b0 af3d ac5d 07be 744a b43d
000001c0: cbbe 3fbd 0e71 41be 2355 08bd 2f1f c53c
000001d0: 7508 9f3c 4e18 b1bc 0016 ba3d 0888 c9bd
000001e0: d98a df3d eb63 e6bd 2e9e 47bd f27f f6bd
000001f0: 3f4c a13d 5144 7c3e 24f9 57bd eb33 d0ba
00000200: 22eb 7abd 8670 4fbd ee19 1bbd 8e39 07bf
00000210: 99c7 85bd df63 ddbd 1e20 2a3e 348a a03c
00000220: 358e e7bd 161d 94bb 382e 293e efbc 77bd
00000230: 1669 423e ba5d 8bbe f27a c53d 945e f23c
00000240: 8c40 babd c84c cc3d 122e 1f3d 5db2 0cbe
00000250: 222a e3bc b669 80be 27fd 0ebe dac0 be3d
00000260: 0aad 9e3d 7200 a53d 2167 babd 6b26 30be
00000270: 8a12 0c3d 474c eebd 60dc 5ebe 8bd8 083d
00000280: 079a 5ebe 42f6 263d 9712 513d aaf7 6fbd
00000290: de20 4f3e 3518 bbbd 0405 863e c9fe 173e
000002a0: 24c7 1f3e f9b7 e4bd 0095 c9bc 43f0 883c
000002b0: d498 c83d 106d 37be b93f 3ebe b52d b53c
000002c0: 0888 06be c299 d33d 4354 7e3d 2606 38be
000002d0: dbfd 27be e893 943d 616d ca3d ae88 013e
000002e0: d763 af3d 8272 b3bd 668f 5a3d 12dc 7a3b
000002f0: 29e6 a03d 8b88 d03d a778 62be 83e0 ec3d
00000300: 0daf 4f3d d1b0 45be 18b4 f13c 7b4b 0ebc
00000310: 204c 333d 074c 153e fb3b 7abe a589 56bd
00000320: 920e a83e 4243 a2bc 47e1 7ebb cec7 e83d
00000330: 6188 f93c 7e3b 573d 2171 80bd b036 aabe
00000340: 9e91 043e 0e70 a0bc 7754 c63c 3509 283e
00000350: 8b9b ed3c 6f41 a0be fb43 4abc 10fd ab3b
00000360: 282e 083d a174 533d 0b56 bdbc 0d33 d83c
00000370: 3da9 98bc 65d7 893d b69f 7d3d c728 95bd
00000380: 1f0d 5fbd 52f4 43bd 986b bebc 14d0 efbc
00000390: 7aa0 20bd 48e1 593d 9890 103f ce9f a33e
000003a0: 4747 973d b955 ddbe 467b 05bd e640 8e3d
000003b0: 014b a3bd d776 23bd 07e9 b63d d0f9 83be
000003c0: 1046 c6be b64f 103e 6aee 963d 814d e9bd
000003d0: c81a ee3d f7c5 9bbd 0c1c c83d dfc0 6cbc
000003e0: 8193 033b 5669 9f3d 41bf b2bd 033a 35be
000003f0: e7d3 dfbc 0cd3 953d 0909 69bd 2483 593d
0.16357855 0.07797596 -0.14093176 0.064816706 -0.058953043 0.038405165 -0.014036167 -0.02444015
0.11903204 -0.057951268 0.073328026 0.0009638345 -0.0075071827 -0.28140494 -0.037074868 0.15365504
-0.014915083 0.07553003 -0.046498068 -0.022165928 0.005779911 0.058284167 -0.03895461 -0.1252057
-0.050802037 -0.005317769 0.19010906 -0.061530426 -0.04578583 -0.042536125 0.0066876635 0.042555608
0.10564588 0.028477617 0.11013798 0.07341851 -0.20533998 0.16846144 0.1499967 -0.16585813
-0.01093897 0.36672893 -0.2176822 0.09335038 -0.0045222626 -0.0064791804 0.052523263 -0.085447714
-0.050067488 -0.05056403 -0.09632297 -0.07340441 0.03065791 -0.036170527 0.08095685 0.06717914
0.027227588 0.0641495 0.058212884 0.049611334 -0.019250706 0.34975794 -0.03135316 0.024038017
0.009842433 0.7118205 -0.013564533 0.033201855 -0.014900793 0.051485047 -0.016264189 0.105718635
0.032773077 0.011125133 0.0708417 0.0019123843 0.00030797615 0.011905168 0.021164276 -0.0111117875
0.0022637984 0.02063708 0.020151248 -0.016977068 0.03772383 0.0077324715 -0.008630184 -0.008069318
0.0008132591 0.00435884 -0.00885928 0.012548253 -0.0421767 -0.049176782 -0.007964546 0.00015344471
0.028134404 -0.012489617 -1.5202566 -0.079478756 -0.018361691 0.11280953 0.061667126 0.020541469
0.014494478 0.34775993 0.114125215 -0.102103874 0.2818172 0.08578575 -0.13219327 0.08803263
-0.046812814 -0.18890783 -0.033284318 0.024062721 0.019413212 -0.021618035 0.090862274 -0.09840399
0.10915155 -0.112495266 -0.048734836 -0.120361224 0.07875871 0.24635436 -0.052727833 -0.0015884613
-0.061259396 -0.05064442 -0.037866525 -0.52822196 -0.06532211 -0.108100645 0.16613814 0.01959715
-0.11306421 -0.004520069 0.16521537 -0.060482915 0.189854 -0.27219945 0.096425906 0.029586114
-0.090943426 0.09975582 0.038862295 -0.13739915 -0.027730051 -0.2508065 -0.13963757 0.09314127
0.07747848 0.080567256 -0.091017015 -0.17202155 0.034197368 -0.116356425 -0.21763754 0.033409636
-0.21738444 0.040762194 0.05104312 -0.0585858 0.20227382 -0.091354765 0.26175702 0.14843287
0.1560331 -0.111679025 -0.024607182 0.016716128 0.09794775 -0.17912698 -0.18578996 0.022116521
-0.1313783 0.10332061 0.062092077 -0.17971095 -0.16405432 0.072547734 0.098841436 0.12649795
0.08563965 -0.08762075 0.05335941 0.0038278145 0.078563996 0.101822935 -0.22116338 0.1156626
0.05070405 -0.19305731 0.02950482 -0.008684988 0.04377377 0.14579783 -0.24436943 -0.05237736
0.32823616 -0.019807462 -0.00388916 0.11366235 0.030460538 0.05254697 -0.062715776 -0.33244848
0.12946174 -0.019584682 0.024210198 0.16409762 0.029004833 -0.31299922 -0.012345309 0.0052486733
0.033247143 0.051624898 -0.023112318 0.02639153 -0.018635387 0.06730536 0.06191989 -0.07283168
-0.054455873 -0.047840424 -0.023244664 -0.029274024 -0.039215542 0.05319336 0.5647063 0.3195786
0.07386642 -0.43229464 -0.032588266 0.06945972 -0.0797329 -0.039908256 0.08931165 -0.2577653
-0.38725328 0.14092907 0.073696926 -0.11391736 0.11626202 -0.07606118 0.097709745 -0.014450281
0.0020076933 0.07783763 -0.08727885 -0.17697911 -0.027322723 0.073156446 -0.056893382 0.05310358

fcs1.bias f4 [256]
00000000: ed90 0a3e 809c 29be 9106 59bd ac81 863d
00000010: be95 ee3d 63be bc3d a3b8 c9bd 69ff 4c3d
00000020: eecd 193e d5db 65bd 209d 3ebd 8d59 bbbc
00000030: 4f92 20bd e214 193e eb20 83bc 2ae6 21be
00000040: a4b1 bb3c bbf4 c5bc 1d3c cf3d 7935 1f3e
00000050: 7877 debd 0cb9 8bbd a0c2 94bc 260c 053e
00000060: 9e41 2fbe 05ce eb3d 2d40 203e 4882 1a3d
00000070: f5dd bdbd 2fe3 2e3d 387f e2bd 8912 e83b
00000080: 309d 1a3e 600a 0bbe 0969 1d3e 985b ae3d
00000090: 5dc8 db3d c292 03be 9399 48bd 9b46 063e
000000a0: d953 05be fb69 193e f8d5 55bd 211d 28be
000000b0: 36cf 053e 8c28 163d ce41 743c f3aa b339
000000c0: 2a37 b1bd e57e 65bd 03bd 0d3d 262e e53c
000000d0: c469 4a3d af49 563d e21b d93d de37 e53d
000000e0: c38d bf3d 8b67 e03c 987e cebd e250 153e
000000f0: 3ffc 403d a078 c1bd 9f72 12be c4c3 8abd
00000100: 2426 323e 1b52 f33d 6a58 b3bc 18a6 e9bd
00000110: b811 fe3b f97b 28bd 263a 883d ea0d 1dbe
00000120: 626a 813d c817 b63d f3ef 1a3e 0000 1c3e
00000130: 577b 85bd 8754 52bd b766 2e3e a7c5 d93d
00000140: 51ed 97bc 1cec 15bd 33df b5bd 5a4e 94bd
00000150: d75c 9b3d 5942 7a3c 49e0 3e3d b622 6b3c
00000160: 82fd 2a3e 5ac8 1a3d 5eb5 2dbe 7c3d 993d
00000170: 215b ce3d 8ce5 dabd fc7d 983d e310 573d
00000180: 80b3 9ebc 31fe 24be 2152 74bd c26e 943d
00000190: e813 173e 3d89 9c3d dbe1 a9bd c352 d2bd
000001a0: 3c22 cdbd 488c fa3d 2d55 93bd 0089 02be
000001b0: ac4c dabd 0ded 313d 40e8 a43c 93d1 1d3e
000001c0: b1a6 8d3b 9c51 e5bc d620 a8bd 8ed7 d7bd
000001d0: 308b b5bd 1b8e 013e 8e30 c2bc 00c2 b6bd
000001e0: 460e f9bc bd7f 03be 6582 f0bd 077b b6bd
000001f0: be69 a63c dc37 aebd 295b 04be 2b76 b83c
00000200: 990b e73c 5aef 8c3d 33ed 06bc 5cc9 86bd
00000210: 05dd cf3d 4711 33bc 366b fb3d c45f c9bd
00000220: 05ca c63c ea09 1b3e 9355 b2bc 3b79 98bd
00000230: 0add dc3c cc00 d4bd 6218 693d 31cb cbbd
00000240: 2e08 273e 7080 203e 775f 903c 915c ab3d
00000250: 0dcc 4abd bac7 1c3d 8c2e 2cbe 540e 37ba
00000260: 36d1 163d c559 9f3d 8c52 e83d 3298 7cbc
00000270: 61a8 1cbe 91bb f0bc 0367 7e3c 8a54 d23d
00000280: ae88 1ebe 7ffc 0c3e 4acf 063e a390 a73d
00000290: dbe4 2bbe cd6f 32bc f69e 753d b8ce d1bd
000002a0: b9a5 963d d424 81bd e278 00be 6e36 a13c
000002b0: 149a b13c 13f0 4d3d 7b62 97bd 5e5c f03d
000002c0: ed74 34bd c750 293e 2b39 d1bd 52ce aebc
000002d0: 5aea 6a3d 85fd e03d 5cda 153e 7a1a 423d
000002e0: 65dc d4bd 6c1a a13d 5723 7abd 3a36 233e
000002f0: 41df 10bd 6d31 0ebd 4419 e3bc 3130 013e
00000300: f98a 92bd ac86 9abd 15d5 2abe c2d1 fcbd
00000310: 1771 063e be7e 1fbe d563 a4bd 2058 f83b
00000320: deff b6bd 2836 72bc 198c 043e 5ef8 dd3d
00000330: 8798 083d 8eab beba 27e4 f3bd 95e7 8b3d
00000340: 67cd 9b3d f3dc 7fbd e957 babd 7032 cf38
00000350: 8ce9 0c3e 2d05 f4bd f427 aa3d 5549 e3bd
00000360: 26e4 1cbd 0c6e 2abe d235 223e 456b c03d
00000370: b34e 8bbc cdd4 12be 6a9b 08be 5bd9 4bbd
00000380: a3a6 143d adfc 033e e53c a53d d16f 233e
00000390: 1b41 b73b c556 2b3e d03e a03d f29b 1b3e
000003a0: 8451 2fbe 2ee0 713c 6a40 8d3d bf19 b73c
000003b0: affe 263e 7b6b 683d 0d06 313e 84b1 30be
000003c0: 9005 283d 4ba9 ecbd 0a4a 663d 75e7 2ebe
000003d0: 70e9 ffbd dc5f 293e 0117 7e3c 4b57 0f3e
000003e0: d0a2 2abe 50b5 123d f34c 42bd f125 5abd
000003f0: f524 b03d b3d8 c1bd 2443 eabd f9eb aeba
0.13531847 -0.16563606 -0.052984778 0.06567702 0.11649655 0.09216001 -0.0984967 0.050048266
0.15019962 -0.05611785 -0.046536565 -0.02286985 -0.03920203 0.14949372 -0.016006907 -0.15810457
0.022911854 -0.024164548 0.101188876 0.15547742 -0.108626306 -0.06822404 -0.01815921 0.12992916
-0.17114875 0.115139045 0.15649481 0.037721902 -0.092708506 0.042697128 -0.11059421 0.0070822877
0.15099025 -0.13578176 0.15372099 0.08513564 0.10731576 -0.12848952 -0.048974585 0.13112871
-0.13020267 0.14981835 -0.05220601 -0.16417362 0.13067326 0.036659762 0.014908267 0.00034268908
-0.086531 -0.05602922 0.034604084 0.027976107 0.049417272 0.052316364 0.10601021 0.111922964
0.09353211 0.027393123 -0.100827396 0.14581636 0.04711556 -0.094468355 -0.14301537 -0.067756206
0.17397362 0.11880895 -0.021892745 -0.11408633 0.007753577 -0.041133855 0.06651716 -0.15337339
0.06319119 0.08891255 0.15130596 0.15234375 -0.06517666 -0.051350143 0.1703137 0.10633402
-0.018545778 -0.036602125 -0.088804625 -0.07241507 0.07586067 0.015274608 0.046600614 0.014351537
0.16698268 0.037788726 -0.16963717 0.0748243 0.10075975 -0.10688314 0.074459046 0.05250634
-0.019372702 -0.16112591 -0.059648637 0.07247688 0.14753687 0.076433636 -0.08295032 -0.10269692
-0.10016295 0.12233788 -0.0719398 -0.12747574 -0.10659155 0.04343896 0.020130277 0.15411977
0.0043228497 -0.027993016 -0.08209388 -0.10539161 -0.088644385 0.12651865 -0.023704793 -0.08923721
-0.030402314 -0.12841697 -0.11743621 -0.08910184 0.020314094 -0.08506748 -0.129254 0.022517284
0.028203772 0.0688159 -0.008235264 -0.06581375 0.10149578 -0.010929412 0.12276308 -0.09832719
0.024266252 0.151405 -0.02176932 -0.07444998 0.026960868 -0.103517145 0.05690802 -0.09950865
0.16311714 0.15673995 0.017623646 0.08367265 -0.049511004 0.03827641 -0.16814631 -0.0006983031
0.036820613 0.07780794 0.113438696 -0.015417146 -0.15298606 -0.029386314 0.01552749 0.10270031
-0.15481827 0.13768195 0.13165012 0.08181884 -0.1678652 -0.010890913 0.05996605 -0.102445066
0.07355828 -0.063058525 -0.12546113 0.019679274 0.021679915 0.05027778 -0.073918305 0.11736368
-0.04405682 0.1653472 -0.10215982 -0.021338616 0.0573524 0.10985855 0.14634079 0.04738853
-0.103935994 0.07866368 -0.06106886 0.15938655 -0.03536916 -0.034715105 -0.027722009 0.1261604
-0.07155413 -0.07545218 -0.16682847 -0.12344696 0.13129078 -0.15575692 -0.08026854 0.0075788647
-0.089355215 -0.01478342 0.12944068 0.10838388 0.033348586 -0.0014546977 -0.11908751 0.0683128
0.07607537 -0.062466573 -0.09098799 9.879924e-05 0.13760966 -0.1191505 0.08308402 -0.11097971
-0.038303517 -0.16643542 0.15840843 0.0939546 -0.0170053 -0.1433899 -0.13340536 -0.049767833
0.03629173 0.12889357 0.08068255 0.15960623 0.005592478 0.16732319 0.078244805 0.15196207
-0.1712094 0.014762921 0.06897052 0.022351144 0.16308092 0.056743126 0.17287464 -0.17255217
0.04102093 -0.115557276 0.056222953 -0.17080481 -0.124956965 0.16540474 0.015508414 0.13998143
-0.1666367 0.035817444 -0.047436666 -0.05325884 0.08600799 -0.0946516 -0.11438587 -0.0013345472

bn1.weight f4 [256]
00000000: b210 163f 830b 403f d4f8 7b3f ba33 fd3e
00000010: c8bf 3a3f cd8a 353f e770 473f 5a89 3d3f
00000020: bc54 253f 6514 0c3f df48 8b3f 2d60 493f
00000030: fda2 633f ad32 cc3f 122d 333f 6a1c 0f3f
00000040: 15e5 693f 2c6b 613f 689f 073f 6fc9 2f3f
00000050: f9a8 4d3f e4d3 2d3f a04b 023f 9038 033f
00000060: bd19 573f 4d7c 2c3f 3823 6a3f 5d5f 5f3f
00000070: e1de 0b3f 5bef 313f 83b9 323f d0b5 283f
00000080: baa1 2f3f e5b4 a53f e29c 2a3f 1201 f13e
00000090: 3609 293f 6629 fc3e 96f7 343f 0e82 573f
000000a0: 388d 113f 844f 323f 3a3d 323f ba0f 3a3f
000000b0: 8567 2c3f 836c 443f 5dbb ff3e 931d 1e3f
000000c0: 845c c83f 5e7e 103f 745d 373f 3ebb b53f
000000d0: b63f 0d3f ae00 1d3f fb31 023f 0a51 3b3f
000000e0: 4760 463f ff24 263f 8722 8e3f d8dd 2c3f
000000f0: e70d a03f bf22 233f 43db 713f ceec 2a3f
00000100: dec4 243f c84c 363f e801 263f 1e3f 383f
00000110: ef0a 1e3f 8cbb 5e3f 089b 713f 9f32 973f
00000120: c215 3e3f fa62 203f e083 683f 25e6 343f
00000130: 79ff 1f3f cfe2 123f fa08 713f 610a 0d3f
00000140: 220f 483f 7e26 6e3f cd6a 1f3f a779 1d3f
00000150: 77f0 223f 560c 2b3f 1408 413f 8bd2 483f
00000160: 8e19 2a3f 306d c93f 1018 253f a1c7 543f
00000170: 52e8 023f 2851 1d3f 435c 353f 76e5 8d3f
00000180: ce46 213f 72b6 353f 2fe5 3e3f cfb0 393f
00000190: 9d99 503f 4a42 283f 26f6 733f b198 1f3f
000001a0: c0f1 2c3f 1963 0c3f b908 1e3f cd92 1f3f
000001b0: b9f9 1b3f b806 0c3f df0f 453f 2606 173f
000001c0: 6d05 433f 26b4 1c3f 0633 243f ef15 683f
000001d0: 5a96 173f 5588 893f 4bad 123f 6a7d 523f
000001e0: 4c6a 573f 2093 1d3f 9585 183f e72a 703f
000001f0: 7be6 8c3f fba3 193f 1f29 2c3f 7026 063f
00000200: 5b23 173f e81b f33e 35ab d13e e48f 043f
00000210: 24ca 833f ef48 743f d5e6 063f 4f9d bf3e
00000220: aacf 903f d3bc 8f3f ea22 313f 7af9 053f
00000230: 2f74 2e3f 215d 423f 8006 823f f102 fd3e
00000240: 8a46 383f 50c9 ef3e d53a 123f 2d66 f03e
00000250: a97f 073f 0e11 163f 1b0d 1e3f 16d5 253f
00000260: 0f8c 4c3f b479 2c3f d2aa a63f fa1d 473f
00000270: b2cc 2e3f 8288 293f b776 213f c154 1a3f
00000280: 9b0e 9b3f c57a 833f d53b f63e 80ba 263f
00000290: 3ee5 333f d7af 343f 14d2 133f 0a24 273f
000002a0: e63b 143f 76c2 3c3f 35d1 553f 6ee2 013f
000002b0: 4811 553f 132e 0b3f 5880 1e3f 518f 1d3f
000002c0: 5e9e 033f 660b 3a3f bde5 333f d558 0a3f
000002d0: 5ca6 063f a9d7 333f d5f3 2b3f c59b 2a3f
000002e0: 72e3 463f 9323 133f b416 093f 72e3 853f
000002f0: 10ee 6a3f 6360 a13f b222 483f a890 e63e
00000300: 9ff1 193f 0610 193f 3cd3 0c3f 2540 833f
00000310: 12ef 3e3f 2ce1 403f 46a0 613f f4ce 1d3f
00000320: 249d 133f 9314 133f 6b1d 1f3f 27ae 9b3f
00000330: 7c2e 5f3f 062e 1a3f bf5f 4f3f be7f 083f
00000340: af93 203f 5221 273f abc6 173f 5d3f 253f
00000350: be20 3a3f f8d6 fc3e 830e 003f 1c43 ec3e
00000360: a615 6a3f 3898 093f b19b 223f 2b28 163f
00000370: 4224 073f d7e4 353f 93c7 073f 8cb7 063f
00000380: d340 183f fbca 5a3f 8dc3 383f 7d3b 2a3f
00000390: 9b2a 573f 86a2 2e3f 5bd6 203f d1a2 c03f
000003a0: 9ebc 2a3f fde1 a13e ae68 0b3f b31b 443f
000003b0: 4dfb 2e3f 180a 803f 7f88 f23e b9cc 363f
000003c0: 8742 3a3f cb02 823f c4e4 6b3f 332a 433f
000003d0: e91b 213f 5a9b 343f f7ac 243f bafb 073f
000003e0: b5a1 233f 5de8 283f f7f4 483f bf83 013f
000003f0: ca5f 133f 2263 073f 063e bf3f c33a a63f
0.58619225 0.75017565 0.98426557 0.49453527 0.72948885 0.7091492 0.7790665 0.74037707
0.6458242 0.5471862 1.0881613 0.7866238 0.88920575 1.5952965 0.69990647 0.5590273
0.91365176 0.88054156 0.5297761 0.6866674 0.80335957 0.67901444 0.50896645 0.5125818
0.8402365 0.6737717 0.9145999 0.8725489 0.5463696 0.6950585 0.6981432 0.65902424
0.6860615 1.294583 0.66645634 0.4707113 0.6602968 0.49250335 0.70690286 0.8418282
0.5685611 0.6965258 0.69624674 0.72680247 0.6734546 0.76728076 0.49947634 0.61763877
1.5653234 0.5644282 0.71626973 1.4197767 0.5517534 0.6132916 0.50857514 0.7317053
0.7749066 0.649002 1.1104287 0.67526007 1.2504243 0.63724893 0.9447519 0.66767585
0.64362895 0.7121091 0.6484666 0.7197131 0.61735433 0.87004924 0.94377184 1.1812323
0.7425195 0.62651026 0.90826225 0.7066367 0.62499195 0.5737733 0.9415432 0.5509396
0.7814809 0.93027484 0.6227234 0.6151375 0.6364817 0.668157 0.7540295 0.78446263
0.66445243 1.5736446 0.6448984 0.8311711 0.5113574 0.6145196 0.70843905 1.1085651
0.62998664 0.70981514 0.74568456 0.72535414 0.81484395 0.6572615 0.9529747 0.62342364
0.6755638 0.5483871 0.6173206 0.62333375 0.6092792 0.5469775 0.7697734 0.58993757
0.76180154 0.61212385 0.64140356 0.9065847 0.59213793 1.074473 0.57295674 0.82222617
0.8414657 0.6155262 0.5957883 0.93815464 1.1007837 0.6001584 0.67250246 0.524024
0.59038323 0.47482228 0.40950933 0.5178206 1.0296063 0.9542379 0.5269597 0.37424704
1.1313374 1.12295 0.691939 0.52333796 0.6814603 0.75923353 1.0158234 0.49416307
0.71982634 0.46833277 0.5712102 0.46952954 0.5292917 0.58619773 0.6173875 0.6477827
0.7990121 0.67373204 1.302088 0.77780116 0.6828109 0.6622392 0.6307177 0.60285574
1.2113832 1.0271841 0.48092523 0.65128326 0.7027167 0.7058081 0.5774243 0.65289366
0.579039 0.73734224 0.8352235 0.5073613 0.83229494 0.5436718 0.6191459 0.6154681
0.51413524 0.7267364 0.7027243 0.54041797 0.52597594 0.70250946 0.67168933 0.66643935
0.77690804 0.57476157 0.5355027 1.0460036 0.91769505 1.260754 0.7817794 0.4503224
0.6013431 0.59790075 0.5500982 1.025395 0.7458354 0.75343585 0.8813518 0.6164391
0.5766165 0.5745327 0.62154263 1.2162522 0.87180305 0.60226476 0.8100547 0.5331992
0.6272535 0.6528522 0.5928752 0.6454981 0.7270621 0.49382758 0.50022143 0.4614495
0.9143928 0.5374789 0.63518816 0.5865504 0.527897 0.71052307 0.530389 0.5262382
0.59473914 0.85465974 0.72173387 0.6649702 0.84049386 0.6821674 0.6282708 1.5049688
0.66694057 0.31617728 0.54456604 0.76604766 0.68352205 1.000308 0.47369763 0.7140613
0.7275776 1.0157102 0.92145944 0.76236266 0.6293321 0.7054955 0.64326423 0.5311848
0.6391862 0.6597956 0.78498787 0.50591654 0.5756804 0.5288564 1.4940803 1.2986683

bn1.bias f4 [256]
00000000: c40f 19be 61e2 efbe 0846 2dbf b6da 9b3c
00000010: 3ee9 e4be b326 e2bd 0aca fcbe af7b d8be
00000020: 83d6 47be a575 8ebe 6fe8 283e b95f f1be
00000030: 03c5 0cbf 1b31 0d3e 2042 d6be 4674 573e
00000040: 05f8 00bf 4aae e5be a6a2 48be 518b 6c3e
00000050: 3ead dcbe 5f22 fdbe ce03 17be bb79 e8bd
00000060: 20b0 10bf dc27 0fbf c033 dbbe ff23 03bf
00000070: f52b 023f 6269 d2be 95e6 9abd 3f9b a13e
00000080: 3bc6 d5be 5e5d aebe 3f38 15bf 78b6 953d
00000090: 8670 16bf b4a7 c8ba 42f5 ebbe aa6d cbbe
000000a0: e45c 8cbe 6418 8ebe 00d9 9f3c 57fb 79be
000000b0: e5de 03bf 2eb3 a8be 877a d0bd 2b71 a5be
000000c0: 101d 20be cebf c0be d29c 0cbf bf86 8abe
000000d0: 565e ccbe aad8 adbe 77c6 863d d319 bdbe
000000e0: 085f d5be 85fb f6be 8f9a 02bf 95a1 debe
000000f0: bbeb 43bf a497 df3e a22f 17bf 7b79 04bf
00000100: 479e b9be 0b90 6dbe 307e 00be f312 babe
00000110: d24b a9be 1cfa 41bf 8e7b 22bf 32ed c9be
00000120: 1226 13bf d0a7 85be c29f 11bf 297d e2be
00000130: 0d17 5abc 8bd5 693e a831 03be f60f bbbd
00000140: 5cbd 32bf 9331 14bf 57ae b5be 3483 fabe
00000150: d0c7 0ebf 74ae 9bbe 4f5a 49be f54e 3ebf
00000160: 4f7e 92be b5a6 d1bd 2a70 c1be 81db 94be
00000170: 8b6d 52bd 5424 cabe 26c5 25be bbbc 45bf
00000180: 81f4 b6be b84c dfbe 416e 32bf 8a72 4bbe
00000190: daf8 f5be 6018 f7be ffe6 06bf 0daf 1d3e
000001a0: 3d08 b4be 1514 40be 4fbb 0ebf a4c6 b83d
000001b0: ec51 d7bc cd3c 98be 7702 00bf 963c b1be
000001c0: 1d52 3cbe 222c 0ebf e8e9 2dbe faf4 8bbe
000001d0: f1ba 6bbe a673 febe d24c 463b 88dd 06be
000001e0: fea8 15be 79f9 e1be c79d 54be 68c6 9dbe
000001f0: 4135 2abf 2325 7abe 1270 e7be 2ad1 a1be
00000200: f43b 5abe 8ff7 a7bc 2a84 aa3e af7f d6bd
00000210: 68c4 04bf dcc8 34bf bfdf d8bc a792 39bd
00000220: a7fd 13be e900 08bf 4144 f9be cc0e 82be
00000230: 438e 21bf 5483 18bf 9e2a 61be 83aa 363e
00000240: 3a69 e0be e703 5b3d bac8 893e 9982 d6bb
00000250: ab8b a53c 85c1 93bd 4a71 3cbe 4c80 1cbf
00000260: 12b6 e7be 9f81 b4be f2bf 99be 23ef 19bf
00000270: 5dd2 27be bebf acbd 091f 13bf 8162 36be
00000280: da0c c3be d7bb aabd cf1a 1dbf 6cdd 08bf
00000290: b9d3 543e 6601 f5be d610 71be ac56 ebbe
000002a0: c6a7 a6be 7530 eabe d2a4 0cbf caf5 813d
000002b0: aebe fd3d 5043 f5be be9e 61be 6f38 cbbe
000002c0: 0184 96be 1085 eabe 9848 a5be cc57 04be
000002d0: 3910 3dbe f5e1 90be 0396 f6be 88ca b0bd
000002e0: 8c89 17bf 2f14 0cbe cf9c 10be fb25 10bf
000002f0: 5288 fdbe 9dd9 3d3d 8144 d7be 20c2 8b3e
00000300: 5646 a7be 7504 8abe 1599 bdbc 292a 1fbf
00000310: 5202 a3be 7e58 afbd 12db 88be 4280 c8be
00000320: ea3e 1abf 96ee babd 42d7 f1be ef03 283e
00000330: d1c1 12bf b9c2 a0be 6a6b 03bf f550 bb3e
00000340: 83fb f9be 8814 b53e 198f 31be 79ff 4fbe
00000350: e5a3 bdbe 8175 3fbe e15c d43d 609f 1dbe
00000360: 5190 96bd 2b6c 03be 0b8c dbbc 8cc4 d6bd
00000370: 187d 2f3d 2633 c5be b702 55be 2eed acbe
00000380: 7203 a1be 9e53 acbe 0aba 23bf 9f97 67bc
00000390: 020d 09bf a968 09bf 4951 82be 0120 9abe
000003a0: 1f3f b5be 9660 403e 6f3f ec3e f334 933e
000003b0: 8477 bebe 674c 573e fff7 353f 11fb 9ebe
000003c0: 1ae3 b0be 2f28 1fbf ac57 a0bd f8a6 0abf
000003d0: 6382 f1bd c90b 11be 137d 9dbe 9c5f 80be
000003e0: 493d d4bd a891 8a3d 7844 c9be 8e24 5b3e
000003f0: 49eb 23be df09 7cbe cc79 40be eea1 8cbe
-0.1494742 -0.468524 -0.67684984 0.019025188 -0.447092 -0.110425375 -0.49372894 -0.42281863
-0.19515423 -0.2782413 0.16494916 -0.47143343 -0.54988116 0.13788263 -0.41847324 0.21040449
-0.5037845 -0.44859535 -0.19593295 0.2310002 -0.43100923 -0.49440286 -0.14747545 -0.11351343
-0.56518745 -0.55920196 -0.4281292 -0.512268 0.50848323 -0.41096026 -0.07563511 0.31563756
-0.417528 -0.3405561 -0.5828895 0.07310194 -0.5876545 -0.0015308768 -0.46085554 -0.39732105
-0.2741462 -0.27752984 0.019512653 -0.24412285 -0.51511985 -0.32949203 -0.1017962 -0.32312903
-0.15636086 -0.37646335 -0.5492679 -0.27055928 -0.39915723 -0.33954364 0.06580823 -0.36933765
-0.41674066 -0.4823877 -0.5101709 -0.43482652 -0.7653157 0.4367038 -0.59057057 -0.51747864
-0.3625357 -0.2319948 -0.12548137 -0.36342582 -0.3306566 -0.7577226 -0.6346978 -0.39438778
-0.57479966 -0.26104593 -0.56884396 -0.44236115 -0.01331116 0.22835366 -0.12811911 -0.09133904
-0.6982019 -0.57888144 -0.35484573 -0.48928225 -0.5577364 -0.30406535 -0.19663356 -0.7433923
-0.2861199 -0.10236875 -0.37780887 -0.29073718 -0.051374 -0.3948084 -0.16188487 -0.77241105
-0.35733417 -0.4361322 -0.69699484 -0.19867912 -0.4804142 -0.48260784 -0.5269622 0.15398808
-0.35162535 -0.1875766 -0.5575456 0.09022263 -0.02628418 -0.29733887 -0.5000376 -0.34616536
-0.18390699 -0.5553609 -0.1698376 -0.2733534 -0.23020531 -0.49697608 0.003025819 -0.13170445
-0.14615247 -0.44135645 -0.20763312 -0.30815434 -0.6648751 -0.24428229 -0.4520269 -0.31604892
-0.21311933 -0.020503787 0.33303958 -0.104735725 -0.5186219 -0.7061899 -0.026473878 -0.045305874
-0.1445223 -0.5312639 -0.48684886 -0.25401914 -0.631077 -0.5957539 -0.21988913 0.17838483
-0.43830281 0.05347052 0.26910955 -0.00654633 0.0202082 -0.07214645 -0.18402591 -0.61133265
-0.45256096 -0.35255143 -0.30029255 -0.6013052 -0.16388841 -0.084350094 -0.5746923 -0.17811014
-0.38095742 -0.08336609 -0.6136903 -0.5346286 0.20783891 -0.4785263 -0.23541579 -0.45964563
-0.32549876 -0.45740095 -0.54938996 0.06345709 0.12389885 -0.47902918 -0.22033212 -0.39691493
-0.29397586 -0.45804644 -0.32281947 -0.12924117 -0.1846322 -0.28297392 -0.48161325 -0.0863238
-0.59194255 -0.13679574 -0.14122318 -0.56307954 -0.49518067 0.04635011 -0.42044452 0.27296543
-0.3267085 -0.26956525 -0.023144284 -0.62173706 -0.31837708 -0.085618004 -0.26729637 -0.39160353
-0.6025225 -0.09127538 -0.4723454 0.1640775 -0.5732699 -0.31398562 -0.51335776 0.36585203
-0.488247 0.35367227 -0.17339744 -0.20312299 -0.37039104 -0.18697168 0.10369278 -0.15392828
-0.07351745 -0.12834232 -0.026800176 -0.10486707 0.042843908 -0.38515586 -0.20801817 -0.33774704
-0.3144794 -0.33657545 -0.6395575 -0.01413527 -0.53535473 -0.53675324 -0.2545264 -0.30102542
-0.3539972 0.18786845 0.46142146 0.28751335 -0.37200558 0.21025239 0.71081537 -0.31050923
-0.34548265 -0.6217069 -0.07829222 -0.54161024 -0.117924474 -0.14164652 -0.30759487 -0.25072944
-0.10363252 0.06766063 -0.3931005 0.21400663 -0.16007723 -0.2461314 -0.18796462 -0.27467293

bn1.running_mean f4 [256]
00000000: 3d89 07be af39 3abd d264 7bbd 14c3 993e
00000010: 1982 db3e 540b 353e ba0b 42bd f584 613f
00000020: 95a2 d93e 1429 76bf e071 a43e a89b 46be
00000030: c60b b9bd fa3b 323e 04e9 af3f fe7d 2dbe
00000040: 0be0 07be e4bf ad3e d750 20be 83d6 523d
00000050: 0111 26be 4890 193e 51ba 9b3e d658 c93f
00000060: d146 acbd 0885 12bf 4e75 b93e b2c2 52be
00000070: 10f3 e33e 6613 0dbe f3f6 b1bd b3a6 67be
00000080: 07a9 b93e bdbc febc 4674 00be e691 87bf
00000090: c014 fabe 1e06 c73e 8b75 e4bd 9426 18be
000000a0: e547 91bf 7b41 6d3d 4d6b c0be 2d78 97bd
000000b0: c2bc ffbe be03 943e 3585 a93d c14c febe
000000c0: b18d d5bd 6834 40bf c5e7 233f 8163 533e
000000d0: 075b 27be 1a15 553d 86f3 f6be 4a0c b3be
000000e0: 07f4 e53e 6386 ab3d 751d 25be b9d2 1ebd
000000f0: c237 193e 3986 333d e69f 10be 0b23 a5be
00000100: 0416 4c3f 5061 ce3d 8a61 ffbe d48e 06bd
00000110: 4c01 033f 3842 86be 6862 703e a2dc 7ebd
00000120: 78dd 7cbe c12e 873f e24c 9a3e 36da a2be
00000130: d3b8 75be 15f8 5c3e bfb7 663d 74e3 49bf
00000140: 8b22 89be b981 9abe 12b7 d93e 6af2 7ebf
00000150: b500 da3e b1e8 2ebf 3e73 5abe 508b 563e
00000160: bc2c 453e 46aa 96bc 6ded c2be 5d8a 7a3e
00000170: 3f7a e03e 0fb3 89bf 51e2 473e be0d 2a3e
00000180: 26bb 07bf 27e3 3bbf 3015 913e 5149 d5bd
00000190: 0b20 a6bc fc0f df3d 02ba 0b3f 9292 aa3e
000001a0: 3c6b 83bf abdd 0fbe 19e3 d6be c15c 70be
000001b0: ade0 393d 3ffd 82be b05f 98bd 567b 5a3e
000001c0: 784f a8bd bff7 a0be 9631 c9be b371 a03d
000001d0: 55c7 95bd fe4a 283e ece6 2abe 3b61 eabb
000001e0: 08f3 b4be 2517 c1bc 05a3 b63d e4e4 143c
000001f0: 0a8a ca3d 1d16 3a3e bf21 b0be 4421 2abf
00000200: e50e 043e 41f4 fb3c c04a 4cbd 8936 e53c
00000210: 0e6c 60bd 736a 433d 5e86 4bbf cf6b f53c
00000220: 93c1 bdbd 6baf 503e 4f72 debe 6a26 53bf
00000230: e622 af3f 721c 54bf 4d6b 463e 95c4 f2bc
00000240: 3722 483f d092 843f dce5 1d3f df8b 573e
00000250: ab87 023f ba7e 58be 26cb 74be d16b 2bbc
00000260: 0d30 4dbe 655a 173d 755b 7e3e ec4b 123e
00000270: da00 15bf ccc3 0abf 5df2 703e ace2 013f
00000280: 0199 cebd efb0 193e 58b0 7dbf 8398 b5be
00000290: 6438 d43e 9074 843d e602 a23e a331 35bf
000002a0: 4a2a 9d3e dafd 8dbd 2113 92be 7a1b 843e
000002b0: 0e33 0e3f 583d 153f a4ae 613f ea00 6e3f
000002c0: 67d7 d2be 610a da3e 37fb 24bf 7fda 4bbf
000002d0: 41ed 1ebf 4d41 bdbd 04f1 69bf ee46 f53e
000002e0: 7d69 a03e 7494 d23e a746 c2bd 0773 633d
000002f0: d538 593d a864 53be 129a 1f3e 598a 3ebe
00000300: 541c 10bf eacf e63e 5884 2bbf fa5c 3fbd
00000310: 23f7 47bf 2a6a e73d 680c 383e 3920 403e
00000320: 6aa0 b23f 7113 d43e 0ddc 92be f2fe 3f3e
00000330: 2974 003e 0599 bbbe 600b 17be bb4b 773d
00000340: c04a 393e 105e 313f cc3d f53e 86a3 8c3c
00000350: 4377 aa3e f252 9dbf ac3e 803f 796a 68bf
00000360: 2a8f aabb a583 0fbf b35a 2cbf b531 44bd
00000370: 9701 2bbe c3b1 133e 68e0 953f abca afbe
00000380: 2c90 86be f18d 0ebe f8fe 21bd 3f2e 9abe
00000390: 9993 5d3e fdc7 d63f 8cd0 afbd 9eed a73e
000003a0: 5a2a b53e 7ecf b83e 255f 60be 7f96 4bbe
000003b0: 20b6 893e ec68 b03d 4b89 75be 613f 42bf
000003c0: 951b ddbd aa11 93be bef9 923e aad7 d4bd
000003d0: bdf3 c13d b66f 3a3f f6e4 88bd f076 503e
000003e0: 8567 74be b48e a0be 12db 0ebf 5fcf 7ebd
000003f0: a2b3 12bf a184 22bf 5f42 edbd 5e4b d7bd
-0.13235946 -0.045465168 -0.061375447 0.30031645 0.42872694 0.17680103 -0.047374465 0.880935
0.42506853 -0.9615643 0.3211813 -0.19395316 -0.09035449 0.17405692 1.3742986 -0.16942593
-0.1326906 0.33935463 -0.15655838 0.051474106 -0.16217424 0.14996445 0.30415586 1.5730236
-0.08411945 -0.5723424 0.3622231 -0.20582083 0.4452138 -0.13776931 -0.0868968 -0.22622184
0.3626177 -0.031095857 -0.12544355 -1.05914 -0.48843956 0.38871855 -0.11155232 -0.14858466
-1.1350065 0.057923775 -0.37581864 -0.073959686 -0.49948698 0.28909105 0.0827736 -0.49667934
-0.10427416 -0.75079966 0.6402553 0.20643426 -0.16343318 0.052022077 -0.4823267 -0.34970313
0.4491274 0.083752416 -0.16124518 -0.03877518 0.14962676 0.043829177 -0.14123496 -0.32253298
0.79721093 0.10077155 -0.49879104 -0.032851055 0.51173854 -0.26222396 0.23475039 -0.06222213
-0.24693859 1.0561143 0.30136782 -0.31807107 -0.23996286 0.21579011 0.056327578 -0.7886269
-0.26784167 -0.30177096 0.42522484 -0.99588645 0.42578664 -0.6832381 -0.21333024 0.20951581
0.19255346 -0.01839174 -0.38071766 0.24466844 0.43843266 -1.0757769 0.19519927 0.16606805
-0.5301994 -0.7339348 0.28336477 -0.104143746 -0.020278951 0.10891721 0.545807 0.3331495
-1.02671 -0.14049403 -0.41970137 -0.23472883 0.045380283 -0.25583836 -0.07440126 0.21336111
-0.082182825 -0.31439015 -0.39295644 0.078341864 -0.0731341 0.16434857 -0.16689652 -0.007152704
-0.35341668 -0.023570606 0.08917812 0.009087775 0.0988961 0.18172498 -0.34400746 -0.6645701
0.12896307 0.030756118 -0.049875975 0.027980106 -0.05479055 0.04770894 -0.79501903 0.029958634
-0.09265437 0.20379417 -0.43446586 -0.8248049 1.3682525 -0.82855904 0.1937687 -0.029634753
0.7817721 1.0357304 0.6167886 0.2104945 0.5098826 -0.21142092 -0.2390562 -0.010462717
-0.20037861 0.03695144 0.24839576 0.14286774 -0.58204424 -0.5420501 0.23529954 0.507365
-0.10087777 0.15008901 -0.99097204 -0.3546792 0.41449273 0.06467545 0.31642836 -0.70778865
0.30696326 -0.06933184 -0.2853022 0.25802213 0.55546653 0.5829673 0.88157105 0.92970145
-0.41179964 0.42586043 -0.64445823 -0.79630274 -0.6208077 -0.09240971 -0.91383386 0.47905678
0.3133048 0.41128886 -0.09486132 0.05552962 0.053032715 -0.20643866 0.15586117 -0.18607463
-0.56293225 0.450805 -0.66998816 -0.04671953 -0.78111476 0.11299546 0.17973483 0.18762292
1.3955204 0.41421083 -0.2868351 0.18749598 0.12544312 -0.36640182 -0.14750433 0.060374957
0.18094921 0.69284153 0.4789871 0.017167818 0.33294114 -1.2290938 1.0019126 -0.90787464
-0.005205055 -0.5606025 -0.67325896 -0.047898967 -0.16699825 0.1442328 1.1709108 -0.3433431
-0.2628187 -0.13921334 -0.039549798 -0.30113408 0.21638335 1.6779782 -0.08584699 0.32798475
0.35383874 0.36095804 -0.21911295 -0.19881628 0.26896763 0.08613762 -0.23978154 -0.7587796
-0.107962765 -0.28724414 0.28706163 -0.10392697 0.094703175 0.7282671 -0.06684296 0.20357871
-0.23867615 -0.31358874 -0.55803025 -0.062209483 -0.5730535 -0.63483626 -0.11584925 -0.10512422

bn1.running_var f4 [256]
00000000: 370f eb3e 5d69 8740 470d 613f 499a 0140
00000010: f7eb 8540 6fc1 7640 7c56 9d3f 48c1 2140
00000020: 0d2c cd3f ec98 f53f b2a7 d53f 824f d23f
00000030: 8dcc 593f ac50 0640 10e7 6340 812e 8240
00000040: 7c48 1440 6cd6 873f af21 cb3f bac6 4b40
00000050: 3afc 773f 66b1 363f 2754 b03f 2a92 df3f
00000060: ee00 be3f 1264 e23f 37f0 2340 f00a 5640
00000070: 06e5 2540 835f 353f 2b8e a03e 6732 4f40
00000080: ccef 4040 8aa1 f03f f441 ad3f e653 943f
00000090: 8907 ad3f bcf0 d83f 9b0d eb3e 3e2d 4b3f
000000a0: 16c9 243f 21f1 3e3f d823 6c40 977c 9540
000000b0: 2d88 ef3f 9cac bc3f f9af 8d3e 6219 c13f
000000c0: 1f94 0c40 eff4 4240 893b 833f 4aef c23f
000000d0: 8901 393f 972d 793f 8e38 1840 a2ca 7e3f
000000e0: 4cbc 3940 48fc 1840 c705 843f d8c7 f63e
000000f0: 0a0c 1440 4c15 3b40 c534 8c3f d531 d43f
00000100: 37f2 8d40 3b6e e73f 3854 7740 0dda cc3f
00000110: 0747 ed3f 8248 a73f bf74 643f 09a3 0d40
00000120: 0f80 be3f 2d9b 8e3f 9c7b a33f 306a bf3f
00000130: b989 833f 8e49 f53e c2b9 c23f ee71 843f
00000140: 0ad6 f83f 91c2 8d3f 5227 a33f 3df8 1540
00000150: 11bb ce3f 0617 0940 7505 0240 b1a3 bb3f
00000160: 9e51 8f3f 2c0f 1140 4fca 493f 1fff e040
00000170: c4e9 a53f dc41 1640 474c 8f3f bbc0 a93f
00000180: 17fa 0340 6716 a93f 1ff9 823f 6654 d23f
00000190: f4b0 823f 1f16 1940 ab90 dd3f 942b 8740
000001a0: 7fcf 813f 9961 023f e607 763f 4685 2e40
000001b0: 6a9f 023f 478c 943f b0bd 903f 9716 7d3f
000001c0: a95b a940 17ae 6d40 04b5 0d40 92e4 ae3f
000001d0: 55bb 5e40 45c4 cd3f 959b 893f 582a 9d3f
000001e0: 26ce 983f 01f6 da3f 33bf c83f 7ffd 0e40
000001f0: cca5 af3f 269b db3f e342 9d3e 2ecb 893f
00000200: 6e23 cb3f a30a 313f e147 9e3f 2db6 0f40
00000210: 441b 7c3f 929f d33f be2f d33f e9d2 1140
00000220: 3683 bf3f ce65 1640 8673 673f 79da 1f40
00000230: 04b0 6440 ca52 b93f ba17 f73f 4917 de3f
00000240: 479f dc3f 716f a73f 2904 ca3f a882 a33f
00000250: 1785 263f 3fea fe3f 9d4c 0b3f 487c 5340
00000260: 7817 883f 9f09 7e40 a508 c43f 315e c03f
00000270: c23b 2640 659a 413f d896 d73f 7746 a23f
00000280: 175c 853f d055 a03f 1f8f c13f 8ecc 2e40
00000290: 9098 c240 bed3 b93f 277a 463f a929 2c3f
000002a0: b4e4 3e3f 1af2 903f 4647 de3f 3e3f 4240
000002b0: da79 ce3f a19c 3040 1c1e 5940 e868 8b40
000002c0: 9810 1c40 c3f7 b23f 5e88 473f fd6e 293f
000002d0: 264e 0e40 f4e7 863f 84e2 863f 4b9c bd3f
000002e0: 8977 c63f bee4 4c3f 25cc 333f 2727 9c3f
000002f0: f2d5 2540 54c1 873f cc3e e13f c9de 8a3f
00000300: 21a6 cf3f 5d12 993e 854b b53f 92ac d03f
00000310: c184 2240 af63 843f 9067 cd3f e9d4 4940
00000320: 8001 9a40 157e ca3f ba78 993f 9fb1 b23f
00000330: 59b7 5240 ae37 8e3f 8fdb 643f 4e5c 963f
00000340: b17a b53f ed5b 5140 1bf3 8b40 0c89 0240
00000350: f3ba 223f 7095 d03f c4f7 ea3f 3660 0740
00000360: b71d 863f 5329 963f c0cc 8340 b85b 3c3f
00000370: e1ce 0b40 eec7 da3f 1cec 853f 6714 da3f
00000380: 0efe a13f 6b01 b63f 1d3f d73f 286c 323f
00000390: 0572 823f f0e4 de3f f483 d43f 4852 0b40
000003a0: a378 8240 8ce3 493f 7f90 7e3f 827e c13f
000003b0: e1db 7c3f c0a4 a13f d449 2240 91e7 553f
000003c0: e5fe c73f 535d 983f 7d4b ec3f 7936 0940
000003d0: 8622 0b40 3a76 5f40 4319 8a40 78ca f33e
000003e0: 34e2 3f3f c5db 5f3f 0aac d53f 6da7 143f
000003f0: 5653 423f c2cb 223f 79a6 0640 9608 0440
0.45910046 4.2316117 0.87910885 2.0250418 4.1850543 3.8555562 1.2292018 2.527422
1.6029068 1.9187293 1.6691802 1.6430514 0.85077745 2.0986738 3.560978 4.0681767
2.316924 1.0612311 1.5869654 3.1840043 0.9686924 0.7136444 1.3775681 1.7466481
1.4844034 1.7686789 2.5615366 3.3444176 2.5921035 0.70848864 0.31358466 3.2374513
3.014636 1.8799298 1.3535752 1.1588104 1.3517925 1.6948466 0.45908818 0.7936591
0.6436933 0.74586684 3.6896877 4.6714587 1.8713433 1.4740176 0.2767332 1.5085871
2.1965406 3.0461996 1.0252544 1.5229275 0.7226797 0.9733519 2.3784518 0.99527943
2.9021177 2.390398 1.0314263 0.48199344 2.3132348 2.9231749 1.0953604 1.6577708
4.4358172 1.8080515 3.8645153 1.6004044 1.8537301 1.3069003 0.8924064 2.2130759
1.488283 1.1141106 1.2772098 1.4954281 1.0276405 0.4790768 1.5212939 1.0347269
1.944032 1.1075002 1.2746375 2.3432763 1.6150838 2.1420302 2.031583 1.465933
1.1196783 2.266551 0.78824323 7.0311427 1.2961965 2.3477697 1.1195153 1.3261942
2.0621393 1.3209962 1.0232276 1.6432006 1.0210252 2.3919752 1.7309774 4.2240696
1.0141448 0.5093017 0.961058 2.7268844 0.51024497 1.1605309 1.1307888 0.98862594
5.292439 3.7137506 2.2141733 1.3663504 3.4801838 1.6075522 1.0750605 1.2278547
1.1937912 1.7106324 1.5683349 2.2342222 1.3722472 1.7156723 0.30715093 1.076513
1.5870187 0.69156855 1.2365686 2.2454941 0.98479104 1.6533072 1.6498945 2.278498
1.4961917 2.3499637 0.9041065 2.4977095 3.5732431 1.447839 1.9304116 1.7350856
1.7236108 1.3080884 1.578252 1.2774248 0.6504683 1.9915236 0.5441378 3.3044605
1.0632162 3.9693372 1.5315138 1.5028745 2.5973973 0.7562621 1.6842909 1.2677754
1.0418729 1.2526188 1.5121802 2.731235 6.0811234 1.4517744 0.7753014 0.6725107
0.74567723 1.1323884 1.7365501 3.03511 1.6130936 2.7595599 3.3924627 4.356556
2.4385128 1.3981861 0.77942455 0.6618498 2.2235198 1.0539536 1.0537877 1.4813322
1.5505229 0.8003653 0.70233375 1.2199448 2.5911832 1.0605874 1.7597289 1.0849239
1.6222574 0.29896823 1.4163672 1.6302664 2.5393527 1.0342921 1.604723 3.15362
4.812683 1.5819727 1.1989968 1.3960456 3.2924407 1.1110742 0.8939752 1.1746919
1.4178067 3.2712357 4.373426 2.0396147 0.6356651 1.6295605 1.8356862 2.1152472
1.0477818 1.1731361 4.118744 0.7357745 2.184502 1.7092264 1.046268 1.7037476
1.2655656 1.4219183 1.6816136 0.69696283 1.0191046 1.7413616 1.6602769 2.176897
4.077226 0.78862834 0.99439234 1.5116732 0.9877301 1.2628403 2.535756 0.8355647
1.5624663 1.190348 1.8460537 2.1439497 2.1739821 3.491591 4.3155837 0.4761541
0.74954534 0.87444717 1.6693127 0.5806797 0.7590841 0.6359216 2.1039107 2.063024

fc2.weight f4 [128, 260]
00000000: 9f7d 97bd f341 053e 54ef 9d3e 21a0 87bc
00000010: 1ffa c2be 4f3a adbc 9e04 b4bd 9b96 383e
00000020: 0e21 b53d 4002 b63e 293a 06bd cbe8 2f3e
00000030: 38ea 0cbe 1fb2 58be d3ce b63d 476f 9e3d
00000040: 2738 bfbd 290c 09be 75b6 bbbd 9333 c63d
00000050: 9b80 203e 4a5c 0d3e 6516 183e e54b 0fbd
00000060: c3eb bd3d 0897 933e 8cb2 36bd 3212 5cbb
00000070: 78cd 4c3d ae04 29be a961 29be 63ce 00bc
00000080: 5a42 81be 91fb dfbd 9bde 36bd cd27 9d3b
00000090: 0747 b8be 229f 753c 847b 6d3d 36da 703e
000000a0: 6dad 9fbd 3c4e 92be dbd4 95bd c4a5 863d
000000b0: 1609 d13d 7bf6 32bd bcd3 e43b 07a0 f8bd
000000c0: cf80 583c f7a8 1dbe e41d ccbd bec3 cabd
000000d0: c28f ae3b df78 383c 4b01 7e3d 5f7f 21be
000000e0: 41ab 73be aec9 dcbd 889e f939 6121 a5bd
000000f0: 44e1 8cbd a569 5e3d 114c 62be d605 d83e
00000100: 6143 86bd 003a b23d 96c4 213e b761 a2bd
00000110: 05e5 f5bd 57fc 953d 7ae6 283d d71c b63d
00000120: f348 46be dc08 0cbe 4a68 df3d 6018 b0bd
00000130: 33ae 323c 135b 62be bd08 c7bc 9ca1 863d
00000140: b180 ecbc 84bb cdbd 0608 593e 0efd e8bd
00000150: 62d8 38be b35f 20be e4ac 5ebd 02e4 1cbe
00000160: 6107 c1bc e754 813d bb1c 3dbd 2ead bc3d
00000170: 81ee 553d 1e4a 71be 9699 fdbe ecaf e1bc
00000180: b43a 1d3c d6e3 df3c 9cad 8c3b 26d6 5abf
00000190: 799f ccbd aa27 f73d a8ed 03be 4cfa c4bb
000001a0: 872f 5dbe a82d 493d faee 123d 81b7 d2bd
000001b0: 9e7f 21bc 6254 0bbd 90bd 8abd 4d7b bb3d
000001c0: 55b5 6bbd 3358 b4bd d9fb 62be 3505 57be
000001d0: 8395 a5be c650 ad3c 063e d43d 2b3f ce3d
000001e0: 8184 04be 92aa 373d 6d0d d7bd 3eb5 7f3c
000001f0: 6fe0 adbc c06e 20bd c8a5 ddbd 8401 b8bb
00000200: 7e8b 943d d9cc c63d ec8b d73d 5f3f ca3d
00000210: 9018 14bf 45c9 2f3e 6562 9cbe da22 98bc
00000220: e744 7dbd ef4d 91be 0640 023d cdec e5bc
00000230: 206c af3d d0d1 953c 08a5 58be 2ef8 c03c
00000240: f5c7 8d3d 627b 303d 81a3 d3bc 4992 d8bd
00000250: 8276 e73c 0102 58bd 3efb 97bd ac99 3fbe
00000260: 0b0b 633d 118d 9a3c 4ce5 2bbd f447 a03c
00000270: 8fb3 48bd 2b2d a63d da28 8dbe e3e8 0dbe
00000280: c0c9 903d 4d50 42be c287 d6bd 358d c73d
00000290: 0a13 173e 928b 483d 9355 823d 0de6 01bd
000002a0: 70dd 1dbe fd7c d8bd 37ea b7be 5b34 18be
000002b0: a95e 61bd f70b 043e 8dc8 f53d c0f5 d33d
000002c0: 3d21 0abe 1bb8 12be 0d99 343d bd16 86bd
000002d0: 2cd5 53bd b65c 66bd f9da 793d c364 a6bb
000002e0: 21ef 2bbd 05cd c53d 04f1 e03a a820 49bf
000002f0: c4dd d0be 41e7 0d3d ddb1 dcbd d999 22bd
00000300: cef6 9fbe 9a9c 373e a9f4 29be a07a 1a3d
00000310: bfc4 8a3d e38d 1ebe 55ae 09bf a669 1dbe
00000320: 5e2d 873e 0daa 3bbd b1e5 66be c1e3 aebc
00000330: c1cf 09bf 4ada 1fbd 6b2a 303d d40e 4a3d
00000340: 4668 6c3d f07c ae3d 8f5c 19be cb08 debd
00000350: 5138 77be 7938 75bd 2e8d 2ebe de77 643e
00000360: 30fe a3bd bc9e 4cbc d24c 00be f0b7 8dbd
00000370: 89ab 30bd 97a7 c4be 161f d53d 0615 d2bc
00000380: 4f60 dc3b 2dfc b4be a350 21be 62a4 80be
00000390: 32f3 3dbe df83 e13d ba66 4a3e cf0c aebd
000003a0: 0f5f 433e 216a 00be 7ae7 c73c c3a9 aa3c
000003b0: 6b11 a4be f065 7ebd 9daf d83d f3a4 a4bd
000003c0: cd26 b8bb 240d 43be bb70 c23d 37b2 293e
000003d0: 8559 ef3d 4ce7 103e 17e3 82bd 107b a7bd
000003e0: 7f74 d6bd bfbe c93d 6755 04be 2d30 40bd
000003f0: 5467 a93d 9d73 7cbd 240e 4ebe f0a4 70bd
-0.07397007 0.13013439 0.30846655 -0.016555848 -0.38081452 -0.021145968 -0.08789943 0.18026201
0.08844195 0.35548592 -0.03277031 0.17178647 -0.13761222 -0.21161698 0.08926167 0.07736068
-0.09336882 -0.13383545 -0.0916566 0.09677806 0.15674059 0.13804737 0.14852293 -0.034984488
0.092734836 0.28826165 -0.04460387 -0.0033580181 0.050000638 -0.16505691 -0.1654116 -0.007861706
-0.25245935 -0.10936654 -0.044645887 0.0047960044 -0.3599169 0.0149915535 0.05797912 0.23520741
-0.0779675 -0.28575313 -0.073159896 0.06574586 0.10206811 -0.043692093 0.0069832485 -0.12139898
0.013214304 -0.15396486 -0.09966639 -0.09900616 0.005327196 0.011259287 0.06201295 -0.15771244
-0.23795797 -0.10780655 0.00047611096 -0.08063007 -0.068789035 0.05429997 -0.2209933 0.42191952
-0.0655582 0.08702469 0.15797648 -0.07928794 -0.12006573 0.07323521 0.041235425 0.088922195
-0.19363765 -0.13675255 0.109085634 -0.08598399 0.01090579 -0.22105055 -0.024296159 0.06573793
-0.028869959 -0.100455314 0.21194467 -0.11376391 -0.18051293 -0.15661506 -0.0543641 -0.15321353
-0.023563089 0.06315022 -0.046169978 0.09212719 0.05222941 -0.2356343 -0.4953124 -0.027549706
0.009596515 0.02733032 0.004293157 -0.85483015 -0.099913545 0.12068112 -0.12883627 -0.006011283
-0.21600161 0.049115807 0.035872437 -0.10288907 -0.009857086 -0.03401602 -0.067744374 0.09154377
-0.05754598 -0.08805885 -0.22166385 -0.2099808 -0.3234063 0.02115668 0.103633925 0.10070642
-0.12941171 0.044840403 -0.10500608 0.015607176 -0.021225182 -0.03916812 -0.10822636 -0.005615415
0.072531685 0.0970704 0.10524735 0.09875368 -0.5784998 0.17166622 -0.3054382 -0.018571306
-0.06183329 -0.2837977 0.03179934 -0.028067017 0.08565545 0.018288523 -0.21156704 0.023555841
0.069229044 0.043086417 -0.0258348 -0.10574777 0.028254751 -0.052736286 -0.074209675 -0.18710965
0.055430453 0.018866094 -0.04196672 0.01956556 -0.048999365 0.08114084 -0.2757023 -0.1385837
0.07069731 -0.18975945 -0.104751125 0.0974373 0.14753357 0.04896123 0.06363978 -0.031713534
-0.15416503 -0.105707146 -0.3592088 -0.14863722 -0.055021916 0.12895189 0.12001143 0.103496075
-0.13489242 -0.14328043 0.044091273 -0.06547306 -0.05171697 -0.05624076 0.060999844 -0.0050779297
-0.041976098 0.09658245 0.0017161672 -0.78565454 -0.40794194 0.03464437 -0.10776112 -0.0396975
-0.31242985 0.17930833 -0.16597237 0.0377146 0.067758076 -0.15483813 -0.53781635 -0.15372333
0.264018 -0.04581647 -0.22548558 -0.021348836 -0.5383263 -0.039026536 0.043009203 0.049330547
0.05771663 0.08519924 -0.14976715 -0.10841521 -0.24142577 -0.05986831 -0.17046043 0.2231135
-0.08007467 -0.012489017 -0.12529305 -0.06919849 -0.04313234 -0.3840911 0.1040632 -0.02564479
0.006725348 -0.35348645 -0.15753417 -0.25125414 -0.18549803 0.110114805 0.1976575 -0.08498537
0.1907923 -0.12540485 0.024402369 0.020832902 -0.3204454 -0.062108934 0.105803706 -0.08039274
-0.00561986 -0.19047982 0.09494158 0.1657189 0.11686996 0.14150733 -0.0639097 -0.08177769
-0.104714386 0.09850835 -0.12923203 -0.046920944 0.082716614 -0.061633695 -0.20122582 -0.058751047

fc2.bias f4 [128]
00000000: 88a9 ba3e 841d 953e c285 2abe be72 13be
00000010: 1240 43be 81f8 ab3e 68fb 7d3e ece6 58be
00000020: a4dd 04be c2cd eabd e847 b43e c679 a03e
00000030: 8c58 e43e 356e 9bbe a606 013f 3f36 b83d
00000040: 2723 bc3c 3707 01bf 2b89 ce3e 2d8a 2ebe
00000050: 1eba 043f 7068 8abe 10a7 af3e 8140 c93e
00000060: 62a6 0d3f 4d99 47be b936 aa3e f4e7 013e
00000070: 2ef2 85be ba5e 7bbe a320 85bd c115 bc3d
00000080: 3ff7 ee3e eb55 88be 2848 2e3d d6ea 79be
00000090: a4f0 fc3e 9637 d53e baa7 c3bd 2e9b 97be
000000a0: 1dde a1be bdae 953e 2286 25bd 9803 943e
000000b0: f783 c03e ba99 9dbe 37a0 6e3e b846 873e
000000c0: abbf 97bd bf0d 72bd e8e7 73bd b17a 863e
000000d0: b07d c83e ce3e 8e3c f241 33be 662f bd3e
000000e0: fab3 0abf c106 843e 5c49 863e c169 763e
000000f0: bfc8 6fbe f5a0 9f3e adf3 a43e bbcf 9f3e
00000100: bee9 1cbe 410a 8e3c 49bf 923d 9a22 4bbe
00000110: f54d 703e 6c60 8cbd f44f 8bbd 29fc 55be
00000120: 6c63 1dbe 705e abbe 9681 fb3d 26d0 9fbe
00000130: 7611 85be 188f b83e f762 f43b dea9 ad3e
00000140: 008a ef3e 462d 24be 3f05 23be 15a5 5fbe
00000150: c61f 18bf 6a66 a03e 9f5e 69be fb7b cb3e
00000160: 9186 cd3d 92cc 91be f353 b3bd d9c4 663e
00000170: 6866 6c3e 951e 11be aa33 cf3e 283a c43e
00000180: 127a b23e 5a7f c33e 8f80 38be 939d b23e
00000190: 23ed 843e b3de c6bd fc98 f1bd ba89 31be
000001a0: c9fc c83e ef8a 76be 55cf 65be 7d93 8f3e
000001b0: 7efe 6c3b 0096 e0bd a2f0 c53e 6c4c 713e
000001c0: 01cc a8be 09fc d73e a48c bd3e 3e40 bf3e
000001d0: cda1 09be 1350 cbbe 3247 0dbd 3705 d4be
000001e0: df12 0e3e 7230 8ebe 97d4 663e b0f8 2bbe
000001f0: 6e47 89be 4336 c0bc 1165 0fbe 2eb4 ef3e
0.36457467 0.2912408 -0.16652587 -0.1439924 -0.1906741 0.3358803 0.24802935 -0.2118184
-0.12975174 -0.114650264 0.3521111 0.31342906 0.44598806 -0.3035752 0.5040077 0.089947216
0.02296598 -0.50401634 0.40339026 -0.17044897 0.5184649 -0.27032804 0.34307146 0.39307025
0.55332005 -0.19492073 0.33244875 0.1268614 -0.2616133 -0.24547854 -0.065003656 0.09183837
0.4667301 -0.2662805 0.042549282 -0.24405989 0.49402344 0.4164397 -0.09553476 -0.2961058
-0.3161477 0.29234877 -0.040411122 0.28908992 0.3760068 -0.30781347 0.23303305 0.26421142
-0.07409605 -0.05909514 -0.059547335 0.2626548 0.39158392 0.017363932 -0.17505625 0.36950225
-0.5418087 0.25786403 0.26227844 0.2406378 -0.23416422 0.31177488 0.3221716 0.31213173
-0.1532354 0.017338874 0.07165391 -0.19837418 0.23467238 -0.068543285 -0.06802359 -0.20896973
-0.15369958 -0.33470488 0.12280576 -0.31213492 -0.25989884 0.36046672 0.0074580866 0.3391866
0.46784973 -0.16032895 -0.1591997 -0.21840318 -0.5942348 0.31328136 -0.22790001 0.39743027
0.10035432 -0.28476387 -0.087562464 0.22536029 0.2308594 -0.14171822 0.40469104 0.3832562
0.34858757 0.381831 -0.18017791 0.34885845 0.2596217 -0.09710445 -0.117967576 -0.17337695
0.3925536 -0.24076436 -0.22442372 0.28042212 0.0036162431 -0.1096611 0.3866015 0.23564309
-0.32968143 0.42184475 0.37021363 0.373537 -0.13440628 -0.3970953 -0.034491725 -0.4141023
0.13874386 -0.27771336 0.22542034 -0.16794086 -0.2681231 -0.023463374 -0.14003398 0.46817154
