critic.pth (torch_old, 207822 bytes, 11 tensors)

fcs1.weight f4 [256, 33]
-0.17235723 1.3262854 -0.34838855 0.044875875 0.36322305 -0.080397606 -0.73856175 0.26495406
2.244703 0.570066 0.06667481 0.6539317 -0.48422754 1.3118348 0.109477565 1.0520258
-0.08270419 -0.20945625 0.75850827 0.42293745 -0.27114904 -0.7458364 -0.36329523 0.2502442
-0.7121169 -1.6151453 0.65556383 0.052643888 -0.11984818 0.03300879 0.040116914 0.05859925
-1.6379002 -0.8579709 0.13652757 -1.7135676 0.13091637 0.8097468 -0.28692165 -0.89060265
0.5815867 -0.28834054 -0.046028517 -0.72187793 0.2809229 0.01235429 0.81194043 -0.19275184
0.7857477 0.007827954 0.26359093 -0.61383325 0.07170931 -0.089495786 0.5022903 -0.41891196
-0.41116622 -0.7195628 0.11002472 -2.1830108 -0.011609402 -0.4116045 -0.009018585 -0.017210085
0.036797598 -1.0701002 -0.36884072 0.08577469 1.6080478 -0.55680543 0.77757293 0.28869027
1.018517 0.6522882 -0.44750768 2.307759 0.57440835 -0.29911858 1.9687887 -0.61627465
-0.4549248 -0.36913157 0.17181556 0.5078697 0.3694854 -0.44877014 -0.27433318 -1.1077465
-1.5792345 -0.32218456 -0.31797877 -0.76925415 0.4779793 -0.02637388 -0.23951373 0.013839953
0.017523536 0.030788235 1.2421206 1.1546552 0.92475 0.87072915 -0.18104717 0.32821098
0.13274948 -0.07996286 -0.5343225 -0.8385081 -1.9249985 0.3314543 0.07126928 -0.18718283
-1.1411865 -0.9185185 -0.7096081 0.05111954 -0.2893979 -0.5443361 0.10412296 -0.18978566
0.59264266 -0.044701617 -0.52187467 0.210238 -1.1254314 0.85729843 -0.03432366 -0.7875477
-0.014534183 0.013924634 0.033682905 -2.7256117 -0.43765682 1.8243873 0.2886846 0.1594578
0.2458466 -0.45516685 0.021653647 0.45844582 1.2325293 0.9425973 0.8717879 -0.1909477
-0.23660685 1.200919 -0.70851517 0.099143416 0.17710474 -0.03276751 0.23894154 -0.18583642
0.02620857 -0.29459372 -0.08676467 0.16327299 -0.34062204 -0.42672166 -0.7259697 -0.04353876
-0.7582911 0.03199155 -0.048166353 0.055627048 4.474155 -0.074411325 -0.2869898 -1.1522303
-0.17518853 -0.80882704 -0.15501131 0.2704927 -0.10151443 3.6068091 -0.32934123 0.6561096
-0.55714464 0.65531343 0.5060973 1.574507 0.9753599 0.25806728 -0.4858877 0.16386202
0.08965043 -0.47257406 -0.06362568 -0.43810135 0.13201809 1.3932025 0.17340276 0.70848453
0.051406626 0.54396665 0.058990322 -0.008756374 -0.041054934 0.10724177 -0.57330436 -2.5914068
-0.5342572 1.0278031 -0.3335973 0.2737633 0.34092876 0.12733218 1.1132045 0.7446786
-0.29867706 0.7248311 0.8148454 -0.018800164 0.49901897 0.33623597 0.28456494 -0.33755824
-0.33568415 0.26087803 0.112901405 -0.4508106 0.6178737 0.08740298 0.37017468 0.01854285
-0.3877996 0.0044123926 -1.8940787 -0.033268414 0.016565628 0.051598012 0.14108676 -1.8286691
0.06647156 -0.49322274 0.051683113 -0.043075237 0.25654605 0.038497403 -0.29444602 -0.31942534
3.0229669 -0.6428367 0.9599069 0.32762453 -0.024810366 1.1435258 -0.59243906 0.2366057
-0.04151759 -0.34245062 0.0885994 0.3701028 0.93034387 0.42902008 0.25061083 -0.2740447
00000000: 6a7e 30be b8c3 a93f fc5f b2be c4cf 373d
00000010: 5ff8 b93e 80a7 a4bd 6212 3dbf 0fa8 873e
00000020: 37a9 0f40 d8ef 113f ce8c 883d 1168 273f
00000030: acec f7be 34ea a73f c635 e03d c8a8 863f
00000040: d060 a9bd b37b 56be 992d 423f 428b d83e
00000050: 0cd4 8abe 22ef 3ebf d501 babe 0220 803e
00000060: 4b4d 36bf 15bd cebf 08d3 273f 1ea1 573d
00000070: f672 f5bd 3a34 073d a251 243d c405 703d
00000080: b7a6 d1bf fba3 5bbf e2cd 0b3e 2f56 dbbf
00000090: f10e 063e 914b 4f3f 65e7 92be 89fe 63bf
000000a0: dee2 143f 5fa1 93be 6688 3cbd fecc 38bf
000000b0: 20d5 8f3e a669 4a3c 54db 4f3f bd60 45be
000000c0: c326 493f d240 003c 64f5 863e 2d24 1dbf
000000d0: 55dc 923d 9149 b7bd 1996 003f a17b d6be
000000e0: 6184 d2be 4535 38bf a454 e13d 73b6 0bc0
000000f0: 5c35 3ebc d3bd d2be b0c2 13bc 2afc 8cbc
00000100: 14b9 163d 0bf9 88bf b1d8 bcbe a4aa af3d
00000110: 83d4 cd3f cd8a 0ebf 050f 473f 36cf 933e
00000120: c45e 823f 5cfc 263f ba1f e5be 53b2 1340
00000130: 6d0c 133f 1226 99be 4501 fc3f 2dc4 1dbf
00000140: e7eb e8be d0fe bcbe 6bf0 2f3e c003 023f
00000150: 312d bd3e 33c5 e5be 6675 8cbe a3ca 8dbf
00000160: 5b24 cabf 60f5 a4be 1dce a2be d7ed 44bf
00000170: b4b9 f43e 090e d8bc 1643 75be f8c0 623c
00000180: 858d 8f3c 9c37 fc3c cffd 9e3f becb 933f
00000190: 6abc 6c3f 1be8 5e3f 6e64 39be 450b a83e
000001a0: 7bef 073e 91c3 a3bd 5cc9 08bf 78a8 56bf
000001b0: 5a66 f6bf 61b4 a93e a1f5 913d dbac 3fbe
000001c0: 6612 92bf 0724 6bbf e0a8 35bf b962 513d
000001d0: f62b 94be 9c59 0bbf 6b3e d53d 2c57 42be
000001e0: 6eb7 173f 0b19 37bd 9499 05bf a148 573e
000001f0: 230e 90bf e977 5b3f f796 0cbd ba9c 49bf
00000200: c820 6ebc 2624 643c 16f7 093d 6c70 2ec0
00000210: 8e14 e0be 8685 e93f 78ce 933e e848 233e
00000220: 36bf 7b3e a10b e9be fd62 b13c 69b9 ea3e
00000230: 85c3 9d3f 0f4e 713f 7e2d 5f3f cb87 43be
00000240: 1149 72be b7b7 993f 4061 35bf b40b cb3d
00000250: f25a 353e 3937 06bd 17ad 743e e74b 3ebe
00000260: 5bb3 d63c fdd4 96be adb1 b1bd 0931 273e
00000270: 0366 aebe 437b dabe 26d9 39bf b355 32bd
00000280: 5e1f 42bf 9209 033d 154a 45bd 30d9 633d
00000290: 472c 8f40 f764 98bd 54f0 92be 487c 93bf
000002a0: 9f64 33be 4a0f 4fbf 49bb 1ebe 057e 8a3e
000002b0: cce6 cfbd f6d5 6640 6a9f a8be ccf6 273f
000002c0: 08a1 0ebf 9fc2 273f 988f 013f 7289 c93f
000002d0: 30b1 793f 6521 843e 46c6 f8be 72cb 273e
000002e0: a59a b73d 3af5 f1be 2e4e 82bd d24e e0be
000002f0: c02f 073e 7654 b23f 7e90 313e 3e5f 353f
00000300: c18f 523d 6641 0b3f d69f 713d e576 0fbc
00000310: 3829 28bd 93a1 db3d 13c4 12bf 9cd9 25c0
00000320: 14c5 08bf 0d8f 833f 44cd aabe b42a 8c3e
00000330: 378e ae3e 5e63 023e 7c7d 8e3f 42a3 3e3f
00000340: 33ec 98be 888e 393f b599 503f cd02 9abc
00000350: 6a7f ff3e 1f27 ac3e 7fb2 913e 6fd4 acbe
00000360: cbde abbe ce91 853e da38 e73d a6d0 e6be
00000370: f92c 1e3f 5500 b33d 8987 bd3e 2de7 973c
00000380: ab8d c6be d595 903b 2c71 f2bf 7644 08bd
00000390: a4b4 873c 7058 533d 0c79 103e d411 eabf
000003a0: 3e22 883d b187 fcbe acb1 533d a96f 30bd
000003b0: 015a 833e 74af 1d3d a1c1 96be b88b a3be
000003c0: 4a78 4140 f290 24bf 75bc 753f 67be a73e
000003d0: 1c3f cbbc 0e5f 923f 16aa 17bf c448 723e
000003e0: 590e 2abd b055 afbe 9a73 b53d 1d7e bd3e
000003f0: 042b 6e3f 85a8 db3e 1050 803e 964f 8cbe

fcs1.bias f4 [256]
-0.078608125 -0.12849928 0.17389843 -0.032440055 0.034959417 -0.018737787 0.10400244 0.008425112
-0.058444947 0.15990844 -0.048182644 -0.17088419 0.09136941 -0.027450617 0.011305178 -0.045100283
-0.016431961 -0.0006511169 -0.11876966 0.011269902 0.045608494 0.16540836 0.12147258 0.05781025
-0.09230901 0.040076725 -0.1580559 0.13939252 0.059972588 -0.15412375 0.12918259 0.02801186
0.09852919 0.14976203 -0.024120323 0.05661734 0.13303705 -0.025701499 -0.12905897 -0.092239484
0.0025394203 0.052883763 -0.09168156 -0.08135425 -0.16810513 -0.054163616 -0.03700353 0.09475541
-0.016118504 0.11209682 -0.049234465 -0.029799115 -0.1527347 0.15607545 -0.03621456 0.02685252
0.15145528 0.045100193 -0.027498968 -0.1395714 -0.009160951 0.13443784 0.022225847 0.103208765
0.0026455524 -0.14388472 -0.09859348 -0.11314867 0.10822176 -0.12144165 0.1249138 -0.013468865
0.056499314 0.16225608 0.06216174 -0.122257866 0.16030093 -0.1027006 -0.05854963 -0.0030935097
-0.009407726 0.060624953 0.06735291 0.12081096 -0.0013556136 0.14917979 -0.13787016 0.1383027
-0.07377272 -0.16916043 -0.08631611 0.0005771158 0.07902563 0.12835614 0.030697327 0.0964303
0.16318646 -0.12231422 -0.08023944 -0.13955712 -0.10638315 -0.086176306 -0.051749725 -0.006520655
-0.17218855 -0.12542741 -0.01732769 0.14602156 0.110754766 -0.16113062 -0.0047959103 -0.037199844
-0.16511166 -0.11654823 -0.0299911 -0.06758691 0.13067293 0.06495946 -0.0698764 0.061589077
0.008508506 0.12962979 0.021209797 -0.082818866 -0.0011944023 -0.055893157 -0.14586732 0.112443365
-0.057788078 0.13666902 0.11085129 -0.104364336 -0.08804385 -0.02677191 0.08676468 0.08099694
-0.045565765 0.0141875055 -0.017743524 -0.05954679 -0.13303803 0.027965872 -0.10618577 -0.011824151
-0.14342244 -0.117677785 0.07171386 0.026160117 0.011473985 0.052289747 -0.14981113 0.076911226
-0.05482485 0.0188704 -0.15544848 0.15828542 -0.1284367 0.1431632 -0.00974163 0.045902234
0.13563022 0.13488847 0.03428426 -0.09475235 -0.11744672 0.1387147 -0.12783884 -0.14898533
0.12892258 0.16390598 -0.005254334 0.15602303 0.09776484 -0.11056172 -0.058078997 0.07382407
0.008392829 -0.105193734 0.17107463 -0.17312033 -0.027190568 0.1640665 -0.08751227 -0.17360628
-0.012411049 -0.02345514 -0.15786193 0.11043901 0.12385096 0.14443459 0.03154172 0.066333145
-0.09297773 0.08057016 0.08045077 -0.005198979 0.05563671 0.045662045 -0.16232629 -0.1696334
0.09014252 0.016963772 -0.004017792 0.07219224 0.13028362 -0.1068027 -0.07015383 -0.042564746
-0.04399626 0.014533036 -0.0891735 -0.07823648 0.14302218 -0.032957632 -0.09113924 0.023582818
0.15998206 -0.04383797 0.12862837 0.008434018 0.013447146 0.09655441 0.10231977 -0.06279449
0.065838166 0.14134657 0.12863488 -0.027140237 -0.0629619 0.0016789064 -0.058822185 0.008147702
-0.09222701 0.04540055 0.017004896 -0.06727691 0.12455011 0.08043584 0.06689887 -0.12166982
-0.12016165 -0.09275145 0.07065236 0.07372492 -0.091429584 -0.016111614 0.113498226 -0.05074892
0.039437596 0.13726448 -0.16833086 -0.14428864 -0.14985386 0.16253047 0.11019855 -0.053859126
00000000: 4cfd a0bd 5195 03be 6e12 323e dddf 04bd
00000010: 9b31 0f3d fd7f 99bc 3bff d43d 7b09 0a3c
00000020: f863 6fbd 0abf 233e 2a5b 45bd 44fc 2ebe
00000030: e31f bb3d 1ee0 e0bc 5a39 393c 13bb 38bd
00000040: 529c 86bc b7af 2aba 823d f3bd 65a5 383c
00000050: f9cf 3a3d cf60 293e 9ec6 f83d 71ca 6c3d
00000060: 820c bdbd 7e27 243d 68d9 21be eabc 0e3e
00000070: d1a5 753d 9ed2 1dbe 7148 043e 2179 e53c
00000080: acc9 c93d 385b 193e fc97 c5bc 95e7 673d
00000090: dd3a 083e f38b d2bc 0928 04be 0ee8 bcbd
000000a0: 676c 263b a59c 583d 8bc3 bbbd 0f9d a6bd
000000b0: c023 2cbe abda 5dbd 0391 17bd 200f c23d
000000c0: f40a 84bc 0493 e53d 14aa 49bd 461d f4bc
000000d0: 7c66 1cbe 3ed2 1f3e b855 14bd d1f9 db3c
000000e0: 1817 1b3e fbba 383d 8445 e1bc ceeb 0ebe
000000f0: d017 16bc 13aa 093e fb12 b63c 1e5f d33d
00000100: 0161 2d3b 8456 13be 61eb c9bd 7dba e7bd
00000110: 5fa3 dd3d 66b6 f8bd ced2 ff3d 84ac 5cbc
00000120: d36b 673d 7526 263e 4f9d 7e3d 5562 fabd
00000130: ed25 243e b154 d2bd bdd1 6fbd 7bbc 4abb
00000140: dd22 1abc df51 783d 53f0 893d bd6b f73d
00000150: d8ae b1ba 96c2 183e d62d 0dbe 399f 0d3e
00000160: 2716 97bd 6438 2dbe 80c6 b0bd 9649 173a
00000170: 31d8 a13d cb6f 033e f678 fb3c 407d c53d
00000180: 5a1a 273e e17f fabd 9354 a4bd 10e8 0ebe
00000190: 69df d9bd 347d b0bd 85f7 53bd 38ab d5bb
000001a0: 3252 30be 0b70 00be cdf2 8dbc ad86 153e
000001b0: 65d3 e23d 6dff 24be 0327 9dbb dd5e 18bd
000001c0: 0813 29be d7b0 eebd e5af f5bc 026b 8abd
000001d0: 20cf 053e 7709 853d 5c1b 8fbd d444 7c3d
000001e0: 4367 0b3c acbd 043e 2bc0 ad3c f09c a9bd
000001f0: 7e8d 9cba 39f0 64bd 3e5e 15be b548 e63d
00000200: 31b3 6cbd f7f2 0b3e 0006 e33d f8bc d5bd
00000210: 5650 b4bd c450 dbbc aeb1 b13d b9e1 a53d
00000220: 2ba3 3abd b672 683c de5a 91bc 56e7 73bd
00000230: 1f3b 08be af18 e53c ed77 d9bd 15ba 41bc
00000240: 55dd 12be 0d01 f1bd b7de 923d be4d d63c
00000250: 62fd 3b3c c62d 563d 1768 19be a283 9d3d
00000260: 0690 60bd 1996 9a3c e32d 1fbe 9315 223e
00000270: e984 03be 6099 123e 5c9b 1fbc fb03 3c3d
00000280: a6e2 0a3e 3420 0a3e a76d 0c3d 850d c2bd
00000290: e887 f0bd 3a0b 0e3e 2fe8 02be 9c8f 18be
000002a0: 4804 043e f8d6 273e 8c2c acbb 80c4 1f3e
000002b0: ef38 c83d 2f6e e2bd 3ee4 6dbd 1331 973d
000002c0: 1482 093c d06f d7bd 302e 2f3e 7546 31be
000002d0: c1be debc 0c01 283e a239 b3bd d8c5 31be
000002e0: b657 4bbc fe24 c0bc 8fa6 21be d92d e23d
000002f0: 92a5 fd3d a9e6 133e e431 013d acd9 873d
00000300: 1c6b bebd f801 a53d 60c3 a43d 325c aabb
00000310: 52e3 633d 2008 3b3d dd38 26be 61b4 2dbe
00000320: a49c b83d 9cf7 8a3c afa7 83bb 86d9 933d
00000330: 1269 053e 60bb dabd d0ac 8fbd 5f58 2ebd
00000340: 6c35 34bd f91b 6e3c 99a0 b6bd 733a a0bd
00000350: 6874 123e 95fe 06bd 36a7 babd c130 c13c
00000360: 56d2 233e 718f 33bd 28b7 033e d62e 0a3c
00000370: 6b51 5c3c 52be c53d 078d d13d 669a 80bd
00000380: 29d6 863d 28bd 103e ddb8 033e 3455 debc
00000390: 2bf2 80bd c00e dc3a 88ef 70bd f07d 053c
000003a0: 84e1 bcbd edf5 393d da4d 8b3c 7ac8 89bd
000003b0: 2114 ff3d 8cbb a43d 4602 893d 072e f9bd
000003c0: 5017 f6bd 79f4 bdbd 2fb2 903d 17fd 963d
000003d0: 6f3f bbbd 81fc 83bc c271 e83d 19de 4fbd
000003e0: 5189 213d 0f8f 0c3e ed5e 2cbe 67c0 13be
000003f0: 4a73 19be 636e 263e c7af e13d 639b 5cbd

bn1.weight f4 [256]
0.7014264 0.74121064 0.5324334 0.8092178 0.55543774 0.62542707 0.85210687 0.73344445
0.8880037 0.9051657 1.1098034 0.6780415 0.5259113 0.58821315 0.8385388 0.865285
0.8629742 0.95983905 0.6059581 0.6116773 0.8272905 1.3720189 0.73080605 0.95835423
0.72193956 0.38043728 0.64993215 0.9186552 1.1205097 0.7585781 0.78910637 1.4469198
0.9857601 1.2547475 1.0311394 0.71252346 0.61074984 0.36875668 0.9397796 1.1433747
0.67323834 0.74071616 0.840544 0.74873984 0.42580763 0.4440159 0.72459304 0.5117807
0.7272931 0.8642924 0.8531417 0.8775696 0.9082818 1.2357198 0.7109638 0.58013546
0.81151843 0.85982865 0.74054974 0.9406474 0.6481772 0.7225717 0.7044557 0.84850144
0.48337385 0.95891666 0.6028068 1.1813667 0.67248654 0.56924874 1.2729008 0.82295215
0.5249444 0.7736755 0.81577086 0.7680519 0.99875104 0.6858206 0.69053423 1.0222535
0.9474431 1.0300587 0.6015395 0.7518812 0.9260771 0.6957447 0.8179928 0.80168116
0.8493874 0.50274837 0.98368376 0.6521534 0.6738141 0.7294142 0.62375444 0.99243414
0.70128477 0.775484 0.80658734 0.919937 0.77200437 0.70458 0.889933 0.5699651
0.83803505 1.1624942 0.73019755 0.6454017 0.79428625 0.54553103 0.9360789 0.8724347
0.7018375 0.593914 0.8437473 0.87849826 0.59791785 0.81707686 0.616895 0.9493995
0.63996685 0.6167142 0.78289974 0.7659789 0.6361146 0.9861564 0.68164724 0.817547
0.3795456 0.6703245 1.1106343 0.93070835 0.46803382 0.86681134 0.7502662 0.8237618
0.62758964 1.1991827 1.4982308 0.58002275 0.6681234 0.4874825 0.7815744 0.65470415
0.7736501 0.5956769 0.7810563 1.014599 0.7950057 0.590729 0.45176262 0.7428961
0.48267758 0.8549255 1.0126145 0.8614128 0.6519753 0.55311054 0.82123774 0.6737934
0.78222287 0.9880647 0.8857492 1.1019214 1.2678396 1.0243031 0.98488206 0.91692907
0.8012923 0.5649409 1.1545547 0.73367405 0.65717643 0.62262654 0.997857 0.45403144
0.8719525 0.9626691 0.85370636 0.6997976 1.0734526 0.8139378 0.8003249 0.9360198
0.55606353 0.8463499 0.63351387 0.9125672 0.62662107 0.7199108 0.9231086 0.57923836
0.67297983 0.7699015 1.0246245 0.75274974 0.6050131 1.1944406 1.0064056 0.40194672
0.7583745 0.7233947 0.6743584 0.81995404 0.74981076 0.8584131 0.82290244 0.7574811
0.9230108 0.99342835 1.009032 1.3471264 0.6654156 0.6752065 0.8863203 0.7331464
0.5290497 0.61998564 0.55747664 0.8799443 0.90693563 0.772916 0.8069463 0.6325643
0.7247326 0.9277872 0.50205547 0.75060385 0.5595473 0.5302539 0.7288134 1.1343334
0.7704776 0.641054 0.9616542 1.0085925 1.1448933 0.63463026 0.6377993 1.0127916
1.5631434 0.9701116 0.59420145 0.6757163 0.6512817 0.6350021 0.64659786 1.3173895
0.7589199 0.6684697 0.658572 0.6137867 0.52921075 0.4202414 0.9273382 0.64420795
00000000: ae90 333f fbbf 3d3f 8e4d 083f e628 4f3f
00000010: 2b31 0e3f fd1b 203f ad23 5a3f 04c3 3b3f
00000020: 3654 633f f0b8 673f 0a0e 8e3f 2194 2d3f
00000030: 1fa2 063f 2395 163f 7baa 563f 5183 5d3f
00000040: e1eb 5c3f 03b8 753f 1220 1b3f e296 1c3f
00000050: 4fc9 533f 519e af3f 1b16 3b3f b456 753f
00000060: 08d1 383f adc8 c23e f461 263f fd2c 6b3f
00000070: dd6c 8f3f 2d32 423f e002 4a3f ab34 b93f
00000080: c65a 7c3f 919b a03f 60fc 833f f067 363f
00000090: 1a5a 1c3f adcd bc3e 6595 703f 1a5a 923f
000000a0: 5959 2c3f 939f 3d3f e42d 573f 6aad 3f3f
000000b0: 7503 da3e 0d56 e33e ee7e 393f 0f04 033f
000000c0: e12f 3a3f 4442 5d3f 7f67 5a3f 67a8 603f
000000d0: 2885 683f 112c 9e3f b901 363f c283 143f
000000e0: acbf 4f3f bb1d 5c3f ab94 3d3f 45ce 703f
000000f0: f1ee 253f 75fa 383f 3557 343f 6437 593f
00000100: c77c f73e 907b 753f 8c51 1a3f 0637 973f
00000110: 1428 2c3f 49ba 113f 6aee a23f feac 523f
00000120: c262 063f 990f 463f 5cd6 503f 0d9f 443f
00000130: 26ae 7f3f f091 2f3f dac6 303f 34d9 823f
00000140: a28b 723f f7d8 833f 7efe 193f 497b 403f
00000150: 6413 6d3f 531c 323f fa67 513f fa3a 4d3f
00000160: 7471 593f 1eb4 003f b3d2 7b3f 86f3 263f
00000170: 157f 2c3f e4ba 3a3f 5fae 1f3f 2a10 7e3f
00000180: 6687 333f 1f86 463f 827c 4e3f fe80 6b3f
00000190: 14a2 453f 5b5f 343f a6d2 633f 3ce9 113f
000001a0: 7789 563f 9ccc 943f 3aee 3a3f 0c39 253f
000001b0: 5856 4b3f eca7 0b3f dea2 6f3f e157 5f3f
000001c0: 9fab 333f bf0a 183f d3ff 573f 43e5 603f
000001d0: 2511 193f f32b 513f d5ec 1d3f d80b 733f
000001e0: ded4 233f fbe0 1d3f 1e6c 483f 3117 443f
000001f0: 68d8 223f bf74 7c3f 6f80 2e3f c34a 513f
00000200: cd53 c23e 639a 2b3f 4429 8e3f e742 6e3f
00000210: 21a2 ef3e 59e7 5d3f 7211 403f 0ee2 523f
00000220: b7a9 203f d27e 993f 07c6 bf3f 5f7c 143f
00000230: 230a 2b3f 4e97 f93e 4315 483f b19a 273f
00000240: ef0d 463f 487e 183f 4ef3 473f 61de 813f
00000250: 7e85 4b3f 043a 173f 6e4d e73e 702e 3e3f
00000260: 8421 f73e 66dc 5a3f 5a9d 813f 8d85 5c3f
00000270: dae7 263f a798 0d3f a33c 523f b97d 2c3f
00000280: c23f 483f cff1 7c3f 76c0 623f c30b 8d3f
00000290: 9148 a23f 5d1c 833f 3b21 7c3f ddbb 6a3f
000002a0: 7e21 4d3f f89f 103f 73c8 933f 10d2 3b3f
000002b0: b73c 283f 7464 1f3f 8e73 7f3f cf76 e83e
000002c0: 4738 5f3f 7b71 763f 808c 5a3f ef25 333f
000002d0: e566 893f 3a5e 503f 18e2 4c3f fe9e 6f3f
000002e0: 2e5a 0e3f 63aa 583f f72d 223f 019e 693f
000002f0: 3d6a 203f 134c 383f d850 6c3f f748 143f
00000300: 6848 2c3f 4418 453f e526 833f 35b4 403f
00000310: 23e2 1a3f 6ee3 983f e6d1 803f f6cb cd3e
00000320: d524 423f 6530 393f c1a2 2c3f 82e8 513f
00000330: 99f3 3f3f f6c0 5b3f bca9 523f 48ea 413f
00000340: 704a 6c3f 5251 7e3f f627 813f a36e ac3f
00000350: ad58 2a3f 55da 2c3f e3e5 623f 7caf 3b3f
00000360: cd6f 073f 61b7 1e3f cab6 0e3f 0844 613f
00000370: ef2c 683f d3dd 453f 0894 4e3f bcef 213f
00000380: 1388 393f 7683 6d3f b586 003f 9327 403f
00000390: 7e3e 0f3f b8be 073f 8493 3a3f d631 913f
000003a0: 053e 453f 1d1c 243f f82e 763f 8f19 813f
000003b0: dd8b 923f 2177 223f d146 233f 28a3 813f
000003c0: 1515 c83f 3c59 783f 961d 183f befb 2c3f
000003d0: 66ba 263f 7f8f 223f 7087 253f 38a0 a83f
000003e0: 9348 423f d520 2b3f 2d98 283f 2021 1d3f
000003f0: 5b7a 073f e129 d73e 0966 6d3f d0ea 243f

bn1.bias f4 [256]
-0.47542116 -0.4868149 -0.35170138 -0.22685267 -0.29877687 -0.16345641 -0.9856799 -0.45630044
-0.68733597 -0.9739002 -1.0299397 -0.35552722 -0.15915772 -0.59881914 -1.21429 -1.1024746
-0.24183072 -1.0886145 -0.3582013 -0.3494238 -0.9159915 -0.29492372 -1.6444223 -0.8459884
-0.9987472 -0.24417746 -0.6751108 -0.8128505 -1.0533599 -0.94220155 -0.46866873 -1.4513954
-0.9626864 -0.47824946 -0.89990306 -0.64388335 -0.14321554 -0.14510883 -1.088054 -0.7374068
-0.2864361 -0.5100938 -1.004323 0.04487537 -0.061886206 -0.07316221 -1.0797306 -0.2832802
-0.6752789 -0.95746493 -0.2055681 -0.4674533 -0.6027054 -0.9547561 -0.14837328 -0.7981813
-0.95122623 -0.8351602 -0.6547794 -0.34434155 -0.4987125 -0.53419656 -0.6180498 -0.9801837
0.17470537 -0.44424534 -0.47669688 -1.4996543 -0.7043348 -0.39549553 -1.0123533 -1.1798087
-0.17974173 -0.18026522 -0.7034614 -0.50162655 -0.7423534 -0.62166154 -1.1991892 -0.42456105
-0.8734283 -0.7882575 -0.23607025 -0.4727621 -0.7222323 -0.45463592 -0.81777173 -1.1839663
-0.96136534 -0.36490533 -0.5386114 -0.03335797 -0.28298852 -0.54291385 -0.94881934 -0.9993041
-0.39486736 0.0072224266 -1.220638 -0.922738 -1.1393049 -0.6495651 -0.64810705 -0.17944565
-0.82714003 -0.9973222 -0.54532313 -0.031126658 -1.0636679 -0.036262777 -0.21444006 -1.1338168
-0.21898976 -0.4813815 -1.2384489 -0.50207144 -0.16516766 -0.6802469 -0.30765918 -0.89455825
-0.28180626 -0.24717508 -1.1473964 -0.78984666 -0.3882787 -0.93114 -0.47637284 -0.9767375
-0.06180796 -0.10404133 -1.0187819 -1.0605304 -0.26328158 -0.73084205 -0.82467765 -0.54503596
-0.20060751 0.16336738 -1.5796938 -0.27524865 -0.4835221 -0.16206245 -0.7943086 -0.54783905
-1.107165 -0.6411972 -0.80017865 0.6599409 -0.8071392 -0.55526656 0.06750966 -0.17051995
-0.22041939 0.36981967 -0.5512122 -1.2205625 -0.5478511 -0.30957764 -0.8144195 -0.4275438
-0.8291188 -1.2083634 -0.27760056 -0.91929156 -1.0515091 -0.77816856 -0.3937833 -0.8705176
-0.45180035 -0.7761783 -1.2186496 -0.9010278 -1.2819586 -0.5504927 -0.9671139 -0.14770584
-0.82089144 -0.41202766 -1.009853 -0.3605827 -0.9611252 -1.1762838 -1.1046946 -1.2870127
-0.005761626 -1.2881892 -0.25501716 -0.77033645 -0.14543459 -0.53665274 -1.0091647 -0.4907031
-0.2665006 -0.1882145 -0.8369811 -0.3994407 -0.3593426 -1.1856425 -0.9032393 -0.21092553
-0.8080667 -0.518707 -0.2753869 -0.76168585 -0.5536832 -0.8843696 -1.012684 -0.74959683
-0.4206357 -0.8095072 -0.8956266 -1.0542036 -0.40091944 -0.5368024 -0.88875234 -0.77315205
-0.30686262 -0.63697773 -0.26561445 -0.88457614 -0.6870653 -1.5072321 -0.3432305 -0.5084279
-0.65173304 -0.508313 -0.1803978 -0.7999178 -0.26614767 -0.25175917 -0.5366596 -1.0113254
-0.49467525 -0.33810362 -0.8865776 -0.6671395 -1.0531869 -0.20589645 -0.52512646 -0.6338748
-0.9787983 -0.66007805 -0.40362784 -0.5494912 -0.33021408 -0.26835415 -0.023844983 -1.3464361
0.35216925 -0.43838376 -0.9888889 -0.4559934 -0.6490835 -0.27837506 -0.5067487 -0.28548563
00000000: 676a f3be cd3f f9be 3412 b4be 114c 68be
00000010: 48f9 98be 1e61 27be 8555 7cbf 36a0 e9be
00000020: 40f5 2fbf 8651 79bf 10d5 83bf aa07 b6be
00000030: 3efa 22be 364c 19bf db6d 9bbf e31d 8dbf
00000040: 79a2 77be b857 8bbf 2966 b7be ade7 b2be
00000050: 6b7e 6abf 3e00 97be 6e7c d2bf b292 58bf
00000060: e6ad 7fbf a809 7abe 10d4 2cbf f816 50bf
00000070: 7fd4 86bf 1f34 71bf 59f5 efbe 53c7 b9bf
00000080: 9e72 76bf 1ddd f4be 0c60 66bf 8ad5 24bf
00000090: 18a7 12be 6997 14be 5a45 8bbf b1c6 3cbf
000000a0: c1a7 92be 8295 02bf a88d 80bf 3ccf 373d
000000b0: 647c 7dbd 12d6 95bd 9d34 8abf 1a0a 91be
000000c0: 14df 2cbf 6c1c 75bf 7280 52be 0a56 efbe
000000d0: e74a 1abf e56a 74bf 2aef 17be 9c55 4cbf
000000e0: 9083 73bf 0fcd 55bf 9f9f 27bf 894d b0be
000000f0: 3f57 ffbe 1bc1 08bf 8338 1ebf 52ed 7abf
00000100: f7e5 323e 2074 e3be 9d11 f4be acf4 bfbf
00000110: 494f 34bf 647e cabe cb94 81bf f903 97bf
00000120: 370e 38be 7297 38be 0c16 34bf 996a 00bf
00000130: df0a 3ebf 3625 1fbf 087f 99bf 1160 d9be
00000140: ff98 5fbf 3ecb 49bf 66bc 71be e00d f2be
00000150: 37e4 38bf 0ac6 e8be 7d59 51bf 358c 97bf
00000160: 0a1c 76bf dfd4 babe 70e2 09bf 5ea2 08bd
00000170: dfe3 90be 67fc 0abf d3e5 72bf 65d2 7fbf
00000180: 0e2c cabe 1baa ec3b de3d 9cbf 8f38 6cbf
00000190: bed4 91bf e649 26bf 58ea 25bf 9ac0 37be
000001a0: 73bf 53bf 8250 7fbf 4c9a 0bbf 55fd febc
000001b0: 4526 88bf 4788 14bd 2d96 5bbe e920 91bf
000001c0: da3e 60be a377 f6be 7e85 9ebf c187 00bf
000001d0: b621 29be a924 2ebf 8185 9dbe c501 65bf
000001e0: e948 90be 771b 7dbe e3dd 92bf 6433 4abf
000001f0: 77cc c6be 315f 6ebf 24e7 f3be 780b 7abf
00000200: 582a 7dbd 9f13 d5bd 7267 82bf 76bf 87bf
00000210: d8cc 86be 7718 3bbf 131e 53bf 7a87 0bbf
00000220: 0e6c 4dbe c749 273e 6833 cabf 64ed 8cbe
00000230: 3590 f7be b3f3 25be cf57 4bbf 2e3f 0cbf
00000240: 95b7 8dbf 8025 24bf 82d8 4cbf e3f1 283f
00000250: ada0 4ebf f325 0ebf 8142 8a3d c89c 2ebe
00000260: 9fb5 61be 0159 bd3e 3e1c 0dbf 643b 9cbf
00000270: f83f 0cbf f680 9ebe cc7d 50bf 05e7 dabe
00000280: 2141 54bf a7ab 9abf a921 8ebe b156 6bbf
00000290: da97 86bf 0e36 47bf f79d c9be 3eda 5ebf
000002a0: 6052 e7be 9fb3 46bf b6fc 9bbf c2a9 66bf
000002b0: 3817 a4bf 17ed 0cbf c794 77bf 3340 17be
000002c0: f125 52bf 4af5 d2be dd42 81bf 4c9e b8be
000002d0: 4d0c 76bf 7890 96bf a266 8dbf d5bc a4bf
000002e0: 06cc bcbb 62e3 a4bf 9c91 82be c534 45bf
000002f0: ceec 14be 1362 09bf 4f2c 81bf 703d fbbe
00000300: c472 88be 4dbb 40be 6544 56bf 7e83 ccbe
00000310: c1fb b7be 22c3 97bf b13a 67bf ddfc 57be
00000320: 76dd 4ebf fbc9 04bf 83ff 8cbe d8fd 42bf
00000330: 2fbe 0dbf 0c66 62bf a19f 81bf 94e5 3fbf
00000340: 905d d7be dd3b 4fbf c947 65bf 25f0 86bf
00000350: 5045 cdbe e26b 09bf 4685 63bf 4bed 45bf
00000360: 191d 9dbe f910 23bf 9efe 87be 9573 62bf
00000370: 83e3 2fbf fbec c0bf e8bb afbe 5528 02bf
00000380: fad7 26bf cd20 02bf 33ba 38be 6ac7 4cbf
00000390: 8244 88be 94e6 80be 8662 09bf 1c73 81bf
000003a0: 1346 fdbe eb1b adbe c0f6 62bf a7c9 2abf
000003b0: d4ce 86bf 85d6 52be b06e 06bf 9e45 22bf
000003c0: 8692 7abf e0fa 28bf 4fa8 cebe 75ab 0cbf
000003d0: d211 a9be b765 89be 8e56 c3bc 0558 acbf
000003e0: 874f b43e d673 e0be d327 7dbf f877 e9be
000003f0: 562a 26bf 2d87 8ebe 48ba 01bf 2c2b 92be

bn1.running_mean f4 [256]
-0.50474757 0.18107392 -3.4907923 -0.74365085 1.6192741 -3.6644697 2.8576243 -3.7391152
1.430689 -0.89392006 -0.12697187 0.6518995 -1.7821082 2.728876 -5.040251 -2.7536829
-3.209946 -0.32659888 -4.7617106 -4.054169 -7.5885835 -0.07752412 -10.252028 12.74575
4.4642 -0.55129564 2.759692 -4.15824 -0.5790937 2.6971188 -2.55436 0.73720795
-5.4356956 0.58609605 0.22385362 -1.5659555 8.722541 -1.0571235 -0.8611118 -0.21990548
5.1352677 -5.067058 3.5367177 0.9462892 0.6069481 -2.5458515 11.1508 -2.6686802
7.517876 2.4466293 -0.26229295 0.21821277 -3.2437928 -0.89053315 1.5898243 -2.5027876
-1.4135988 -3.1707964 1.7923187 0.8154875 -3.145205 -1.2725658 0.5605724 -0.97369075
5.639232 -0.9124921 -2.1294222 -1.4626193 4.3262153 -0.35521832 0.88386923 2.6385581
-2.5217102 -0.5797482 -5.582862 2.7732794 -2.0903597 -1.6495743 3.766089 -2.8982024
-0.6388685 1.7861423 -2.9395432 0.28313524 -0.14189385 -1.155515 11.857805 -8.548063
0.070969716 5.2786665 -1.3569494 -0.16406524 6.3067923 1.9739971 2.4306347 -5.4069443
-1.5999709 1.3500625 -6.5455184 6.182175 -2.4835699 -1.8184441 -1.0904564 1.4940519
-1.5782791 -1.0691792 0.5705335 1.793806 -7.3114557 0.5981359 0.6761532 -5.573067
3.2478878 -2.1348205 -2.2996438 1.9034631 -1.8628343 0.11396257 5.255989 0.5969979
-2.969545 -9.287681 -4.666382 -2.4989974 2.737731 0.45888796 -0.44393826 -2.2899065
4.239446 0.6340585 -2.2733696 0.8584675 -1.5189965 -1.5111742 -1.8619378 -3.2911916
4.926683 5.3936024 0.90149903 -7.07747 2.5891929 -4.2998886 -6.141362 -6.227614
-0.3030092 5.8474984 2.5149884 2.833252 1.5923194 -2.3515408 -0.108112335 -2.2498937
-0.6327581 3.96667 -2.8382077 0.80017877 2.1785414 4.6652446 -2.8731658 -5.8780546
-1.9990387 -6.499087 3.9334981 0.55301803 2.358236 0.68666065 -0.34387812 -1.3017372
9.037824 -1.1362853 1.1644627 -3.050967 -7.553136 -4.0809116 -3.748835 0.0574185
-1.1239835 5.214797 -1.0862763 1.2328098 11.381165 6.299386 6.6116147 1.4349699
7.114811 -9.219901 0.75784576 8.710908 -4.5489087 -5.9803658 1.6441692 1.7686225
-8.112295 -0.33331546 1.5068147 -1.7947336 -5.267171 -4.5146713 -2.727585 6.309312
-1.0493672 3.086814 -5.026631 0.8625342 -1.9656711 -5.9007664 4.402283 -9.976946
3.0123265 -3.3296173 0.2546623 -1.0529418 1.1377077 5.163902 0.47479278 4.4318175
-0.98877794 -3.943138 0.7449217 0.27291358 0.7968227 -1.9771999 5.482202 2.0627062
3.9169428 -0.82643014 -1.5061952 3.1827025 -1.0085899 4.259655 1.9033327 7.812585
2.1149213 1.1571244 -3.0205855 1.1427895 0.64543915 -3.0062087 -6.087106 -0.972986
-0.31303123 -5.376958 2.3411422 -0.5726555 6.8562355 2.0483828 1.101934 -0.122034274
3.8647678 -6.3980327 -8.083975 3.9138148 -0.10673561 -0.73622364 1.1054921 -4.819632
00000000: 2337 01bf 716b 393e 2469 5fc0 e75f 3ebf
00000010: 6044 cf3f ac86 6ac0 51e3 3640 aa4d 6fc0
00000020: d120 b73f f2d7 64bf ea04 02be e3e2 263f
00000030: 1f1c e4bf e8a5 2e40 bc49 a1c0 573c 30c0
00000040: c16f 4dc0 f837 a7be ef5f 98c0 c1bb 81c0
00000050: add5 f2c0 f7c4 9ebd 4f08 24c1 98ee 4b41
00000060: bada 8e40 b621 0dbf cb9e 3040 4d10 85c0
00000070: 7c3f 14bf 989d 2c40 a27a 23c0 a9b9 3c3f
00000080: 38f1 adc0 640a 163f e239 653e 3b71 c8bf
00000090: 878f 0b41 d34f 87bf d371 5cbf e72e 61be
000000a0: 1d54 a440 5725 a2c0 9559 6240 0240 723f
000000b0: f360 1b3f 3bef 22c0 ad69 3241 a8cb 2ac0
000000c0: 7192 f040 9395 1c40 434b 86be 2b73 5f3e
000000d0: 4d9a 4fc0 fbf9 63bf 5d7f cb3f ac2d 20c0
000000e0: cef0 b4bf 54ee 4ac0 b36a e53f cac3 503f
000000f0: 0a4b 49c0 70e3 a2bf ac81 0f3f cc43 79bf
00000100: 9774 b440 1599 69bf 7448 08c0 1c37 bbbf
00000110: 5b70 8a40 2ddf b5be 4145 623f 23de 2840
00000120: b363 21c0 616a 14bf cea6 b2c0 697d 3140
00000130: 74c8 05c0 4025 d3bf 9a07 7140 267c 39c0
00000140: e38c 23bf 50a0 e43f 7a21 3cc0 1af7 903e
00000150: 9f4c 11be eae7 93bf 92b9 3d41 dec4 08c1
00000160: 9258 913d d6ea a840 85b0 adbf b800 28be
00000170: 3ed1 c940 f0ab fc3f 858f 1b40 b005 adc0
00000180: d9cb ccbf d9ce ac3f e374 d1c0 61d4 c540
00000190: cff2 1ec0 c7c2 e8bf 1394 8bbf 183d bf3f
000001a0: 0d05 cabf ddda 88bf 7c0e 123f 6f9b e53f
000001b0: 72f7 e9c0 6f1f 193f 6018 2d3f 9156 b2c0
000001c0: 65dd 4f40 e6a0 08c0 5d2d 13c0 aea4 f33f
000001d0: 5b71 eebf 3565 e93d 1031 a840 dbd4 183f
000001e0: 060d 3ec0 579a 14c1 0053 95c0 93ef 1fc0
000001f0: fc36 2f40 5df3 ea3e e04b e3be d48d 12c0
00000200: 8ba9 8740 a851 223f e37e 11c0 87c4 5b3f
00000210: 7a6e c2bf 286e c1bf fa53 eebf e2a2 52c0
00000220: 63a7 9d40 6498 ac40 a4c8 663f a27a e2c0
00000230: 56b5 2540 b098 89c0 0a86 c4c0 9d48 c7c0
00000240: 0624 9bbe b51e bb40 92f5 2040 0054 3540
00000250: 1fd1 cb3f a57f 16c0 006a ddbd 42fe 0fc0
00000260: 6ffc 21bf ecdd 7d40 32a5 35c0 84d8 4c3f
00000270: 396d 0b40 af49 9540 f3e1 37c0 0619 bcc0
00000280: 80e0 ffbf 85f8 cfc0 6fbe 7b40 9792 0d3f
00000290: 57ed 1640 fec8 2f3f cb10 b0be 539f a6bf
000002a0: ed9a 1041 cc71 91bf 1d0d 953f 0b43 43c0
000002b0: 4ab3 f1c0 d496 82c0 eaec 6fc0 a92f 6b3d
000002c0: b1de 8fbf 9edf a640 1a0b 8bbf b6cc 9d3f
000002d0: 4019 3641 9294 c940 5992 d340 18ad b73f
000002e0: 88ac e340 b784 13c1 2e02 423f e15f 0b41
000002f0: a990 91c0 285f bfc0 2374 d23f 3962 e23f
00000300: f6cb 01c1 53a8 aabe 4edf c03f d5b9 e5bf
00000310: aa8c a8c0 3078 90c0 c190 2ec0 e2e5 c940
00000320: aa51 86bf 5c8e 4540 29da a0c0 0bcf 5c3f
00000330: 1c9b fbbf 14d3 bcc0 81df 8c40 92a1 1fc1
00000340: f5c9 4040 7318 55c0 1963 823e ccc6 86bf
00000350: 68a0 913f af3e a540 0a18 f33e 73d1 8d40
00000360: 8d20 7dbf 5f5c 7cc0 30b3 3e3f 54bb 8b3e
00000370: 93fc 4b3f e314 fdbf 336e af40 6103 0440
00000380: 31af 7a40 ed90 53bf 01cb c0bf 66b1 4b40
00000390: 7919 81bf 184f 8840 68a0 f33f b200 fa40
000003a0: df5a 0740 a71c 943f 4651 41c0 ed46 923f
000003b0: 803b 253f b965 40c0 93c9 c2c0 9c15 79bf
000003c0: a145 a0be 0a10 acc0 46d5 1540 8d99 12bf
000003d0: 4866 db40 b418 0340 2c0c 8d3f 1bed f9bd
000003e0: 5b58 7740 afbc ccc0 f657 01c1 f17b 7a40
000003f0: 3398 dabd 2779 3cbf c480 8d3f 6d3a 9ac0

bn1.running_var f4 [256]
159.99477 167.07455 54.047466 94.90722 51.120316 121.9221 121.84211 110.19488
104.68309 34.99936 62.372257 114.97782 50.98774 53.58095 149.09904 165.30182
27.53314 53.010593 175.87863 58.887714 128.25343 41.10368 207.77293 189.65924
108.28968 78.20197 140.39723 100.93861 331.55173 158.12357 55.283962 59.80006
160.76375 44.30962 44.562714 114.150764 162.8445 36.5613 67.98757 41.974148
32.546074 126.45684 106.78529 54.854313 193.47488 57.374687 113.52151 80.45312
74.16551 152.36446 32.68293 43.517605 35.142776 52.54165 34.793232 134.91652
148.63693 57.29721 177.16142 81.53303 83.83383 152.81111 175.9607 211.33336
132.03777 23.312063 183.74373 49.115105 57.010086 93.55245 61.432148 96.91761
54.491623 30.97956 129.22983 174.37323 28.955057 116.43369 241.59851 78.066956
54.251957 67.34547 147.5032 72.56761 43.812847 65.143105 313.95987 229.0881
119.739525 101.85024 47.57426 82.339905 105.46576 90.25001 47.505257 53.71363
61.19925 39.72781 67.740875 91.649025 97.83947 68.52518 157.6479 82.39134
116.756165 49.990414 71.134514 94.204315 109.96517 83.784615 68.602356 133.12599
61.480686 131.26756 117.44959 77.614 58.90777 127.567894 86.788795 48.523617
95.53331 101.571815 110.94681 66.85392 87.99543 67.39419 114.29176 55.074665
68.06102 54.15661 37.082066 84.47594 93.49673 78.12289 77.22416 246.15163
99.866646 164.93187 61.908443 98.08884 122.271126 84.119675 104.79784 93.47338
68.90525 103.02312 176.5629 40.184273 88.11323 44.253475 48.37227 90.14555
58.365925 55.552986 33.894173 37.59891 100.90224 76.928925 94.71706 67.96291
92.85832 172.97076 89.473366 42.216053 85.935265 47.264355 78.475876 44.570484
206.08688 120.921265 49.702465 186.46259 101.922 48.746323 34.497772 65.64986
72.62795 90.47934 111.25375 167.41872 160.58775 136.02199 109.63334 77.12684
81.05776 117.069336 34.101574 104.574585 88.11024 58.03167 88.18231 72.32166
105.92607 62.68658 75.194885 73.47731 101.40872 36.179306 70.00675 134.46733
93.45652 145.13617 53.46011 31.871479 55.51546 80.28019 290.46655 141.32205
124.3708 24.067245 33.91189 61.59643 162.76306 242.89453 88.57145 53.80689
117.171936 152.70084 92.5897 37.524033 37.326427 163.48795 72.91183 104.67587
170.15001 46.514236 65.71199 131.29453 130.91107 103.954895 82.680855 279.352
45.631992 66.72737 50.0499 35.844334 101.60482 55.6394 69.241135 68.39316
43.265644 55.304527 86.96453 125.44629 64.59928 54.71709 17.611467 46.11381
36.428898 48.315342 139.94536 43.88736 89.80864 197.01656 37.137512 44.654125
00000000: a9fe 1f43 1613 2743 9b30 5842 7fd0 bd42
00000010: 347b 4c42 1dd8 f342 29af f342 c763 dc42
00000020: be5d d142 58ff 0b42 317d 7942 a5f4 e542
00000030: 72f3 4b42 e552 5642 5b19 1543 444d 2543
00000040: df43 dc41 d90a 5442 eee0 2f43 058d 6b42
00000050: e140 0043 2b6a 2442 dfc5 4f43 c4a8 3d43
00000060: 5194 d842 6967 9c42 b165 0c43 91e0 c942
00000070: 9fc6 a543 a21f 1e43 c722 5d42 4333 6f42
00000080: 85c3 2043 0d3d 3142 3840 3242 314d e442
00000090: 31d8 2243 c53e 1242 a3f9 8742 87e5 2742
000000a0: 2e2f 0242 e7e9 fc42 1292 d542 d16a 5b42
000000b0: 9279 4143 ae7f 6542 030b e342 ffe7 a042
000000c0: be54 9442 4d5d 1843 52bb 0242 0712 2e42
000000d0: 3492 0c42 a62a 5242 452c 0b42 a1ea 0643
000000e0: 0ea3 1443 5830 6542 5329 3143 e910 a342
000000f0: ecaa a742 a5cf 1843 f0f5 2f43 5755 5343
00000100: ab09 0443 1b7f ba41 65be 3743 de75 4442
00000110: 540a 6442 db1a bb42 85ba 7542 d1d5 c142
00000120: 6cf7 5942 24d6 f741 d63a 0143 8c5f 2e43
00000130: f5a3 e741 0dde e842 3899 7143 4822 9c42
00000140: 0102 5942 e1b0 8642 d280 1343 9e22 9142
00000150: 5b40 2f42 4549 8242 ddfa 9c43 8e16 6543
00000160: a37a ef42 53b3 cb42 0b4c 3e42 08ae a442
00000170: 78ee d242 0180 b442 6205 3e42 c2da 5642
00000180: 08cc 7442 47e9 1e42 547b 8742 4d4c b742
00000190: cfad c342 e40c 8942 dda5 1d43 5ec8 a442
000001a0: 2883 e942 2ff6 4742 df44 8e42 9c68 bc42
000001b0: 2bee db42 b991 a742 6834 8942 4120 0543
000001c0: 39ec 7542 7f44 0343 31e6 ea42 5e3a 9b42
000001d0: 8ea1 6b42 c322 ff42 dd93 ad42 2f18 4242
000001e0: 0e11 bf42 c524 cb42 c4e4 dd42 35b5 8542
000001f0: a9fd af42 d3c9 8642 6295 e442 754c 5c42
00000200: 3e1f 8842 5ea0 5842 0954 1442 aef3 a842
00000210: 53fe ba42 eb3e 9c42 c572 9a42 d126 7643
00000220: b9bb c742 8fee 2443 3fa2 7742 7c2d c442
00000230: d18a f442 463d a842 7e98 d142 5ff2 ba42
00000240: 7dcf 8942 d60b ce42 1a90 3043 b2bc 2042
00000250: f939 b042 8f03 3142 347d 4142 864a b442
00000260: b576 6942 4236 5e42 a293 0742 4965 1642
00000270: f2cd c942 9cdb 9942 226f bd42 03ed 8742
00000280: 76b7 b942 84f8 2c43 5df2 b242 3ddd 2842
00000290: dbde ab42 b30e 3d42 a6f3 9c42 2d48 3242
000002a0: 3e16 4e43 b0d7 f142 53cf 4642 6c76 3a43
000002b0: 10d8 cb42 3cfc 4242 b8fd 0942 ba4c 8342
000002c0: 8341 9142 6cf5 b442 ec81 de42 316b 2743
000002d0: 7796 2043 a105 0843 4544 db42 f140 9a42
000002e0: 931d a242 8023 ea42 0368 0842 3026 d142
000002f0: 7138 b042 6e20 6842 585d b042 b1a4 9042
00000300: 26da d342 0fbf 7a42 c863 9642 62f4 9242
00000310: 44d1 ca42 9cb7 1042 7503 8c42 a377 0643
00000320: bde9 ba42 dc22 1143 27d7 5542 caf8 fe41
00000330: d50f 5e42 758f a042 b83b 9143 7252 0d43
00000340: d9bd f842 b889 c041 c6a5 0742 bf62 7642
00000350: 58c3 2243 00e5 7243 9524 b142 413a 5742
00000360: 0858 ea42 6ab3 1843 ed2d b942 9c18 1642
00000370: 434e 1542 ea7c 2343 dbd2 9142 0c5a d142
00000380: 6726 2a43 940e 3a42 8a6c 8342 664b 0343
00000390: 3ce9 0243 e8e8 cf42 995c a542 0ead 8b43
000003a0: 2987 3642 6a74 8542 1933 4842 9960 0f42
000003b0: ab35 cb42 bf8e 5e42 767b 8a42 4cc9 8842
000003c0: 0510 2d42 d637 5d42 d7ed ad42 80e4 fa42
000003d0: d532 8142 4dde 5a42 49e4 8c41 8b74 3842
000003e0: 31b7 1142 e942 4142 03f2 0b43 a88c 2f42
000003f0: 069e b342 3d04 4543 d08c 1442 d39d 3242

fc2.weight f4 [128, 260]
-0.08119536 0.022211656 -0.0448638 -0.017319662 0.023632612 0.018531265 -0.054000232 -0.058049288
-0.021818321 -0.074761204 -0.13828757 -0.01115312 -0.13853154 0.044865508 -0.0032400708 -0.059220802
-0.007060306 -0.056433097 -0.10891698 -0.09816651 -0.02453223 -0.0878515 0.011310763 -0.016125618
0.026602738 0.004949154 -0.11234586 -0.083500125 -0.07358264 -0.11023964 0.025192648 -0.010426078
-0.027808754 0.008447092 -0.121548094 -0.059996124 0.033218015 -0.033275243 -0.10087007 -0.013269294
-0.0176912 -0.07287949 0.005965495 -0.08718786 0.03725265 0.040680703 -0.016436877 -0.07626246
-0.04816769 0.0066031897 -0.040630944 -0.09596853 -0.15851125 0.025598235 0.007233687 -0.08069737
-0.06421574 -0.05031956 0.00963411 -0.083009705 -0.010622814 0.016814278 0.0520628 0.03727617
-0.07320276 -0.0907602 -0.16556512 -0.11213235 -0.025496691 -0.00290936 -0.07542446 0.014946969
0.0054876273 -0.112894125 -0.01439069 -0.03627357 -0.042858355 -0.041837767 0.04676129 -0.035995297
-0.057960365 -0.09554678 0.0054449993 -0.03243398 0.027854657 -0.054789443 -0.061374534 -0.19993694
-0.07091424 -0.09213666 -0.042463847 -0.035293702 0.002538119 -0.07545519 0.02947319 0.03465374
-0.027444223 -0.024682676 0.023365295 0.041588128 -0.08694247 -0.060954448 -0.1385237 -0.025951473
0.020806877 0.06581015 -0.0631996 -0.13534197 -0.036694594 -0.041054524 0.0034061691 0.035276875
-0.032912083 -0.023172792 -0.020476779 0.012807799 -0.03632696 -0.06697685 -0.030065633 0.062952444
-0.046099845 -0.008996017 -0.12731397 -0.18445988 -0.15366112 -0.08492057 -0.08541035 0.05089917
-0.09345414 -0.09590122 -0.04521338 -0.016655661 -0.09399501 -0.06858784 -0.13411306 -0.021663325
-0.026192464 -0.040876076 -0.078314714 -0.045707706 -0.002537055 -0.13268071 0.0105239805 -0.019879611
-0.02947268 -0.11237425 -0.09502585 0.056633487 -0.09915017 -0.0071278084 -0.064303525 -0.14093657
0.04653097 -0.03554463 -0.040584028 0.07851214 -0.03558045 -0.043053363 -0.10680969 -0.06120267
0.0067016203 -0.0056554605 0.0065850853 -0.010496948 -0.02868147 0.07345295 -0.0898553 -0.06996619
-0.006656245 0.058696453 0.021719748 0.020484777 -0.011047182 -0.14546269 0.037214406 -0.1096882
0.028553313 0.002041272 0.06276798 -0.07466437 0.071848206 -0.039330598 -0.07821735 -0.03489685
-0.03785937 -0.11704715 -0.034579597 -0.015370973 0.015040555 -0.0657614 -0.045519747 -0.060337663
0.048788052 -0.10603457 -0.06884358 0.018984463 -0.06618598 0.017399682 -0.12747893 0.033299908
-0.17445996 0.025050905 -0.056288708 -0.04085069 -0.10627319 -0.050355904 -0.12985927 0.025735304
-0.0030129994 -0.14319849 -0.076966844 0.06009344 0.004663058 -0.072979644 0.012931708 -0.06774495
-0.034851022 0.0029081684 -0.10239371 -0.015222344 0.04196673 -0.09565812 0.004799594 0.0041083805
0.03164339 0.07706162 -0.04765284 -0.056715377 0.053780057 -0.035873953 -0.10242262 -0.074041165
-0.030916285 -0.117772266 0.028742228 -0.062227514 0.0029777293 -0.07625841 -0.10167852 -0.05258149
-0.15518084 0.020184347 -0.10857361 0.049778137 -0.11826375 0.06193904 0.06257567 -0.0119648315
0.022628162 -0.13207102 -0.119696416 0.050304726 -0.01248106 -0.031153465 0.0087201595 -0.100547865
00000000: c149 a6bd 38f5 b53c 1bc3 37bd f7e1 8dbc
00000010: 2e99 c13c e1ce 973c 592f 5dbd 17c5 6dbd
00000020: 56bc b2bc 671c 99bd 429b 0dbe 93bb 36bc
00000030: 36db 0dbe e5c4 373d 5e57 54bb 8391 72bd
00000040: 245a e7bb 6426 67bd de0f dfbd 860b c9bd
00000050: d1f7 c8bc 7deb b3bd c750 393c df19 84bc
00000060: fced d93c 832c a23b 9615 e6bd 1d02 abbd
00000070: 7fb2 96bd 52c5 e1bd d060 ce3c 24d2 2abc
00000080: 2fcf e3bc ac65 0a3c 35ee f8bd 7fbe 75bd
00000090: 9d0f 083d 9f4b 08bd f894 cebd 7467 59bc
000000a0: 23ed 90bc d841 95bd 337a c33b 8c8f b2bd
000000b0: 3c96 183d cfa0 263d a1a6 86bc 7e2f 9cbd
000000c0: 7c4b 45bd 925f d83b a26c 26bd 268b c4bd
000000d0: c650 22be 64b3 d13c 9108 ed3b aa44 a5bd
000000e0: 8b83 83bd e21b 4ebd 63d8 1d3c fe00 aabd
000000f0: 500b 2ebc 19be 893c cd3f 553d e6ae 183d
00000100: 54eb 95bd 7ce0 b9bd e789 29be a5a5 e5bd
00000110: 70de d0bc f6aa 3ebb 2478 9abd 22e4 743c
00000120: 8ed1 b33b 0935 e7bd eec6 6bbc 9893 14bd
00000130: 3e8c 2fbd 145e 2bbd c488 3f3d ce6f 13bd
00000140: d967 6dbd 08ae c3bd f76b b23b 7ed9 04bd
00000150: 732f e43c e56a 60bd dd63 7bbd 45bc 4cbe
00000160: 7c3b 91bd 25b2 bcbd 92ee 2dbd 2190 10bd
00000170: 9256 263b 4088 9abd c271 f13c 14f1 0d3d
00000180: b5d2 e0bc 5333 cabc 9368 bf3c 5058 2a3d
00000190: e50e b2bd 5fab 79bd 28d9 0dbe 2f98 d4bc
000001a0: 2f73 aa3c 79c7 863d cb6e 81bd 1697 0abe
000001b0: 124d 16bd ca28 28bd 093a 5f3b 7c7e 103d
000001c0: d2ce 06bd ded4 bdbc ebbe a7bc cdd7 513c
000001d0: 94cb 14bd 292b 89bd 344c f6bc 36ed 803d
000001e0: 31d3 3cbd 0864 13bc 985e 02be 0de3 3cbe
000001f0: 5759 1dbe d6ea adbd 9feb aebd a67b 503d
00000200: e264 bfbd dc67 c4bd aa31 39bd 7471 88bc
00000210: 7580 c0bd c877 8cbd ef54 09be 4977 b1bc
00000220: 9491 d6bc ac6d 27bd 7763 a0bd 0138 3bbd
00000230: b844 26bb 74dd 07be c66c 2c3c 91da a2bc
00000240: b170 f1bc 7924 e6bd ea9c c2bd 84f8 673d
00000250: 3f0f cbbd 6490 e9bb 91b1 83bd ad51 10be
00000260: 4297 3e3d 3f97 11bd 703b 26bd f9ca a03d
00000270: cebc 11bd b958 30bd 0abf dabd a7af 7abd
00000280: 4499 db3b 7151 b9bb b3c7 d73b 64fb 2bbc
00000290: 67f5 eabc 806e 963d 0e06 b8bd 6f4a 8fbd
000002a0: a11c dabb b16b 703d 9ded b13c b1cf a73c
000002b0: 3dff 34bc 2cf4 14be 226e 183d 35a4 e0bd
000002c0: a3e8 e93c dcc6 053b 808c 803d a2e9 98bd
000002d0: 2725 933d 1f19 21bd 6b30 a0bd 00f0 0ebd
000002e0: 6d12 1bbd 6bb6 efbd 56a3 0dbd 89d6 7bbc
000002f0: a96c 763c eaad 86bd ea72 3abd a024 77bd
00000300: fbd5 473d a728 d9bd ddfd 8cbd 4e85 9b3c
00000310: 848c 87bd c789 8e3c d689 02be 7c65 083d
00000320: a2a5 32be 8e37 cd3c fd8e 66bd 0e53 27bd
00000330: c2a5 d9bd fe41 4ebd d4f9 04be d8d2 d23c
00000340: be75 45bb a0a2 12be cba0 9dbd 8a24 763d
00000350: 91cc 983b 5a76 95bd 84df 533c ddbd 8abd
00000360: f2bf 0ebd f896 3e3b cbb3 d1bd 2367 79bc
00000370: 4ee5 2b3d 68e8 c3bd ea45 9d3b 989f 863b
00000380: 809c 013d 7cd2 9d3d a02f 43bd 624e 68bd
00000390: 7a48 5c3d 91f0 12bd f3c2 d1bd e5a2 97bd
000003a0: 2644 fdbc 9632 f1bd d274 eb3c 47e2 7ebd
000003b0: 0226 433b 5f2d 9cbd d43c d0bd b05f 57bd
000003c0: bae7 1ebe a559 a53c d75b debd 29e4 4b3d
000003d0: 4434 f2bd cab3 7d3d ac27 803d 2408 44bc
000003e0: b25e b93c a03d 07be 6523 f5bd 540c 4e3d
000003f0: 5c7d 4cbc 8d35 ffbc 00df 0e3c 0aec cdbd

fc2.bias f4 [128]
-0.089046724 -0.09984546 -0.11317721 -0.042721078 -0.109533645 -0.05751438 -0.09568227 -0.119742714
-0.05408368 -0.13563877 -0.13412234 -0.014192438 -0.01892021 -0.0085884845 0.27437425 0.15589856
0.20887116 0.10902218 -0.052653432 0.03905698 -0.07575377 1.0916957 -0.093766734 0.54084146
-0.046004415 -0.034384433 -0.059260014 -0.10281325 -0.063850544 -0.08463016 0.22015844 -0.06091869
-0.05573488 0.8066534 0.32543695 -0.13003272 0.24241509 -0.044109832 -0.14809437 -0.03274392
-0.05460547 0.22558561 -0.07717942 -0.68239516 0.15402342 -0.13269979 -0.09954793 0.8657339
-0.036763977 -0.092397995 0.19995348 -0.73632437 0.416189 0.91281825 0.02558686 0.72178584
-0.10504 0.05190265 -0.075851984 -0.070805274 -0.027397817 -0.043868974 -0.16766953 0.5862386
0.5736674 -0.010646156 -0.09986853 1.144041 -0.388336 -0.09444629 -0.04126161 1.467577
-0.145473 0.96059966 0.054948445 -0.17436907 0.14225689 -0.1215027 -0.08612179 -0.15421127
-0.12379676 -0.090084516 -0.49994412 1.3690469 -0.055188697 -0.10472652 0.08236938 -0.067772485
-0.48133975 -0.07142736 -0.08392926 -0.0888067 -0.64649284 -0.02533761 -0.10769142 0.37312555
-0.2039763 0.80114657 -0.054887507 -0.093814775 -0.13229997 0.6939696 -0.061925422 0.0127447145
0.23073493 1.1962547 -0.050421163 -0.12894994 -0.07298087 -0.14855717 -0.36734727 -0.26749188
0.9661705 -0.06390801 0.6973265 -0.09419277 0.47322568 -0.10027512 0.48898792 -0.083024204
-0.1023524 1.2945923 -0.056142904 0.731254 -0.1024374 0.09189705 -0.0898352 -0.5161394
00000000: 215e b6bd c77b ccbd 74c9 e7bd 4cfc 2ebd
00000010: 2d53 e0bd 3394 6bbd 11f5 c3bd ab3b f5bd
00000020: d986 5dbd e4e4 0abe 5e57 09be 6687 68bc
00000030: 8efe 9abc b7b6 0cbc c87a 8c3e dfa3 1f3e
00000040: 52e2 553e 0547 df3d 20ab 57bd 36fa 1f3d
00000050: cb24 9bbd afbc 8b3f c608 c0bd 9674 0a3f
00000060: 206f 3cbd b1d6 0cbd a1ba 72bd c18f d2bd
00000070: 13c4 82bd 9452 adbd 3771 613e e085 79bd
00000080: 424a 64bd d680 4e3f ac9f a63e 4c27 05be
00000090: a93b 783e 83ac 34bd 0da6 17be 7d1e 06bd
000000a0: fca9 5fbd eaff 663e 3e10 9ebd 73b1 2ebf
000000b0: 51b8 1d3e 74e2 07be c9df cbbd bda0 5d3f
000000c0: d395 16bd 293b bdbd 9bc0 4c3e c17f 3cbf
000000d0: b916 d53e 75ae 693f 899b d13c f5c6 383f
000000e0: 361f d7bd e097 543d 4958 9bbd 5b02 91bd
000000f0: 6371 e0bc f4af 33bd 90b1 2bbe bc13 163f
00000100: dedb 123f 376d 2ebc df87 ccbd ef6f 923f
00000110: fad3 c6be 0e6d c1bd ef01 29bd 90d9 bb3f
00000120: e0f6 14be dce9 753f 9f11 613d ce8d 32be
00000130: caab 113e 68d6 f8bd 9f60 b0bd 8fe9 1dbe
00000140: 2889 fdbd 3b7e b8bd adf8 ffbe ee3c af3f
00000150: 8b0d 62bd dc7a d6bd 47b1 a83d 4dcc 8abd
00000160: 2a72 f6be 8248 92bd 1be3 abbd 4ae0 b5bd
00000170: 8e80 25bf d290 cfbc 528d dcbd 500a bf3e
00000180: 2adf 50be f117 4d3f b9d1 60bd f621 c0bd
00000190: a579 07be fea7 313f 83a5 7dbd 35cf 503c
000001a0: c745 6c3e e01e 993f 6c86 4ebd 740b 04be
000001b0: ff76 95bd 5f1f 18be f114 bcbe b2f4 88be
000001c0: f356 773f 34e2 82bd fd83 323f 24e8 c0bd
000001d0: a34a f23e 0b5d cdbd a05c fa3e 9808 aabd
000001e0: 239e d1bd 33b5 a53f 1af6 65bd 7633 3b3f
000001f0: b3ca d1bd 8534 bc3d 84fb b7bd b621 04bf
