critic.pth (torch_old, 207822 bytes, 11 tensors)

fcs1.weight f4 [256, 33]
0	0x3e56490b	0.20926301
1	0x3e5f5859	0.21811046
2	0x3f4a316b	0.78981656
3	0xbea5304d	-0.32263413
4	0x3f3c4bd3	0.735532
5	0x3c5fb128	0.013653077
6	0x3f11aed6	0.56907403
7	0x3e409349	0.18806185
8	0x3f3cb1cd	0.737088
9	0x3f022617	0.5083937
10	0x3eea6c7d	0.45785895
11	0xbd82ce87	-0.06387048
12	0xbd4808e1	-0.048836593
13	0x3bc6ce24	0.0060670543
14	0x3e7eb10e	0.24872229
15	0xbf626732	-0.88438714
16	0x3f386916	0.7203535
17	0xbe4798ba	-0.19491854
18	0x3f8546bb	1.041221
19	0x3f54dfe6	0.8315414
20	0x3d4ee9b1	0.050515834
21	0x3d748a4f	0.059702214
22	0xbf59abc9	-0.8502775
23	0xbf58b385	-0.84648925
24	0xbeb961fc	-0.3620757
25	0xbe266e76	-0.16253075
26	0x3d0c82e3	0.03430451
27	0x3d57f0fe	0.052720062
28	0xbcd6db45	-0.026227603
29	0x3d07343a	0.03300879
30	0x3d2401c2	0.04004074
31	0x3d7005c4	0.05859925
32	0x3e0d22b3	0.13782768
33	0xbde087b3	-0.109633826
34	0xbefeb6d4	-0.49748862
35	0xbecbf31e	-0.3983392
36	0x3e83b8a9	0.25726822
37	0x3ef1cd01	0.47226718
38	0x3ea00c57	0.31259415
39	0xbf61c03c	-0.8818395
40	0x3e075dea	0.13219419
41	0x3c733c08	0.0148458555
42	0xbead4c07	-0.33847067
43	0xbdf7eb3a	-0.12105413
44	0x3cac8ffd	0.021064753
45	0x3ce51a13	0.027966535
46	0xbf9040dd	-1.1269795
47	0x3e00603e	0.12536713
48	0x3e0087f0	0.12551856
49	0x3f1173ac	0.56817126
50	0x3e8e4477	0.2778661
51	0xbf1b3cbd	-0.60639554
52	0x3d2b4385	0.04181244
53	0xbe0be803	-0.13662724
54	0xbe0eb414	-0.13935882
55	0x3de64c24	0.112449914
56	0x3f03d3ae	0.5149487
57	0xbe053e99	-0.1301216
58	0xbd4d47b7	-0.05011722
59	0xbf52943a	-0.82257426
60	0xbc3ed3ff	-0.0116472235
61	0xbecc2b2e	-0.39876693
62	0xbc13c2b0	-0.009018585
63	0xbc8cad55	-0.017172495
64	0x3d16b914	0.036797598
65	0x3fdd4343	1.7286152
66	0x3ed48eb1	0.41515115
67	0x3d7d1a0b	0.061792415
68	0x3f8e8859	1.113536
69	0x3e49a160	0.19690466
70	0xbee7aabf	-0.45247456
71	0x3d22f079	0.039780114
72	0xbd57914b	-0.052628797
73	0x3e1d91e7	0.15387689
74	0x3f54f9a2	0.8319341
75	0x3ee67cdb	0.45017132
76	0x3ed580fc	0.4169997
77	0x3f25faf8	0.6483607
78	0x3f03dfe2	0.51513493
79	0xbe92b61e	-0.2865457
80	0xbe8019df	-0.25019738
81	0xbf04e996	-0.51918924
82	0xbe90ce96	-0.28282613
83	0x3e43455f	0.19069432
84	0x3e3d7a50	0.1850369
85	0xbe1f1223	-0.15534262
86	0x3d062125	0.032746453
87	0xbf53cb81	-0.827324
88	0xbfdaa396	-1.7081172
89	0x3d3373c9	0.043811593
90	0xbd204a48	-0.03913334
91	0x3db72e4f	0.089443795
92	0xbdf50dc3	-0.119655155
93	0xbcd7c941	-0.026341083
94	0xbde56204	-0.112003356
95	0x3c62c0f8	0.013839953
96	0x3c8f48bd	0.017490739
97	0x3cfc379c	0.030788235
98	0xbefbddf9	-0.4919279
99	0x3f0d1744	0.55113626
100	0x3f81c657	1.0138654
101	0x3f29b3b1	0.6628981
102	0x3d19cd36	0.03754922
103	0xbdf555c2	-0.11979248
104	0x3e14123d	0.14460082
105	0x3ca6de22	0.020369593
106	0xbf3e52ba	-0.7434498
107	0x3f5f5bbd	0.87249357
108	0xbf821f83	-1.0165867
109	0x3f1ffd08	0.6249547
110	0x3efda56d	0.49540272
111	0xbf043e57	-0.51657623
112	0xbf3d7837	-0.7401156
113	0xbeccaab0	-0.39973974
114	0xbf49b24e	-0.78787696
115	0xbe895829	-0.26825073
116	0x3e39f9a2	0.18161634
117	0x3dad5942	0.0846429
118	0x3e05c25a	0.1306242
119	0x3df0567f	0.11735248
120	0x3eb9d640	0.36296272
121	0x3db75c3a	0.08953138
122	0xbe384f7e	-0.17999074
123	0x3dcdd63e	0.10050629
124	0xbde53f96	-0.11193769
125	0x3e6c923a	0.23102656
126	0xbd0c5d45	-0.034268636
127	0xbe3710b9	-0.17877473
128	0xbc6e20c8	-0.014534183
129	0x3c633821	0.013868363
130	0x3d09f716	0.033682905
131	0xbebc5c33	-0.36789092
132	0xbf6b8b73	-0.9200966
133	0x3f3eeeda	0.7458321
134	0xbea233eb	-0.31680235
135	0x3e85e1df	0.26148888
136	0x3bc2be68	0.0059431084
137	0xbbf2c667	-0.0074089053
138	0x3d8fadb7	0.07015555
139	0x3edee49e	0.43533796
140	0xbccd84ca	-0.025087733
141	0x3ef729cd	0.4827408
142	0x3cde0f59	0.027106928
143	0x3e0900ca	0.13379207
144	0xbe8ef482	-0.2792092
145	0x3f637678	0.88852644
146	0xbf5a01e7	-0.8515915
147	0xbf0a1774	-0.53942037
148	0xbeade47f	-0.3396339
149	0x3ef60c6f	0.4805636
150	0x3f22e31a	0.6362778
151	0xbd865407	-0.06558996
152	0xbd88f54b	-0.06687411
153	0x3f7f1734	0.9964478
154	0xbefc5d51	-0.49289945
155	0x3e4a0d44	0.19731623
156	0xbdb12cfc	-0.08651158
157	0x3d305f19	0.043059442
158	0xbef7db61	-0.4840956
159	0xbd326919	-0.04355726
160	0xbd54ce29	-0.051954422
161	0x3d030992	0.03199155
162	0xbd4536af	-0.048147853
163	0x3d63d930	0.055627048
164	0x3fa05f14	1.2529016
165	0xbe6d1891	-0.23153903
166	0xbf48471a	-0.7823349
167	0xbeb888c1	-0.36041835
168	0xbe629122	-0.22125676
169	0xbf2324f5	-0.63728267
170	0xbf394168	-0.72365427
171	0xbe5b0b54	-0.2139104
172	0x3d248d38	0.04017374
173	0xbe0435eb	-0.12911193
174	0xbafcdcd5	-0.0019291887
175	0xbed7d27c	-0.42152774
176	0xbedeecf7	-0.43540165
177	0x3f1af53b	0.6053044
178	0xbc677bb8	-0.014128618
179	0xbf029a55	-0.5101674
180	0x3eb80317	0.35939857
181	0xbe8f6dec	-0.2801355
182	0xbea66739	-0.32500628
183	0x3f08ad28	0.53389215
184	0x3e3d222a	0.18470064
185	0xbf57f704	-0.8436129
186	0x3f09555a	0.5364586
187	0x3db0d98e	0.08635245
188	0x3e8910b0	0.26770544
189	0xbef738a4	-0.482854
190	0xbeb829cc	-0.35969388
191	0x3d699f97	0.057036962
192	0x3d529eff	0.05142116
193	0x3efb2791	0.49053624
194	0x3d719fd6	0.058990322
195	0xbc0fb0d6	-0.008770188
196	0xbd282938	-0.041054934
197	0xbf5c0f9b	-0.8596131
198	0xbe3d2c4f	-0.18473934
199	0xbe9bf488	-0.3046
200	0xbe63b7df	-0.2223811
201	0xbe18bc9a	-0.14915696
202	0x3af7388f	0.001886146
203	0x3d9c6b85	0.07637695
204	0xbe07ef96	-0.13274989
205	0xbe6cd908	-0.23129666
206	0x3f39f902	0.7264558
207	0x3fb6fd01	1.4295961
208	0x3ed51cd5	0.4162356
209	0x3dc3d6e6	0.09562473
210	0xbe09055e	-0.13380954
211	0x3e9d0c86	0.30673617
212	0x3fbbff07	1.4687203
213	0x3f1ffa72	0.62491524
214	0xbe3ec4ac	-0.18629712
215	0x3e8db64e	0.2767815
216	0xbe03edde	-0.12883708
217	0x3e1c134e	0.15241739
218	0xbd9b2671	-0.075756915
219	0xbec04dcd	-0.37559357
220	0x3b3d692f	0.0028901806
221	0x3e97ff0d	0.29686776
222	0x3ece64d2	0.40311295
223	0xbe77591d	-0.24155088
224	0xbda81f3f	-0.08209085
225	0x3b929161	0.004472897
226	0xbef8799f	-0.4853029
227	0xbd084476	-0.033268414
228	0x3c8735df	0.01650518
229	0x3d535870	0.051598012
230	0x3de5b89d	0.11216853
231	0xbf1c8d76	-0.6115335
232	0xbf9b3e1f	-1.2128333
233	0x3f68b7ce	0.90905464
234	0x3de1433a	0.109991506
235	0x3d8fc67a	0.07020278
236	0xbde5c6e5	-0.11219577
237	0xbd1461a7	-0.03622594
238	0xbe043751	-0.12911727
239	0x3f2c0636	0.6719698
240	0x3ec444d2	0.38333756
241	0xbea1a2dc	-0.31569564
242	0xbeb83906	-0.35981005
243	0x3ead29d1	0.33820966
244	0x3f583a17	0.8446364
245	0x3e9a286a	0.30108958
246	0xbeb99b59	-0.36251333
247	0xbe32ff78	-0.17480266
248	0xbe3a6486	-0.18202409
249	0x3df95f42	0.12176372
250	0xbe0b3582	-0.1359463
251	0xbccf9459	-0.025339292
252	0xbe90a7e8	-0.28253102
253	0xbbd88c8c	-0.0066085514
254	0x3ecf4926	0.40485495
255	0xbe8039fd	-0.25044242

fcs1.bias f4 [256]
0	0xbda108f1	-0.078630336
1	0xbe038c9d	-0.12846608
2	0x3e32191f	0.17392395
3	0xbd04ebce	-0.032451443
4	0x3d0f0d47	0.03492477
5	0xbc9926f5	-0.018695334
6	0x3dd4e80c	0.10395822
7	0x3c091eb3	0.008369136
8	0xbd6f3f75	-0.058410127
9	0x3e23c51b	0.15993159
10	0xbd4465d7	-0.047948685
11	0xbe2f00e0	-0.17090178
12	0x3dbb17d7	0.091354065
13	0xbce0e15b	-0.027451208
14	0x3c38d687	0.011281616
15	0xbd389b59	-0.045070026
16	0xbc874a79	-0.016515004
17	0xba2e7b0f	-0.00066559104
18	0xbdf35290	-0.11880982
19	0x3c37084a	0.01117141
20	0x3d3b25b6	0.04569026
21	0x3e29475b	0.16531126
22	0x3df8c15b	0.12146255
23	0x3d6d15f4	0.057882264
24	0xbdbd1ad4	-0.09233633
25	0x3d23e0cf	0.040009316
26	0xbe21d39e	-0.15803382
27	0x3e0eb849	0.13937487
28	0x3d75b6da	0.059988834
29	0xbe1dd39d	-0.15412755
30	0x3e04398c	0.12912577
31	0x3ce60f4e	0.02808347
32	0x3dc9c80d	0.0985261
33	0x3e198bf9	0.14994802
34	0xbcc53230	-0.024071783
35	0x3d67dbda	0.05660615
36	0x3e0840c0	0.1330595
37	0xbcd36e52	-0.02580944
38	0xbe042927	-0.12906323
39	0xbdbcf10a	-0.09225662
40	0x3b2c0995	0.0026250829
41	0x3d58426f	0.05279773
42	0xbdbb8f51	-0.09158195
43	0xbda6cb07	-0.08144193
44	0xbe2c31b2	-0.16815832
45	0xbd5dea41	-0.05417848
46	0xbd179876	-0.037010632
47	0x3dc217e9	0.09477217
48	0xbc83e6b1	-0.016101213
49	0x3de5aa97	0.11214178
50	0xbd4ac976	-0.049508534
51	0xbcf49b79	-0.029859291
52	0xbe1c8000	-0.15283203
53	0x3e1fba01	0.15598299
54	0xbd14983a	-0.036277987
55	0x3cdc1cc5	0.026869187
56	0x3e1b148f	0.15144561
57	0x3d38a2c2	0.045077093
58	0xbce14da3	-0.02750284
59	0xbe0ee717	-0.13955341
60	0xbc162a60	-0.009165376
61	0x3e09b9d5	0.13449796
62	0x3cb68e39	0.022284614
63	0x3dd35a81	0.103199966
64	0x3b2e3d26	0.002658674
65	0xbe13649c	-0.14393848
66	0xbdca03f9	-0.09864039
67	0xbde7b872	-0.11314477
68	0x3dddaf6b	0.10824474
69	0xbdf8b3dc	-0.121436805
70	0x3dff4289	0.124638624
71	0xbc5cf75d	-0.01348671
72	0x3d67a7cd	0.05655651
73	0x3e262256	0.16224036
74	0x3d7ead90	0.06217724
75	0xbdfa6d84	-0.1222792
76	0x3e2435d2	0.16036156
77	0xbdd260dd	-0.102723815
78	0xbd6fd43a	-0.058552004
79	0xbb4c5883	-0.0031180687
80	0xbc1ad93c	-0.009451207
81	0x3d78bf28	0.060729176
82	0x3d89f74b	0.067366205
83	0x3df767a9	0.120803185
84	0xbabc9131	-0.0014386532
85	0x3e18dbd6	0.14927611
86	0xbe0d4af0	-0.13798118
87	0x3e0da4a6	0.1383234
88	0xbd9711b8	-0.073764265
89	0xbe2d3255	-0.16913731
90	0xbdb0c0e3	-0.0863054
91	0x3a1292e6	0.00055913476
92	0x3da1be8a	0.078976706
93	0x3e036bc3	0.12834077
94	0x3cfc27bf	0.030780671
95	0x3dc5a5af	0.09650742
96	0x3e271776	0.16317543
97	0xbdfab22f	-0.12241017
98	0xbda476e4	-0.08030489
99	0xbe0eee63	-0.13958125
100	0xbdd9ca70	-0.10634315
101	0xbdb08788	-0.086196005
102	0xbd53e8de	-0.05173575
103	0xbbd77838	-0.0065756105
104	0xbe305d14	-0.17223006
105	0xbe003b46	-0.12522611
106	0xbc8e8cdf	-0.017401157
107	0x3e1583e6	0.14601097
108	0x3de29cac	0.11065039
109	0xbe24edd5	-0.1610635
110	0xbb9d68bb	-0.0048037446
111	0xbd186e0f	-0.037214335
112	0xbe2922d2	-0.16517189
113	0xbdeea970	-0.116534114
114	0xbcf5ca01	-0.03000355
115	0xbd8a5a17	-0.067554645
116	0x3e05edf0	0.13079047
117	0x3d8516f7	0.06498521
118	0xbd8f0c4a	-0.06984766
119	0x3d7d9cea	0.061917223
120	0x3c0bcca6	0.008532679
121	0x3e04bbff	0.1296234
122	0x3cada311	0.02119592
123	0xbda9ac52	-0.082848206
124	0xba9c28b6	-0.0011913988
125	0xbd64f174	-0.05589433
126	0xbe15633f	-0.1458864
127	0x3de62c15	0.11238877
128	0xbd6d214d	-0.057893086
129	0x3e0bf6d4	0.13668376
130	0x3de3f10d	0.11129961
131	0xbdd5c34c	-0.104376405
132	0xbdb45e73	-0.08807077
133	0xbcdaa081	-0.026687862
134	0x3db1f0d6	0.08688514
135	0x3da5c64c	0.08094463
136	0xbd3ae236	-0.045625888
137	0x3c698fa8	0.014255442
138	0xbc917b33	-0.017758941
139	0xbd73cfe7	-0.059524443
140	0xbe083a71	-0.13303544
141	0x3ce55e68	0.027999118
142	0xbdd97a72	-0.10619058
143	0xbc425be8	-0.0118627325
144	0xbe12dcb1	-0.14342
145	0xbdf0fb90	-0.11766732
146	0x3d92e867	0.071732335
147	0x3cd2b3e1	0.025720539
148	0x3c3bef9d	0.0114707025
149	0x3d56805c	0.052368507
150	0xbe1971fb	-0.14984886
151	0x3d9d8c76	0.076928064
152	0xbd60c49d	-0.054875005
153	0x3c9d434a	0.019197125
154	0xbe1f2342	-0.15540794
155	0x3e21ed85	0.15813263
156	0xbe036b7b	-0.1283397
157	0x3e129ce2	0.14317659
158	0xbc1f3073	-0.009716141
159	0x3d3c11c4	0.04591538
160	0x3e0ada0e	0.13559744
161	0x3e0a21ab	0.13489406
162	0x3d0c2c3f	0.034221884
163	0xbdc1e7fa	-0.09468074
164	0xbdf06c43	-0.11739399
165	0x3e0df435	0.13862689
166	0xbe02e8fd	-0.1278419
167	0xbe188099	-0.14892806
168	0x3e03fb38	0.12888801
169	0x3e27db4b	0.16392247
170	0xbbac11cb	-0.0052511445
171	0x3e1fbae7	0.15598641
172	0x3dc8291b	0.09773465
173	0xbde2670d	-0.110548116
174	0xbd6ea17a	-0.058259465
175	0x3d973c2f	0.07384526
176	0x3c0ad767	0.0084742075
177	0xbdd71860	-0.10502696
178	0x3e2f57d7	0.17123352
179	0xbe314718	-0.17312276
180	0xbcdf586a	-0.027263839
181	0x3e27ec91	0.16398837
182	0xbdb31720	-0.08744645
183	0xbe31c471	-0.17360093
184	0xbc4c1160	-0.012455314
185	0xbcc0956e	-0.023508754
186	0xbe21cfd4	-0.15801936
187	0x3de204d6	0.11036079
188	0x3dfd9ab8	0.12383026
189	0x3e13dc32	0.14439467
190	0x3d0197d9	0.031638954
191	0x3d87e22f	0.06634938
192	0xbdbe5821	-0.09294153
193	0x3da50769	0.08058054
194	0x3da4e676	0.080517694
195	0xbba94f9a	-0.00516696
196	0x3d64034d	0.05566721
197	0x3d39ae49	0.045332227
198	0xbe263629	-0.16231598
199	0xbe2dad4f	-0.16960643
200	0x3db8ab66	0.09017067
201	0x3c8b08fd	0.01697206
202	0xbb837d32	-0.004012727
203	0x3d93e3d4	0.07221189
204	0x3e057053	0.1303113
205	0xbddab759	-0.10679502
206	0xbd8fb333	-0.070166014
207	0xbd2e5099	-0.042557333
208	0xbd3465e5	-0.044042487
209	0x3c6b981f	0.01437953
210	0xbdb6ccb9	-0.089257665
211	0xbd9ff62c	-0.078106254
212	0x3e1278e4	0.14303929
213	0xbd06f453	-0.03294785
214	0xbdbaa7f5	-0.091140665
215	0x3cc17896	0.02361707
216	0x3e23d5b0	0.15999484
217	0xbd33c60f	-0.043890055
218	0x3e03c10b	0.12866609
219	0x3c08c23f	0.008347093
220	0x3c5d70c4	0.013515655
221	0x3dc5bef1	0.0965556
222	0x3dd179ca	0.102283075
223	0xbd808bca	-0.06276663
224	0x3d86d270	0.065831065
225	0x3e10c527	0.14137708
226	0x3e03c836	0.12869343
227	0xbcde5a3c	-0.027142636
228	0xbd8100ed	-0.06299005
229	0x3ad77c31	0.001644021
230	0xbd70fd52	-0.058835335
231	0x3c067f22	0.008209022
232	0xbdbd26a9	-0.092358895
233	0x3d3a0da8	0.04542318
234	0x3c8b0420	0.01696974
235	0xbd89c72e	-0.06727444
236	0x3dff13b7	0.12454932
237	0x3da4c57d	0.080454804
238	0x3d88d38c	0.06680974
239	0xbdf8d5fe	-0.12150191
240	0xbdf67590	-0.12034142
241	0xbdbdf312	-0.092748776
242	0x3d90a2fa	0.07062335
243	0x3d96fc87	0.073723845
244	0xbdbb4700	-0.091444016
245	0xbc841f81	-0.016128303
246	0x3de8a4d5	0.11359564
247	0xbd4fe8c2	-0.050759085
248	0x3d21880d	0.03943639
249	0x3e0c8bf0	0.13725257
250	0xbe2c5fcf	-0.16833423
251	0xbe13b7a8	-0.14425528
252	0xbe196cac	-0.14982861
253	0x3e266e52	0.16253021
254	0x3de1b384	0.11020568
255	0xbd5c4de4	-0.05378522

bn1.weight f4 [256]
0	0x3f1f9934	0.62343144
1	0x3f30231e	0.68803585
2	0x3f59b20c	0.850373
3	0x3f6c7a14	0.92373776
4	0x3f5f1333	0.8713867
5	0x3f61ba89	0.88175255
6	0x3f80f3e0	1.0074425
7	0x3f4e9893	0.8070156
8	0x3f666e4b	0.90012044
9	0x3f83d73c	1.0300059
10	0x3f942378	1.1573324
11	0x3f3bc8c2	0.7335321
12	0x3f171a39	0.5902439
13	0x3f3676a0	0.7127476
14	0x3f81bb9a	1.0135376
15	0x3f6b3475	0.9187692
16	0x3f8e9ed6	1.1142223
17	0x3f4a38ca	0.78992903
18	0x3f63179b	0.88707894
19	0x3f5af295	0.855264
20	0x3f4616b9	0.7737842
21	0x3f94bc52	1.1619971
22	0x3f854b73	1.041365
23	0x3f496746	0.7867321
24	0x3f304ec6	0.688702
25	0x3f25d1ff	0.64773554
26	0x3f617a08	0.8807683
27	0x3f5d60bf	0.8647575
28	0x3f7be62b	0.98398083
29	0x3f540c5b	0.8283135
30	0x3f180678	0.5938487
31	0x3f94abb0	1.1614895
32	0x3f937459	1.1519881
33	0x3f99a87a	1.200454
34	0x3f910ff5	1.1332995
35	0x3f5ecbf6	0.8702997
36	0x3f52927a	0.82254755
37	0x3f5cc71d	0.8624132
38	0x3f54eef3	0.8317711
39	0x3f757f80	0.95897675
40	0x3f4f739b	0.81035775
41	0x3f490011	0.78515726
42	0x3f5ecb09	0.8702856
43	0x3faa487c	1.330337
44	0x3f169f32	0.5883666
45	0x3f4698fa	0.77577174
46	0x3f435efa	0.763168
47	0x3f584d7d	0.8449324
48	0x3f3ce8ac	0.7379253
49	0x3f73b92b	0.9520442
50	0x3f78c213	0.97171134
51	0x3f94d0cd	1.1626221
52	0x3f0c2a6f	0.5475225
53	0x3f37025f	0.71487993
54	0x3f7ed4e4	0.99543595
55	0x3f42e34b	0.7612807
56	0x3f375f3c	0.7162969
57	0x3f48101e	0.7814959
58	0x3f5d8281	0.8652726
59	0x3f9ed837	1.2409734
60	0x3f5442f9	0.8291469
61	0x3f3046e4	0.6885817
62	0x3f63135c	0.88701415
63	0x3f97a925	1.1848494
64	0x3f282542	0.6568185
65	0x3f82466d	1.0177742
66	0x3f62fb7d	0.8866499
67	0x3f4f2308	0.8091283
68	0x3f5d3f02	0.8642427
69	0x3f88b112	1.0679038
70	0x3f4d28aa	0.80140173
71	0x3f89b606	1.0758674
72	0x3f801672	1.000685
73	0x3f568f24	0.83812165
74	0x3f645e0f	0.8920602
75	0x3f566edd	0.83762914
76	0x3f677edf	0.90427965
77	0x3f458c02	0.7716676
78	0x3f4b6c7c	0.7946241
79	0x3f704a99	0.93863827
80	0x3f3dce45	0.7414287
81	0x3f65e809	0.8980718
82	0x3f5cc67c	0.86240363
83	0x3f1f4589	0.6221548
84	0x3f842306	1.0323188
85	0x3f768902	0.9630281
86	0x3f4dc367	0.80376285
87	0x3f51df13	0.8198101
88	0x3f38eea1	0.7223912
89	0x3f521b7c	0.8207319
90	0x3f8159ad	1.0105492
91	0x3f2474e3	0.64240855
92	0x3f331f10	0.6996927
93	0x3f27f793	0.65612143
94	0x3f66b10b	0.90113896
95	0x3f7cbeec	0.98728824
96	0x3f68925f	0.90848345
97	0x3f6667cd	0.9000214
98	0x3f5f2648	0.8716779
99	0x3f54922b	0.83035535
100	0x3f707ca7	0.93940204
101	0x3f5a7439	0.8533359
102	0x3f581d64	0.84419847
103	0x3f940ee6	1.1567047
104	0x3f3964a8	0.72419214
105	0x3f939c47	1.1532067
106	0x3f53f85a	0.8280083
107	0x3f3b9666	0.73276365
108	0x3f83de48	1.030221
109	0x3f3bbc43	0.7333414
110	0x3f495f37	0.7866091
111	0x3f54a0de	0.83057964
112	0x3f5ff2ee	0.87480056
113	0x3f32aaf5	0.6979211
114	0x3f27bc3a	0.65521586
115	0x3f37524f	0.7160997
116	0x3f1ca856	0.6119436
117	0x3f4d2184	0.80129266
118	0x3f546092	0.82959855
119	0x3f4ce655	0.8003896
120	0x3f5d83b5	0.86529094
121	0x3ee93647	0.45549223
122	0x3f488e01	0.7834168
123	0x3f6df8a7	0.9295754
124	0x3f5d61ff	0.86477655
125	0x3f8141b6	1.0098178
126	0x3f4279b2	0.7596694
127	0x3f4aaa62	0.79166234
128	0x3f1e0cd6	0.61738336
129	0x3f8d2abe	1.1028669
130	0x3f911e32	1.133734
131	0x3f26093e	0.6485785
132	0x3f1176eb	0.5682208
133	0x3f41466e	0.7549809
134	0x3f456973	0.7711403
135	0x3f33e1b0	0.70266247
136	0x3f6a951f	0.9163379
137	0x3f59bdaa	0.8505503
138	0x3f8e3c52	1.1112158
139	0x3f4ddc02	0.8041383
140	0x3f330b74	0.6993935
141	0x3f3e5dd7	0.7436194
142	0x3f62e7ea	0.8863512
143	0x3f38daca	0.72208846
144	0x3f61384a	0.87976515
145	0x3f49bf36	0.7880739
146	0x3f30d628	0.69076777
147	0x3fa9230e	1.3213823
148	0x3f4a016f	0.7890844
149	0x3f12ec3e	0.57391727
150	0x3f5f98ac	0.87342334
151	0x3f4a0575	0.78914577
152	0x3f3b6e8b	0.7321555
153	0x3fa68843	1.3010334
154	0x3f1c090e	0.60951316
155	0x3f30fd85	0.6913684
156	0x3f32b166	0.6980194
157	0x3f5c432d	0.8604
158	0x3f25e0b9	0.64796025
159	0x3f497ce3	0.78706187
160	0x3f76bd9c	0.9638307
161	0x3f75c67d	0.96005994
162	0x3f0e6b8f	0.5563287
163	0x3f7af00f	0.9802255
164	0x3f6e0330	0.92973614
165	0x3f2d82ce	0.6777772
166	0x3f6d15bc	0.9261129
167	0x3f971749	1.1803981
168	0x3f4b5b59	0.7943626
169	0x3f2569d6	0.6461462
170	0x3f508588	0.8145375
171	0x3f44ca34	0.7687104
172	0x3f385439	0.72003514
173	0x3f5b4c65	0.85663444
174	0x3f2dd259	0.6789909
175	0x3f07349d	0.52814656
176	0x3f348d2f	0.7052793
177	0x3f550377	0.8320841
178	0x3f528bc4	0.82244515
179	0x3f2f8e14	0.6857617
180	0x3f7434d8	0.95393133
181	0x3f56c0a0	0.8388767
182	0x3f779c87	0.96723217
183	0x3f700313	0.9375469
184	0x3f9174d9	1.1363784
185	0x3f405ea9	0.7514444
186	0x3f91712e	1.1362665
187	0x3f2724f6	0.6529077
188	0x3f5aad87	0.8542103
189	0x3f7641dd	0.9619425
190	0x3f541295	0.82840854
191	0x3f180d9b	0.5939576
192	0x3f2a93d3	0.6663181
193	0x3f0ab878	0.54187727
194	0x3f591358	0.8479514
195	0x3f5d30bc	0.8640249
196	0x3f7810d2	0.96900666
197	0x3f4199e7	0.7562546
198	0x3f85ff2a	1.0468495
199	0x3f811718	1.0085173
200	0x3f30d9ee	0.69082534
201	0x3f435fcb	0.76318043
202	0x3f833d41	1.0253068
203	0x3f424a62	0.7589475
204	0x3f3198c2	0.69373715
205	0x3f48a9c6	0.78384054
206	0x3f30b697	0.6902861
207	0x3f5db7ab	0.8660838
208	0x3f37af72	0.71752083
209	0x3f6cf365	0.9255889
210	0x3f7da12d	0.9907406
211	0x3f9d2f52	1.2280066
212	0x3f442aff	0.76628107
213	0x3f356cfc	0.7086942
214	0x3f8275b1	1.0192167
215	0x3f5574ac	0.8338115
216	0x3f15d8a2	0.5853368
217	0x3f2629e9	0.649077
218	0x3f27b9db	0.6551797
219	0x3f4512f6	0.7698206
220	0x3f2dc8eb	0.678847
221	0x3f4fb75d	0.81139165
222	0x3f4edca0	0.808054
223	0x3f60549d	0.8762911
224	0x3f6c9e2a	0.9242884
225	0x3f4be9ff	0.79653925
226	0x3f48797b	0.78310364
227	0x3f114a45	0.5675395
228	0x3f539156	0.8264364
229	0x3f1a4f79	0.60277516
230	0x3f2f5293	0.68485373
231	0x3f602d0a	0.87568724
232	0x3f503a25	0.8133872
233	0x3f17ab8a	0.5924612
234	0x3f731713	0.94957083
235	0x3fb8b38c	1.4429793
236	0x3f69115e	0.91042125
237	0x3f4b2f23	0.793688
238	0x3f0e9046	0.55688894
239	0x3fac25c5	1.3449026
240	0x3fc2e940	1.5227432
241	0x3f50318e	0.81325614
242	0x3f44e85d	0.7691706
243	0x3f26f515	0.65217716
244	0x3f19b68c	0.6004417
245	0x3f72b5b0	0.94808483
246	0x3f919694	1.1374078
247	0x3f886902	1.0657046
248	0x3f6ef688	0.93344927
249	0x3f638af5	0.88883907
250	0x3f3a1576	0.72688997
251	0x3f2914c9	0.6604734
252	0x3f407d98	0.7519164
253	0x3f2633bc	0.6492269
254	0x3f9c116a	1.2192814
255	0x3f61a0dc	0.88136077

bn1.bias f4 [256]
0	0xbe206427	-0.15663205
1	0xbed78a8f	-0.420979
2	0xbec2d8fb	-0.38056168
3	0xbecc8b2f	-0.3994994
4	0xbeebe333	-0.46071777
5	0xbf016f86	-0.50560796
6	0xbe7bc5f0	-0.24587226
7	0xbe04575f	-0.12923954
8	0xbf405048	-0.751225
9	0xbf241396	-0.64092386
10	0xbe90b10d	-0.2826008
11	0xbf369654	-0.7132313
12	0xbe70f6b0	-0.23531604
13	0xbdbb54ac	-0.09147009
14	0xbf4edeac	-0.8080852
15	0xbf338018	-0.7011733
16	0xbf0d411d	-0.5517748
17	0xbf61107a	-0.87915766
18	0xbefa8ce8	-0.48935628
19	0xbf1bd4f9	-0.60871845
20	0xbf578e77	-0.8420176
21	0xbeee95d1	-0.46598676
22	0xbf17e51c	-0.5933397
23	0xbf2c1252	-0.67215455
24	0xbec82396	-0.3908965
25	0xbdf93840	-0.12168932
26	0x3dbc116f	0.09183013
27	0xbf00c6f4	-0.5030358
28	0xbf2c3731	-0.67271715
29	0xbf02dcf3	-0.5111839
30	0xbd230c00	-0.039806366
31	0xbf2f8b79	-0.68572193
32	0xbe489742	-0.1958895
33	0xbdf242c4	-0.11829141
34	0xbf1784fd	-0.591873
35	0xbec76c78	-0.38949943
36	0xbef2ea7d	-0.47444525
37	0xbe825f05	-0.2546312
38	0xbf21f467	-0.63263553
39	0xbf06faca	-0.52726424
40	0xbee9d1d5	-0.45667902
41	0xbf5e56fe	-0.8685149
42	0xbf1ebc54	-0.62006116
43	0xbd949e5a	-0.07256766
44	0xbd55966d	-0.05214541
45	0xbeb02cde	-0.3440923
46	0xbf2b2d8c	-0.66866374
47	0xbeec7914	-0.46186125
48	0xbedd0222	-0.4316569
49	0xbf036172	-0.51320565
50	0xbe520b2b	-0.20512073
51	0xbe9f195a	-0.3107403
52	0xbe26c2e7	-0.16285287
53	0xbf26ca32	-0.65152276
54	0xbe11203b	-0.14172451
55	0xbde8176e	-0.11332594
56	0xbf46dcb5	-0.7768052
57	0xbf454eb8	-0.7707324
58	0xbf333546	-0.70003164
59	0xbe8c75cd	-0.27433625
60	0xbf3a4c4b	-0.72772664
61	0xbee95360	-0.45571423
62	0xbe6126f0	-0.2198751
63	0xbe8c2936	-0.2737519
64	0x3cf2b09f	0.029625235
65	0x3d726dfa	0.059186913
66	0xbf1c1bc9	-0.60979897
67	0xbf5e78bd	-0.8690298
68	0xbf0e5bf9	-0.5560909
69	0xbf09ed24	-0.5387747
70	0xbedac8dc	-0.4273137
71	0xbf3480e0	-0.7050915
72	0xbf059e0e	-0.521943
73	0xbf1c63bf	-0.610897
74	0xbf5c4375	-0.8604043
75	0xbf1b02d2	-0.6055118
76	0xbf117229	-0.5681482
77	0xbf28e1e3	-0.65969676
78	0xbf11a997	-0.568994
79	0xbf39da7c	-0.72599006
80	0xbf19a180	-0.60012054
81	0xbf07d5b5	-0.53060466
82	0xbeaf5a17	-0.3424842
83	0x3da487d2	0.08033718
84	0xbee24849	-0.44195774
85	0xbf249dc0	-0.6430321
86	0xbecc0ca5	-0.39853397
87	0xbf4e5d39	-0.80610996
88	0xbf2c79a7	-0.67373127
89	0xbef9e1ad	-0.4880499
90	0xbeafcd6e	-0.34336418
91	0x3e1f66bb	0.15566532
92	0xbf00f3c8	-0.5037198
93	0xbe938f82	-0.28820425
94	0xbf1ed756	-0.62047327
95	0xbf118c1b	-0.5685441
96	0xbd56da9b	-0.052454572
97	0xbec68630	-0.38774252
98	0xbf38b93e	-0.7215766
99	0xbf73aaa2	-0.9518224
100	0xbe88d95c	-0.26728332
101	0xbecd0899	-0.40045622
102	0xbf250e6e	-0.6447514
103	0xbf19ff90	-0.6015558
104	0xbf4fa28e	-0.81107414
105	0xbf249766	-0.64293516
106	0xbee5d0da	-0.44885904
107	0xbe7eb4ef	-0.24873708
108	0xbefb9261	-0.49135116
109	0xbe5b86fc	-0.21438211
110	0xbf428e9a	-0.7599884
111	0xbf27a153	-0.65480536
112	0xbf342ba7	-0.7037911
113	0xbf4e06c3	-0.8047907
114	0xbf5d2c6e	-0.8639592
115	0xbe825dc9	-0.25462177
116	0xbdcf6f54	-0.10128656
117	0xbf2e7080	-0.6814041
118	0xbf345c2c	-0.70453143
119	0xbf0b832c	-0.5449703
120	0xbe5d7542	-0.21626762
121	0xbd218ff1	-0.039443914
122	0xbf0f8be2	-0.5607282
123	0xbf261d75	-0.648887
124	0xbeab3390	-0.33437777
125	0xbed6c5d0	-0.41947794
126	0xbec83003	-0.3909913
127	0xbe94f382	-0.29092032
128	0xbe527de5	-0.20555837
129	0xbeab3718	-0.3344047
130	0xbf2d38b0	-0.67664623
131	0xbf0406a1	-0.51572615
132	0xbeb39e1c	-0.35081565
133	0xbf71400a	-0.9423834
134	0xbf1dde6e	-0.61667526
135	0xbdf7c701	-0.12098504
136	0xbe6f3795	-0.23361047
137	0xbe88247d	-0.26590338
138	0xbf47bdc7	-0.7802395
139	0xbeec2751	-0.46123746
140	0xbd855f22	-0.06512286
141	0x3e5c0a7f	0.21488379
142	0xbee06a82	-0.4383126
143	0xbeb8527a	-0.36000425
144	0xbf069006	-0.5256351
145	0xbec686f2	-0.3877483
146	0xbf14d5e6	-0.58138883
147	0xbe9ab8d2	-0.30219132
148	0xbf9dd458	-1.2330427
149	0xbe3884e0	-0.18019438
150	0xbbabfe08	-0.0052487887
151	0xbeca0041	-0.3945332
152	0xbdb48efc	-0.088163346
153	0x3df042eb	0.117315136
154	0xbf019baf	-0.5062818
155	0xbf6033b4	-0.8757889
156	0xbe1127fe	-0.14175412
157	0xbe87e0ad	-0.26538602
158	0xbf62f844	-0.88660073
159	0xbf94690a	-1.1594555
160	0xbe3f3672	-0.18673113
161	0xbf8d5c00	-1.1043701
162	0xbe891580	-0.26774216
163	0xbed16dab	-0.40903983
164	0xbea25ab2	-0.3170982
165	0x3c8f21a7	0.017472101
166	0xbf1b825c	-0.6074579
167	0xbf0d591e	-0.5521411
168	0xbf068c27	-0.52557606
169	0xbec4ec4c	-0.3846153
170	0xbe9ebfb3	-0.3100563
171	0xbee4e846	-0.4470846
172	0xbf8bb9ee	-1.0916116
173	0xbeeb8596	-0.46000355
174	0xbedb8526	-0.42875022
175	0x3d67f5cd	0.0566309
176	0xbf09e187	-0.5385975
177	0xbe8661e4	-0.2624656
178	0xbf09acd4	-0.5377934
179	0x3d9de422	0.077095285
180	0xbf437253	-0.7634632
181	0xbf3ed8d5	-0.7454961
182	0xbf170299	-0.5898834
183	0xbf162144	-0.5864451
184	0xbd2d4588	-0.04230264
185	0xbf0d88b1	-0.552867
186	0xbf22a680	-0.6353531
187	0xbf17f9e7	-0.59365696
188	0xbf37a46f	-0.7173528
189	0xbf0dcc0f	-0.55389494
190	0xbf43a507	-0.76423687
191	0xbe1f29e4	-0.15543324
192	0xbee1cb95	-0.44100633
193	0xbecb04a8	-0.3965199
194	0xbeb3fcb8	-0.35153747
195	0xbe3916ae	-0.18075058
196	0xbf18aef0	-0.59641933
197	0xbf58126d	-0.84403116
198	0xbeb9df2b	-0.36303076
199	0xbebe033a	-0.37111837
200	0xbf180029	-0.59375244
201	0xbf2bd534	-0.671222
202	0xbd542451	-0.051792447
203	0xbf15c9f6	-0.5851129
204	0xbeda371b	-0.42620167
205	0xbf340dc5	-0.7033351
206	0xbf75d698	-0.9603057
207	0xbe9e4dfe	-0.30918878
208	0xbf23058c	-0.6368034
209	0xbf1ac07e	-0.6044997
210	0xbf1e818a	-0.6191641
211	0xbee007cb	-0.43755946
212	0xbdc146de	-0.09437345
213	0xbe99d5dd	-0.30045977
214	0xbf16f1ae	-0.58962524
215	0xbf0f9b2d	-0.56096154
216	0xbec065c1	-0.37577632
217	0xbee4182b	-0.4454969
218	0xbe4ab126	-0.1979414
219	0xbea3e241	-0.32008556
220	0xbec22b92	-0.37923867
221	0xbf4fd641	-0.811863
222	0xbee01a0a	-0.43769866
223	0xbd068959	-0.03284583
224	0xbf12860a	-0.5723578
225	0xbf63bc6b	-0.8895938
226	0xbf1074c9	-0.564282
227	0xbf37c0d6	-0.7177862
228	0xbecaca73	-0.39607581
229	0xbf0afb19	-0.54289395
230	0xbe61f568	-0.22066271
231	0xbf2160da	-0.6303841
232	0xbe0a6c33	-0.13517837
233	0xbe8a8b4c	-0.270594
234	0xbf26e89a	-0.6519867
235	0xbe944c7f	-0.28964612
236	0xbf1b7d66	-0.6073822
237	0xbec465bc	-0.38358867
238	0xbebe33e4	-0.37148964
239	0xbf15fa59	-0.58585125
240	0xbe2c71be	-0.16840264
241	0xbf412f74	-0.7546303
242	0xbec5f2ab	-0.38661703
243	0xbf2d3787	-0.67662853
244	0xbefc2af4	-0.4925152
245	0xbf0c9cae	-0.54926574
246	0xbe18da9c	-0.14927143
247	0xbf08ee67	-0.53488773
248	0xbe2613b4	-0.16218454
249	0xbe891553	-0.26774082
250	0xbf287d7e	-0.65816486
251	0xbf060ba3	-0.52361506
252	0xbe469568	-0.19392931
253	0xbead1d50	-0.33811426
254	0xbc0688a0	-0.008211285
255	0xbeba3b19	-0.36373213

bn1.running_mean f4 [256]
0	0xbf9e8150	-1.2383213
1	0xc03261d8	-2.787222
2	0xc0081566	-2.126306
3	0xbf8858f5	-1.0652148
4	0x4015b12a	2.3389382
5	0x3f5bf941	0.85927206
6	0xc01cee6e	-2.4520526
7	0x40091e55	2.1424763
8	0x40bb93ff	5.861816
9	0x3e258fe9	0.16168179
10	0x3f8e877d	1.1135098
11	0x403ab685	2.91739
12	0x403cecce	2.9519534
13	0x401eda1e	2.4820628
14	0xbfc98b43	-1.5745624
15	0xc039ad6e	-2.9012103
16	0x3f22c86e	0.6358708
17	0x3eba238d	0.36355248
18	0xbf2ae463	-0.6675474
19	0x3d77eabb	0.06052659
20	0xbfcc6893	-1.5969414
21	0x3d152cad	0.03641956
22	0xc0563575	-3.3470128
23	0xbea5ab5b	-0.32357296
24	0x3fa7c981	1.3108369
25	0x400a6f90	2.1630592
26	0xbfd8f175	-1.6948687
27	0x3ee9dda7	0.4567692
28	0x3fb1453d	1.3849255
29	0x3f5de476	0.8667673
30	0x3f41a35c	0.7563989
31	0xbd5b2476	-0.05350157
32	0x3f31d58f	0.6946649
33	0x3dba5d1e	0.09099792
34	0xbfbcdde3	-1.4755214
35	0x3d4fad5d	0.05070244
36	0x3f8ac4ae	1.0841272
37	0x3fcec0d9	1.6152602
38	0x3d26ebdf	0.040752288
39	0x3fb611f7	1.4224232
40	0xbf48497d	-0.78237134
41	0xbff39a1f	-1.9031409
42	0xbe224d39	-0.1584977
43	0x3c0a2e46	0.008433884
44	0xc055a84c	-3.338397
45	0x3fcd700b	1.6049818
46	0xc05cd1bb	-3.450301
47	0xbe45a909	-0.19302763
48	0xbf45a373	-0.7720253
49	0xc046fda0	-3.10923
50	0xbfbe441c	-1.4864535
51	0x3e7324eb	0.23744552
52	0xbe8dabc5	-0.27670112
53	0x402c81e8	2.6954288
54	0xbe0528fc	-0.13003916
55	0xbfc00496	-1.50014
56	0x40cc7b5f	6.39006
57	0xbee68ca2	-0.4502917
58	0x4075762f	3.8353384
59	0x4034f574	2.8274813
60	0x4085a758	4.1766777
61	0x402c1d6c	2.6892958
62	0xbe067037	-0.13128744
63	0xbf6fe451	-0.9370776
64	0x3f39f082	0.7263261
65	0x400999a2	2.150002
66	0x3f2caf5e	0.6745509
67	0x401e49c3	2.473252
68	0xc03957f8	-2.8959942
69	0xbe3e4075	-0.18579276
70	0x4086a0a2	4.2071085
71	0xbf24c22c	-0.6435878
72	0x3f38a460	0.72125816
73	0x4042e652	3.0453076
74	0x3fd2179b	1.6413454
75	0xbf9b1163	-1.2114681
76	0xbf996290	-1.1983204
77	0xc04b6538	-3.178053
78	0xc05163d7	-3.2717187
79	0x4024ffb2	2.5781064
80	0xbf93c8c7	-1.1545647
81	0xbac9b862	-0.0015390033
82	0xbff2d187	-1.8970193
83	0xbf949416	-1.1607692
84	0x3f58fb65	0.847586
85	0xc04c1465	-3.1887448
86	0xc0a2c619	-5.086682
87	0xc06cc610	-3.6995888
88	0xc0286ecc	-2.6317625
89	0xbf8b4267	-1.0879639
90	0x3e4f3208	0.20233929
91	0x3f9accae	1.2093713
92	0xbf81ee1c	-1.015079
93	0xbf8996c6	-1.0749137
94	0xc008a896	-2.1352897
95	0x3f7e9488	0.9944539
96	0xbfbf11c1	-1.4927293
97	0xc05a3778	-3.4096355
98	0xc024276a	-2.5649056
99	0xbce41fb8	-0.027847156
100	0xbe321554	-0.17390949
101	0x403d541b	2.9582584
102	0x3f26e563	0.65193766
103	0xbfc7c0c0	-1.5605698
104	0x402ced07	2.701967
105	0x3feb5182	1.8384249
106	0xbe81f59b	-0.25382695
107	0xbfa0680a	-1.253175
108	0x3eeaf839	0.45892504
109	0x40a124d9	5.035748
110	0xbf15ba02	-0.5848695
111	0xbff9c978	-1.9514608
112	0x4043df41	3.0605013
113	0xbdec2c99	-0.11531944
114	0xbf1e7c94	-0.6190884
115	0x3fbdba14	1.4822412
116	0xbf852617	-1.0402249
117	0xc021356f	-2.5188863
118	0x40becc79	5.96246
119	0x3e3d225f	0.18470143
120	0x3ebd4b67	0.3697159
121	0xbf8ac926	-1.0842636
122	0x40227cb1	2.5388606
123	0xbf920e3b	-1.1410593
124	0x3fdb3e5d	1.7128407
125	0xbfcc6549	-1.596841
126	0xbea863ca	-0.32888633
127	0x3f88f572	1.0699904
128	0x40a84a9f	5.259109
129	0x4003979a	2.056128
130	0xc0013a05	-2.0191662
131	0x40842eac	4.1306973
132	0x3e8ce734	0.27520144
133	0x3ebdcb88	0.37069345
134	0x3fabaa13	1.3411278
135	0x3e62e2f9	0.22156896
136	0x4008f598	2.1399899
137	0x404afad0	3.1715584
138	0x3e0fa6c8	0.14028466
139	0x4082fd12	4.0933924
140	0x3f03da64	0.5150511
141	0xbfb95604	-1.4479375
142	0x3f10657a	0.5640484
143	0x4025bf8c	2.589816
144	0xbde91ed9	-0.11382837
145	0x3f78585c	0.97009826
146	0x3f7511e9	0.95730454
147	0xbfbd2a5e	-1.4778554
148	0xc09952a2	-4.791337
149	0xbf09b3ff	-0.5379028
150	0x3fb09b4d	1.3797394
151	0x409bf62f	4.8738017
152	0xbfa90491	-1.3204519
153	0x3fbc94d3	1.4732918
154	0xbfef5a84	-1.8699498
155	0xc0477962	-3.1167836
156	0xbfaec727	-1.3654526
157	0xbfe84559	-1.8146163
158	0xbf5bbd8e	-0.8583611
159	0xc00b7b50	-2.1794014
160	0xc0a1e5cd	-5.059302
161	0x4028eee4	2.6395807
162	0xc0826078	-4.074276
163	0x3f1e509c	0.6184175
164	0x3f7effa1	0.9960881
165	0x40467169	3.100672
166	0x3f4e27ce	0.8052949
167	0x3f8f0212	1.1172507
168	0xbd9a840e	-0.07544719
169	0xc0903716	-4.5067244
170	0x4058559e	3.3802257
171	0xc01445c7	-2.3167589
172	0xc05d0ae6	-3.4537902
173	0xc085be11	-4.1794515
174	0xbf5fff9d	-0.8749941
175	0xbfa2ea99	-1.2727844
176	0xbf09ce44	-0.5383036
177	0x3f306e7c	0.68918586
178	0xbefc8a62	-0.49324328
179	0xbf1d4358	-0.61430883
180	0xc071cd12	-3.7781415
181	0xc03c4166	-2.9414916
182	0xc0914e54	-4.5408115
183	0x4011f4d4	2.2805681
184	0xc024c5f8	-2.574583
185	0xbf010509	-0.5039831
186	0x40aa80a0	5.3282013
187	0xc047c3e2	-3.1213307
188	0x4035d1ad	2.8409226
189	0xc0149a99	-2.321936
190	0x3fe4337d	1.7828213
191	0x40283d7f	2.6287534
192	0xc09d3eee	-4.913932
193	0x3d39ff3f	0.045409437
194	0x40157bb9	2.3356764
195	0x3f8ffa8e	1.1248338
196	0xc0077233	-2.1163452
197	0x3f0f83d5	0.56060535
198	0xbee31658	-0.44352984
199	0xbf634e46	-0.8879131
200	0xbfe25e98	-1.7685118
201	0xbfd86ef1	-1.6908857
202	0x3f14a66a	0.5806643
203	0xc00dfc12	-2.2185102
204	0x3fac142b	1.3443655
205	0x409191c0	4.5490417
206	0xc0399e38	-2.900282
207	0xbe7fb296	-0.24970469
208	0xbdb520f0	-0.08844173
209	0xc021a8b8	-2.5259228
210	0xbeb73bbc	-0.3578776
211	0x3f1de441	0.6167641
212	0xbfffc2b5	-1.9981295
213	0xbfaa2584	-1.3292699
214	0xbede9613	-0.43473873
215	0x4064b943	3.5738075
216	0xbfcadd7c	-1.5848842
217	0x4027070a	2.6098046
218	0xbe8e1ad9	-0.27754858
219	0x3f49740f	0.78692716
220	0xc0214b20	-2.5202103
221	0x405ff10e	3.4990878
222	0x3fb4535f	1.4087943
223	0x3f8e3ba9	1.1111957
224	0xc00b96f2	-2.181088
225	0xbfcc749c	-1.5973086
226	0xbf188c85	-0.59589416
227	0x3f4bc33f	0.79594797
228	0xc0678dab	-3.6180217
229	0xbfa8afdc	-1.3178668
230	0x3fbc2423	1.4698528
231	0xbe498f8c	-0.19683665
232	0xbf0efa83	-0.55851
233	0xc013c81f	-2.3090894
234	0xbfb556e9	-1.4167148
235	0xbf1e7925	-0.619036
236	0x400bc7fa	2.1840806
237	0x3fb4ab2a	1.4114735
238	0xbf9c4b92	-1.2210562
239	0xbe6226f7	-0.22085176
240	0xbe92f2ab	-0.28700766
241	0xbfdf326c	-1.7437263
242	0xc053a3d8	-3.3068752
243	0x400f2e89	2.2372153
244	0xbf9d4f3e	-1.2289808
245	0x3e9c5ab7	0.3053796
246	0x3fa1cbeb	1.2640356
247	0x3f4911b8	0.7854266
248	0x3e1859a2	0.14877942
249	0x3e7dd8e5	0.2478977
250	0xbf84c316	-1.0372036
251	0xbed067a4	-0.40704072
252	0x401ec0a6	2.4805083
253	0x403238fc	2.784728
254	0x3f1a7753	0.60338324
255	0xbef27ba7	-0.47359964

bn1.running_var f4 [256]
0	0x425beb27	54.97964
1	0x429e4983	79.14358
2	0x41c034f3	24.025854
3	0x41d198b0	26.199554
4	0x420eade3	35.66981
5	0x42b468a3	90.20437
6	0x4253b960	52.93103
7	0x41a37148	20.430313
8	0x4323cec9	163.80775
9	0x41abcb87	21.474379
10	0x41963ebd	18.780634
11	0x41e9ccdc	29.225029
12	0x428eadcb	71.33944
13	0x42901869	72.047676
14	0x42d20849	105.01618
15	0x423e7893	47.61775
16	0x41c580ce	24.687893
17	0x426b49ad	58.82195
18	0x42471fac	49.78093
19	0x417f6ef7	15.964591
20	0x4207dd12	33.96589
21	0x4194cb2e	18.599209
22	0x42cea013	103.312645
23	0x421ad6c4	38.709732
24	0x42045cc9	33.09061
25	0x422be2dd	42.971546
26	0x42b07ce8	88.24396
27	0x42807f52	64.24867
28	0x42603bc4	56.058365
29	0x42a10c7b	80.524376
30	0x41911660	18.135925
31	0x420e8aee	35.635674
32	0x42ae6e07	87.2149
33	0x41682f23	14.511508
34	0x41848cb1	16.568697
35	0x423d04f3	47.254833
36	0x42803bfb	64.11715
37	0x41d49542	26.57288
38	0x417032de	15.012419
39	0x41d29cf5	26.32664
40	0x42a5fe9d	82.99729
41	0x41cae543	25.361944
42	0x42077b62	33.87049
43	0x41b72463	22.892767
44	0x4217abef	37.917904
45	0x423b97de	46.898308
46	0x42d18433	104.7582
47	0x4240c76b	48.194744
48	0x425db84f	55.42999
49	0x4234d0ea	45.204018
50	0x42963a9f	75.114494
51	0x41879f6e	16.952847
52	0x42595dff	54.341793
53	0x4200c0f1	32.18842
54	0x41877ff7	16.937483
55	0x42e979a9	116.73762
56	0x42900470	72.00867
57	0x4232eaed	44.72942
58	0x42858770	66.76453
59	0x4214e837	37.226772
60	0x4245fc4f	49.496395
61	0x428b2010	69.56262
62	0x4222ff9d	40.749622
63	0x426083e4	56.1288
64	0x42d7bca7	107.86846
65	0x42098385	34.378437
66	0x428da102	70.81447
67	0x42aa6b25	85.20927
68	0x4276a3ba	61.65989
69	0x419343c2	18.408085
70	0x41dbfff9	27.499987
71	0x425ce48a	55.223183
72	0x41670330	14.438278
73	0x42ac2ee0	86.09155
74	0x42d3bc6c	105.86801
75	0x419206c1	18.253298
76	0x427ece6f	63.701595
77	0x421d89ad	39.38445
78	0x4280222e	64.06676
79	0x419327bf	18.394407
80	0x41e3938e	28.447048
81	0x41864a84	16.786385
82	0x429b4bc8	77.64801
83	0x4258ff69	54.249424
84	0x41fa4520	31.283752
85	0x429ba183	77.81545
86	0x430a0184	138.00592
87	0x4223372f	40.80389
88	0x428024a8	64.071594
89	0x421dc867	39.445705
90	0x419a85eb	19.31539
91	0x4277cdcd	61.950977
92	0x42892331	68.56873
93	0x41e859e2	29.043888
94	0x4272493f	60.57153
95	0x4287fd07	67.994194
96	0x4205e694	33.475174
97	0x428f03cd	71.50742
98	0x42d79d06	107.80669
99	0x427b4faa	62.827797
100	0x41c13a1a	24.15337
101	0x421e6d22	39.606575
102	0x424dcf48	51.452423
103	0x42da78ba	109.235794
104	0x4238b707	46.178738
105	0x4218558a	38.083534
106	0x4296c4f6	75.38469
107	0x41e9341f	29.15045
108	0x42e8df0e	116.43565
109	0x4285011d	66.502174
110	0x42094658	34.318695
111	0x41dd5ff0	27.671844
112	0x428df176	70.9716
113	0x425e6239	55.59592
114	0x425ee92b	55.727703
115	0x422af615	42.740314
116	0x41645671	14.271104
117	0x421417b0	37.023132
118	0x424a5c80	50.590332
119	0x41d1e170	26.235077
120	0x4222fb13	40.74519
121	0x418ce37c	17.611076
122	0x42986da1	76.21412
123	0x42844a95	66.14567
124	0x42816b8b	64.710045
125	0x42cf03b5	103.50724
126	0x42900710	72.013794
127	0x42193123	38.297985
128	0x41cca795	25.581827
129	0x420eaf7f	35.671383
130	0x41a7d8e5	20.980906
131	0x4207480f	33.82037
132	0x41943de6	18.530224
133	0x42c44a56	98.14519
134	0x41fefa33	31.872168
135	0x42ddef51	110.967415
136	0x428a65c2	69.198746
137	0x421e77a0	39.61682
138	0x415cb6ae	13.7946
139	0x42880e74	68.02823
140	0x42bd228a	94.56746
141	0x424d6e27	51.35757
142	0x4287f3f4	67.97647
143	0x42528a84	52.63527
144	0x4224eeda	41.233253
145	0x420b0f06	34.76467
146	0x421f1fdb	39.78111
147	0x41cd27a1	25.64435
148	0x42ace9c5	86.45658
149	0x421a49a2	38.571907
150	0x41c6a2a1	24.829409
151	0x42804bcf	64.14806
152	0x428d6e9b	70.71603
153	0x41b3b462	22.463078
154	0x420b3543	34.802013
155	0x41c8aad0	25.083405
156	0x423ac5f9	46.693333
157	0x42c935ea	100.6053
158	0x429dc51c	78.88498
159	0x42b00d7c	88.02634
160	0x42f2f4d9	121.47822
161	0x424989f9	50.38474
162	0x4230e60e	44.224663
163	0x420cce2c	35.20134
164	0x420ccb61	35.198612
165	0x422de97b	43.47801
166	0x4241a054	48.40657
167	0x41fa7e60	31.311707
168	0x426cf4ac	59.238937
169	0x428fd376	71.91301
170	0x4282084e	65.01622
171	0x4247e121	49.969852
172	0x430fa7f6	143.6561
173	0x42807edd	64.24778
174	0x421aa8b1	38.664738
175	0x42970016	75.50017
176	0x41bb863f	23.44055
177	0x427b11a7	62.76724
178	0x41c45eb6	24.546246
179	0x423126c8	44.287872
180	0x426572fa	57.36228
181	0x42897f76	68.74895
182	0x428bbb85	69.86625
183	0x41f45276	30.540264
184	0x41dc374c	27.527
185	0x421b53d7	38.831875
186	0x42710355	60.253254
187	0x42898a9c	68.77072
188	0x422e202d	43.53142
189	0x42391ad0	46.276184
190	0x420857c8	34.085724
191	0x42a58261	82.75465
192	0x421e3e4b	39.560833
193	0x42205521	40.083134
194	0x41f4b752	30.589512
195	0x42390d74	46.263138
196	0x429c4804	78.140656
197	0x4291a85b	72.82882
198	0x41d0ca1d	26.098688
199	0x4223fff5	40.999958
200	0x4285ccec	66.90024
201	0x42155e8a	37.342323
202	0x4244a032	49.15644
203	0x417b5afa	15.709711
204	0x41cedc57	25.857588
205	0x42a820ed	84.06431
206	0x429b90df	77.78295
207	0x4300f2be	128.94821
208	0x42cbdb82	101.92873
209	0x4188a99b	17.082815
210	0x41cc4f13	25.53861
211	0x41cc7267	25.55586
212	0x42824cd2	65.15004
213	0x425eaa8d	55.666553
214	0x41b06258	22.04802
215	0x429d2c12	78.586075
216	0x42284fdd	42.07799
217	0x422c7b45	43.12038
218	0x4241df2f	48.467953
219	0x4288738a	68.22566
220	0x41b4816b	22.563192
221	0x42c5011c	98.50217
222	0x421b9d98	38.9039
223	0x4271022c	60.25212
224	0x428ad231	69.41053
225	0x42aa0d1b	85.0256
226	0x42688c07	58.136745
227	0x4269709b	58.359966
228	0x423a2706	46.53811
229	0x4201a897	32.41464
230	0x4214864c	37.13115
231	0x432116a0	161.08838
232	0x42927bb8	73.24164
233	0x4299c052	76.875626
234	0x42b811b6	92.03459
235	0x41753bb2	15.327074
236	0x41f33603	30.401373
237	0x41ce7686	25.807873
238	0x428347a5	65.63993
239	0x415c3282	13.762331
240	0x4166f80a	14.435556
241	0x42dbae03	109.83987
242	0x426cae55	59.170246
243	0x41bb072a	23.378498
244	0x425bdc7a	54.96531
245	0x41b6725b	22.805838
246	0x418ecf76	17.8513
247	0x4217fa85	37.994648
248	0x42f024ab	120.07162
249	0x42ba90b1	93.2826
250	0x420ac129	34.688633
251	0x4218e8a2	38.22718
252	0x4264ce41	57.20142
253	0x428c443c	70.13327
254	0x41760b13	15.377704
255	0x420577ca	33.36698

fc2.weight f4 [128, 260]
0	0xbda649c1	-0.08119536
1	0x3d1a6614	0.037695006
2	0xbd37c31b	-0.0448638
3	0xbc8de1f7	-0.017319662
4	0x3cc1992e	0.023632612
5	0x3c97cee1	0.018531265
6	0xbd5d2f59	-0.054000232
7	0xbd6dc517	-0.058049288
8	0xbcb2bc56	-0.021818321
9	0xbd991c67	-0.074761204
10	0xbe0d9b42	-0.13828757
11	0xbc36bb93	-0.01115312
12	0xbde93a4e	-0.11388074
13	0x3d8d6693	0.0690433
14	0xbb54575e	-0.0032400708
15	0xbd729183	-0.059220802
16	0xbbe75a24	-0.007060306
17	0xbd672664	-0.056433097
18	0xbdb80737	-0.08985751
19	0xbdc90b86	-0.09816651
20	0xbcc8f7d1	-0.02453223
21	0xbd763708	-0.060111076
22	0x3c3950c7	0.011310763
23	0xbc8419df	-0.016125618
24	0x3cd9edfc	0.026602738
25	0x3ce7a270	0.028275698
26	0xbde61596	-0.11234586
27	0xbdab021d	-0.083500125
28	0xbd96b27f	-0.07358264
29	0xbde1c552	-0.11023964
30	0x3cce60d0	0.025192648
31	0x3c8b9c82	0.017042402
32	0xbce3cf2f	-0.027808754
33	0x3cc4f609	0.0240431
34	0xbdf8ee35	-0.121548094
35	0xbd75be7f	-0.059996124
36	0x3d080f9d	0.033218015
37	0xbd084b9f	-0.033275243
38	0xbdce94f8	-0.10087007
39	0x3c2edb4f	0.010672404
40	0x3be8c8d8	0.0071040206
41	0xbd9541d8	-0.07287949
42	0x3bc37a33	0.005965495
43	0xbdb28f8c	-0.08718786
44	0x3d75aec3	0.05998112
45	0x3d26a0cf	0.040680703
46	0xbc86a6a1	-0.016436877
47	0xbd51e5d6	-0.05124458
48	0xbce7bcc7	-0.028288258
49	0x3bd85f92	0.0066031897
50	0xbc619f45	-0.013770883
51	0xbdc48b26	-0.09596853
52	0xbe2250c6	-0.15851125
53	0x3d3a8e99	0.045546148
54	0x3bed0891	0.007233687
55	0xbda544aa	-0.08069737
56	0xbd83838b	-0.06421574
57	0xbd4e1be2	-0.05031956
58	0x3c1dd863	0.00963411
59	0xbdaa00fe	-0.083009705
60	0xbc2e0b50	-0.010622814
61	0x3c89be19	0.016814278
62	0x3d553fcd	0.0520628
63	0x3d18aee6	0.03727617
64	0xbd95eb54	-0.07320276
65	0xbdb9e07c	-0.0907602
66	0xbe2989e7	-0.16556512
67	0xbde5a5a5	-0.11213235
68	0xbcd0de70	-0.025496691
69	0xbb3eaaf6	-0.00290936
70	0xbd87b0b2	-0.06625499
71	0x3c74e422	0.014946969
72	0x3bb3d18e	0.0054876273
73	0xbde73509	-0.112894125
74	0xbc6bc6ee	-0.01439069
75	0xbcf91195	-0.030403892
76	0xbd2f8c3e	-0.042858355
77	0xbd2b5e14	-0.041837767
78	0x3d3f88c4	0.04676129
79	0xbc0b02dc	-0.008484568
80	0xbd6d67d9	-0.057960365
81	0xbdc3ae08	-0.09554678
82	0x3cdcf667	0.026972963
83	0xbd04d97e	-0.03243398
84	0x3d65c1ce	0.05609303
85	0xbd606ae5	-0.054789443
86	0xbd7b63dd	-0.061374534
87	0xbe4cbc45	-0.19993694
88	0xbd913b7c	-0.07091424
89	0xbd84dc23	-0.064873
90	0xbd2dee92	-0.042463847
91	0xbd109021	-0.035293702
92	0x3ce64d9d	0.02811318
93	0xbd9a8840	-0.07545519
94	0x3cf171c2	0.02947319
95	0x3d0df114	0.03465374
96	0xbab4776a	-0.0013768498
97	0xbcca3353	-0.024682676
98	0x3cbf6893	0.023365295
99	0x3d2a5850	0.041588128
100	0xbdb20ee5	-0.08694247
101	0xbd5b811d	-0.05358993
102	0xbe0dd928	-0.1385237
103	0xbcd4982f	-0.025951473
104	0x3caa732f	0.020806877
105	0x3d86c779	0.06581015
106	0xbd816ecb	-0.0631996
107	0xbe0a9716	-0.13534197
108	0xbd164d12	-0.036694594
109	0xbc60706c	-0.013698678
110	0x3b5f3a09	0.0034061691
111	0x3d4ac03f	0.049499746
112	0xbd06ced2	-0.032912083
113	0xbcbdd4de	-0.023172792
114	0xbca7beeb	-0.020476779
115	0x3d0acd27	0.033887055
116	0xbd14cb94	-0.03632696
117	0xbd892b29	-0.06697685
118	0xbcf64c34	-0.030065633
119	0x3d80ed36	0.062952444
120	0xbd3cd331	-0.046099845
121	0xbc136408	-0.008996017
122	0xbe025e98	-0.12731397
123	0xbe2b0025	-0.16699274
124	0xbe0d8b71	-0.13822724
125	0xbdadead6	-0.08492057
126	0xbdaeeb9f	-0.08541035
127	0x3d507ba6	0.05089917
128	0xbdbf64e2	-0.09345414
129	0xbda91465	-0.08255843
130	0xbd3931aa	-0.04521338
131	0xbc887174	-0.016655661
132	0xbdc08075	-0.09399501
133	0xbd8c77c8	-0.06858784
134	0xbe0954ef	-0.13411306
135	0xbcb17749	-0.021663325
136	0xbb39e67a	-0.0028366135
137	0xbc5d3b0a	-0.013502846
138	0xbda06377	-0.078314714
139	0xbd3b3801	-0.045707706
140	0xbb2644b8	-0.002537055
141	0xbddc9e6c	-0.10772404
142	0x3d1c742a	0.03819672
143	0xbca2da91	-0.019879611
144	0xbcf170b1	-0.02947268
145	0xbde62479	-0.11237425
146	0xbdc29cea	-0.09502585
147	0x3d67f884	0.056633487
148	0xbdcb0f3f	-0.09915017
149	0xbbe99064	-0.0071278084
150	0xbd83b191	-0.064303525
151	0xbe1051ad	-0.14093657
152	0x3d97d287	0.07413202
153	0xbc05b466	-0.008160686
154	0xbd263b70	-0.040584028
155	0x3da0caf9	0.07851214
156	0xbd11bcce	-0.03558045
157	0xbd3058b9	-0.043053363
158	0xbddabf0a	-0.10680969
159	0xbd7aafa7	-0.06120267
160	0x3bdb9944	0.0067016203
161	0xbbb95171	-0.0056554605
162	0x3bd7c7b3	0.0065850853
163	0xbc2bfb64	-0.010496948
164	0x39629904	0.00021610042
165	0x3d966e80	0.07345295
166	0xbdb8060e	-0.0898553
167	0xbd6711a2	-0.0564133
168	0xbbda1ca1	-0.006656245
169	0x3d706bb1	0.058696453
170	0x3cb1ed9d	0.021719748
171	0x3d1010e2	0.03517235
172	0xbc34ff3d	-0.011047182
173	0xbe14f42c	-0.14546269
174	0x3d186e22	0.037214406
175	0xbde0a435	-0.1096882
176	0x3ce9e8a3	0.028553313
177	0x3ccf23e5	0.02528567
178	0x3d808c80	0.06276798
179	0xbd98e9a2	-0.07466437
180	0x3db92f85	0.09042267
181	0xbd21191f	-0.039330598
182	0xbda0306b	-0.07821735
183	0xbd0ef000	-0.03489685
184	0xbd1b126d	-0.03785937
185	0xbdefb66b	-0.11704715
186	0xbd0d8571	-0.034551088
187	0xbc49ebf3	-0.012324321
188	0x3d15b612	0.03655059
189	0xbd86adea	-0.0657614
190	0xbc9ccf87	-0.019141925
191	0xbd0c3626	-0.034231327
192	0x3d47d5fb	0.048788052
193	0xbdd928a7	-0.10603457
194	0xbd8cfddd	-0.06884358
195	0x3cb0c412	0.021577869
196	0xbd3d13b3	-0.046161365
197	0x3d3c8a58	0.046030372
198	0xbe0289d6	-0.12747893
199	0x3d08657c	0.033299908
200	0xbe32a5a2	-0.17445996
201	0x3ccd378e	0.025050905
202	0xbd668efd	-0.056288708
203	0xbd27530e	-0.04085069
204	0xbdd9a5c2	-0.10627319
205	0xbd4e41fe	-0.050355904
206	0xbe04f9d4	-0.12985927
207	0x3cd2d2d8	0.025735304
208	0xbb4575be	-0.0030129994
209	0xbe12a2a0	-0.14319849
210	0xbd6f28cf	-0.058388527
211	0x3d76248a	0.06009344
212	0x3cab385c	0.020900898
213	0xbd95765a	-0.072979644
214	0x3c53df84	0.012931708
215	0xbd8abddd	-0.06774495
216	0xbd0ebff2	-0.034851022
217	0x3b3e96f8	0.0029081684
218	0xbda2727b	-0.07931992
219	0x3c3109ac	0.010805529
220	0x3d2be54e	0.04196673
221	0xbdc3e868	-0.09565812
222	0x3b9d45ea	0.004799594
223	0x3b869f98	0.0041083805
224	0x3d019c80	0.03164339
225	0x3d9dd27c	0.07706162
226	0xbd432fa0	-0.04765284
227	0xbd645d3d	-0.05575298
228	0x3d5c487a	0.053780057
229	0xbcbb6c9c	-0.022878937
230	0xbdb98d41	-0.09060145
231	0xbd97a2e5	-0.074041165
232	0xbcfd4426	-0.030916285
233	0xbdf13296	-0.117772266
234	0x3ceb74d2	0.028742228
235	0xbd207f82	-0.0391841
236	0x3b432602	0.0029777293
237	0xbd55d839	-0.05220816
238	0xbda90785	-0.08253387
239	0xbd575fb0	-0.05258149
240	0xbe1ee7ba	-0.15518084
241	0x3ca559a5	0.020184347
242	0xbdde5bd7	-0.10857361
243	0x3d998be3	0.074973844
244	0xbdf23444	-0.11826375
245	0x3d7db3ca	0.06193904
246	0x3db5f855	0.08885256
247	0xbc440824	-0.0119648315
248	0x3cb95eb2	0.022628162
249	0xbe073da0	-0.13207102
250	0xbdf52365	-0.119696416
251	0x3d4e0c54	0.050304726
252	0xbc4c7d5c	-0.01248106
253	0xbcff358d	-0.031153465
254	0x3c0edf00	0.0087201595
255	0xbdcdec0a	-0.100547865

fc2.bias f4 [128]
0	0xbd7a9e09	-0.06118587
1	0xbd9b93dc	-0.07596561
2	0xbde7c974	-0.11317721
3	0xbd2efc4c	-0.042721078
4	0xbde0532d	-0.109533645
5	0x3e337dc6	0.17528448
6	0xbdc3f511	-0.09568227
7	0xbdc0a429	-0.09406311
8	0xbd5d86d9	-0.05408368
9	0xbe0ae4e4	-0.13563877
10	0xbe09575e	-0.13412234
11	0xbbe7e53d	-0.007076888
12	0xbc9afe8e	-0.01892021
13	0xbc0cb6b7	-0.0085884845
14	0x3f12cc4f	0.57343
15	0x3d8e9702	0.06962396
16	0x3d47d142	0.04878355
17	0x3e31254b	0.17299382
18	0xbcffa948	-0.03120865
19	0x3d1ffa36	0.03905698
20	0xbd9b24cb	-0.07575377
21	0x3f1aeb52	0.6051532
22	0xbdc008c6	-0.093766734
23	0x3f1b99a5	0.6078132
24	0xbd3c6f20	-0.046004415
25	0xbb7f7cb5	-0.0038984243
26	0xbd274cd8	-0.04084477
27	0xbdd28fc1	-0.10281325
28	0xbd82c413	-0.063850544
29	0xbd72476a	-0.059150137
30	0x3f220ed3	0.6330387
31	0xbd6e1fda	-0.058135845
32	0xbd644a42	-0.05573488
33	0x3f17ca98	0.5929351
34	0xbdf201fd	-0.118167855
35	0xbe05274c	-0.13003272
36	0x3f39a934	0.7252381
37	0xbd087b27	-0.033320572
38	0xbe03a2e9	-0.12855114
39	0xbcdb2d0e	-0.026754882
40	0xbd5fa9fc	-0.05460547
41	0x3eba0e01	0.3633881
42	0xbd9e103e	-0.07717942
43	0xbf1c2e31	-0.6100798
44	0x3dffca9a	0.12489815
45	0xbdb71096	-0.089387104
46	0xbdcbdfc9	-0.09954793
47	0x3dae03a7	0.084967904
48	0xbd1695d3	-0.036763977
49	0xbdbd3b29	-0.092397995
50	0x3f038f42	0.5139047
51	0xbee803b2	-0.4531532
52	0x3f0c3dba	0.5478169
53	0x3f147533	0.5799133
54	0x3e77b1a0	0.24188852
55	0x3e72dfda	0.23718205
56	0xbdd71f36	-0.10504
57	0x3f3f91f6	0.74832094
58	0xbd6e1cd6	-0.05813297
59	0xbd3bcb0b	-0.045847934
60	0xbdd3a61e	-0.10334419
61	0xbd0b2d1a	-0.03397856
62	0xbe2bb190	-0.16766953
63	0x3e307086	0.17230424
64	0x3dbdb422	0.09262873
65	0xbc2e6d37	-0.010646156
66	0xbd9cd82b	-0.07658418
67	0x3edf84b6	0.43655938
68	0xbe2a2c5f	-0.16618489
69	0xbdc16d0e	-0.09444629
70	0xbd2901ef	-0.04126161
71	0x3f2f2921	0.6842213
72	0xbe14f6e0	-0.145473
73	0x3ef72b94	0.48275435
74	0x3daa5e89	0.083188124
75	0xbe328dce	-0.17436907
76	0x3e515072	0.20440844
77	0xbdf8d668	-0.1215027
78	0xbdb0609f	-0.08612179
79	0xbe0b3856	-0.13595709
80	0xbdfd8928	-0.12379676
81	0xbdb87e3b	-0.090084516
82	0xbd082f8e	-0.033248477
83	0x3fa3d302	1.279877
84	0xbd9f9b84	-0.07793334
85	0xbdb84e41	-0.08999301
86	0x3ea27c62	0.31735522
87	0xbd8acc4d	-0.067772485
88	0x3db3157e	0.08744334
89	0xbd22da40	-0.03975892
90	0xbdabe31b	-0.08392926
91	0xbd3206fe	-0.0434637
92	0xbed389d8	-0.41316104
93	0xbccf90d2	-0.02533761
94	0xbddc8d52	-0.10769142
95	0x3f0465b0	0.5171766
96	0xbe50df2a	-0.2039763
97	0x3e7ef29b	0.24897234
98	0xbd60d1b9	-0.054887507
99	0xbd9e6206	-0.0773354
100	0xbe0779a5	-0.13229997
101	0x3ed2ff9b	0.41210636
102	0xbd7da583	-0.061925422
103	0x3d1622c0	0.036654234
104	0x3ec45cc0	0.38352013
105	0x3e8e280b	0.27764925
106	0xbd12aff0	-0.03581232
107	0xbdd858f0	-0.105638385
108	0xbd9576ff	-0.07298087
109	0xbe080ca0	-0.13286066
110	0x3ece5c76	0.40304917
111	0x3e45bfd6	0.19311461
112	0x3f0043d5	0.50103503
113	0xbd82e234	-0.06390801
114	0x3f84baf3	1.0369552
115	0xbdc0e824	-0.09419277
116	0x3f3bc0ac	0.7334087
117	0xbdc74295	-0.097294964
118	0xbdc0d3ff	-0.09415435
119	0xbd9a1684	-0.07523826
120	0xbdd19e23	-0.1023524
121	0x3f27f1ff	0.6560363
122	0xbd65f61a	-0.056142904
123	0x3ea01029	0.3126233
124	0xbd9dab2d	-0.07698665
125	0x3e290741	0.16506673
126	0xbdb7fb84	-0.0898352
127	0xbe2d9eab	-0.16955058
